A2/softmax_best_model.pt (torch, 246604 bytes, 1 tensors)

W f8 [3073, 10]
0.004958846188681469 -0.0024598709566908718 -0.004028740733864197 -0.008595287761941333 -0.03378855397719657 -0.013268925223185629 0.014764252829875276 -0.004628605451371958
0.04797180742778941 -0.0009258931743797274 -0.00483619641333723 0.002934333788067486 0.011964726474549608 -0.0005283065108269416 -0.009152798662523729 -0.02788801108710137
0.01874063427562879 -0.01940643387768121 0.04049611728544183 -0.012325115349611131 -0.01165377194827128 0.010298205151366136 0.02025357275166017 0.0005528470269409551
0.0027193375932029183 -0.02444307704279167 0.01314457115036863 -0.016240200080872336 0.03083427709283594 -0.025465025745998165 -0.005509764704675719 0.008217613896236277
0.012776888405539113 -0.0025564360214156965 0.005570828007017337 -0.0068514396186128874 0.0019886060941283774 -0.018145208300370193 0.03295173498515971 -0.028445710137864677
0.00275129284735292 0.012990213367058304 0.003709294315991682 -0.005487991497720453 0.015577570369637535 -0.0003176960677065196 -0.006545449713768488 -0.020049709266717633
0.02625684670812733 -0.028883127098899924 0.004395028132133426 0.0010574692433585962 0.008157205216101145 -0.00408733601229161 0.005694885981963659 -0.004058540122869334
0.0008903949112263753 0.0015869786862527573 0.021586116653541758 -0.03522348862055626 -0.0017064008763059714 0.0023142684144767207 0.011944274481631234 0.0035330876206023857
0.0018734101418928528 0.0007274342364283537 -0.0005326300144764871 -0.005874204834094498 0.01994737263948187 -0.032228265333079736 -0.008020283855178795 0.003263798210710274
0.013285481094527991 0.021889482340332733 0.003005550556597603 -0.004623213072013084 0.001713486161038185 -0.022562619805234184 0.02278631604239863 -0.03073800694413487
-0.010266326263473556 0.00924570831565107 0.0022189515092999436 0.015840209118676986 0.010921380096446444 -0.017088219362232104 0.02543219141899909 -0.029520859169887625
0.014605370043578824 -0.021383416201661214 -0.013280051355771798 0.013840194816782631 0.00033955692855843227 0.012309632405736154 0.018015155357827207 -0.0032177345441769876
0.018880595021447 -0.027455104399690025 0.008403166330814492 -0.02783646978773782 -0.01218563082176812 0.004539482311929384 0.00021009735501051878 0.01051465728028501
0.015913967589561807 0.010735173186118828 0.013667962455726086 -0.027880968706244458 0.01006142263143784 -0.025574955181470994 -0.004263875740780855 0.007402717769242699
0.002905452555336184 0.021201365621432166 0.004752160855787072 0.00837541682741152 -0.00012410580444227387 -0.01984825264246245 0.003624636695510652 -0.024028009518882586
-0.008592292753082882 0.03531909228199898 -0.002386515729767108 0.01880267630451919 0.0007526562274559536 5.4913970721050004e-05 -0.0021860036613034596 -0.02041399251795448
-0.0037640208786156575 -0.017584980493339536 -0.007806857079088738 0.02531187980851457 0.005904249375174898 0.014861734876293041 0.0022645785207818236 -0.005454765091637935
0.013371911916711927 -0.03429067578190435 -0.001068661746435128 -0.013092619740134414 -0.010189275957922656 0.012924497070477535 0.013765524017613643 0.012821127556596895
0.010647022890906473 -0.007889388034690224 0.002256765470724861 -0.032645211500128175 0.0012792530138340833 -0.0029662231065045648 -0.01275209635289283 0.01048886014114753
0.02567832895228068 0.016491984444785817 0.012662193383092421 -0.01480673935953914 -0.012833894481071311 -0.028144688575798302 0.008436328804001149 -0.005220278599197138
-0.013178278064866308 0.009897079603811101 0.015898237410890925 0.01210470146322969 0.014357723371495787 -0.015018641066537743 -0.009990340038062645 -0.02423624325709433
0.011633679368361094 -0.0014632743022260232 -0.009760705075778644 0.004502298021577445 0.002929889886439228 0.00630100325160099 0.014601814523015441 -0.004594800676220255
-0.005754796306071853 -0.021748478501154123 0.006556671874130264 0.0069649491378285236 -0.014036973533545943 0.0015376028919453196 -0.01573332069532158 0.02523984960789449
0.015516420740212318 -0.006553893293812075 0.007457839497744162 -0.019956624275114784 0.0017489973367775836 0.004774292283343931 -0.019303536248322192 0.0067697189686197505
-0.01291707123641125 0.02147343357849996 0.017584933669018383 0.00031724406808480526 0.00452179153507118 -0.013209304369780996 -0.00018988570174449106 -0.005045384089931847
-0.014450317958815507 0.01610296445063942 -0.003610230502443025 0.014148247798600674 0.010820357882898354 0.005346257296695883 0.0003538436723330439 -0.02392253350569061
0.007025290537380532 -0.01181105541034637 -0.015857299724674524 0.013887098703075319 0.00454773288694872 0.007701064521368354 0.008116313695959677 0.013449285514158195
-0.0073442921630073104 -0.021834111054451658 0.015176982350157145 -0.017840617401790014 -0.012498578800668163 0.009663960377929878 0.004790107424155373 0.018535267376302282
0.01090267708930914 0.00739490667897856 -0.010714229634119225 -0.019282920441491734 0.012247503175182882 -0.021036660147695 -0.011461107551496975 0.021946848433859995
-0.0002859404455048528 0.03920971259884646 0.0003488722627859584 0.0005111351811209169 -0.008102682313957096 -0.01357751884291299 0.01092201517723646 -0.0395121835541713
-0.01338119306001729 0.016834981855328713 0.003160544338349837 0.03831728271714416 -0.00840023624120355 -0.00015921500563048028 -0.004807805475731198 -0.0027780175131189274
0.013187752874804745 -0.04197334435824851 -0.014889662998720878 0.009219669050461076 -0.003951529986879209 0.03593699760352206 0.0038844790142209943 -0.009536814365515909
00000000: 78ed 4c23 ba4f 743f 08b9 f629 b926 64bf
00000010: 23db 22db 7080 70bf 96ae b2fe 679a 81bf
00000020: 4c54 9fbc bb4c a1bf e3dc 17ff bc2c 8bbf
00000030: 0bfb 6e78 b83c 8e3f ccbb a2d0 71f5 72bf
00000040: 3392 10c0 c28f a83f 688b a773 f456 4ebf
00000050: 14c4 ea96 1ecf 73bf c632 f874 be09 683f
00000060: c369 4f67 f680 883f f88c d797 c14f 41bf
00000070: 8519 61d7 b3be 82bf 7f41 47be ac8e 9cbf
00000080: 24ce 47ad be30 933f d1b4 58bb 47df 93bf
00000090: 773f b636 e8bb a43f 899f c4fa e83d 89bf
000000a0: a397 24cb eedd 87bf ba32 a9b2 3917 853f
000000b0: 7ed4 6142 5abd 943f 6061 40f3 9d1d 423f
000000c0: 7d66 f240 dd46 663f 39b2 0c22 9b07 99bf
000000d0: 91ac af79 8aeb 8a3f bd4f e960 45a1 90bf
000000e0: a48f d64e 0593 9f3f 5b5c 15f3 8013 9abf
000000f0: ae9c 7133 6891 76bf 27e2 7b77 65d4 803f
00000100: 2e7e c5ee c42a 8a3f 7dc8 6623 3cf1 64bf
00000110: 67e4 a0c1 6fd1 763f 74b8 7a51 4110 7cbf
00000120: 84ee 71c4 684a 603f cfb2 ea50 a894 92bf
00000130: 1327 37c0 0cdf a03f 20b6 034b df20 9dbf
00000140: 719b a219 e189 663f 82f9 a2ec 9c9a 8a3f
00000150: 47d7 e838 f462 6e3f 4812 0e80 937a 76bf
00000160: a452 4f1a 22e7 8f3f 75c2 8a38 0ed2 34bf
00000170: 15fc 54c7 66cf 7abf 1423 6136 e987 94bf
00000180: 9f45 a127 13e3 9a3f 1817 2fd9 8993 9dbf
00000190: f2ee 7a61 8500 723f 23a6 45f4 5853 513f
000001a0: e410 0a8d b9b4 803f 8146 02e8 e1bd 70bf
000001b0: ff70 c050 8553 773f 8a3e 8e11 b09f 70bf
000001c0: 845d 1a83 2c2d 4d3f 5953 a463 4500 5a3f
000001d0: ae64 4cc4 ab1a 963f 4346 5a27 d008 a2bf
000001e0: 0b51 49fd 29f5 5bbf 5661 f064 5ff5 623f
000001f0: ad36 2f62 3d76 883f 6fb8 19f9 6bf1 6c3f
00000200: 0ab3 a6d2 a6b1 5e3f 339a b220 29d6 473f
00000210: 3215 1c3f 0674 41bf f365 70da 8c0f 78bf
00000220: bfc3 8284 156d 943f ec8a 3923 3980 a0bf
00000230: 6aaa e646 f06c 80bf 907e 6c52 aebc 6a3f
00000240: 0441 8016 6b35 8b3f e3c5 1c4b 326a 963f
00000250: 4e20 1bab 189f 683f 88d4 254f caef 72bf
00000260: 4910 86c1 e112 5c3f b6c6 b3c8 a71a 97bf
00000270: 352f cbc8 4b55 973f 61f1 46ba c879 9fbf
00000280: b9d9 69fc 8206 85bf 3aab c0f6 69ef 823f
00000290: da48 3e85 7a2d 623f 1a8e 8170 6a38 903f
000002a0: e13b bbd2 f25d 863f 730b 3bfd 927f 91bf
000002b0: db0e a479 e50a 9a3f b3ea bc52 b73a 9ebf
000002c0: e616 7795 6be9 8d3f 6b33 0dc5 88e5 95bf
000002d0: 7611 1952 9232 8bbf aae6 dd80 3f58 8c3f
000002e0: 36ed 3de7 d140 363f 900a dee4 ca35 893f
000002f0: 0d7d 609c 9072 923f 4f69 4d14 145c 6abf
00000300: 7da4 9548 6f55 933f 840d 05de 301d 9cbf
00000310: 39ee 96e4 ad35 813f 8769 7fdd 2981 9cbf
00000320: ab8e e2ae c7f4 88bf 22cc 2001 fe97 723f
00000330: c61c 9989 b289 2b3f 0606 2e69 b588 853f
00000340: 2d18 6349 c04b 903f 3f9d 028e 52fc 853f
00000350: f79c 00de f2fd 8b3f c0b2 1823 d48c 9cbf
00000360: 44e0 3949 159b 843f 7a82 6730 5230 9abf
00000370: c216 c66d ff76 71bf 5ed2 86eb 4f52 7e3f
00000380: 6365 91f6 2ccd 673f e3fa e58f cfb5 953f
00000390: 51ff 5f77 0077 733f 8dad e96a 2127 813f
000003a0: b017 1ebe 4c44 20bf 57b1 edaf 1953 94bf
000003b0: 66ae 2502 6ab1 6d3f 964b 496c cc9a 98bf
000003c0: 2429 fa02 d698 81bf 591a 8d14 5815 a23f
000003d0: f3f9 57e0 e28c 63bf 2b82 383f 0241 933f
000003e0: ba25 e7f0 bca9 483f a860 aeaa 6dca 0c3f
000003f0: 9ad9 7ec7 61e8 61bf f94a fbd8 67e7 94bf
00000400: 7c58 6752 b9d5 6ebf 5890 7a10 cc01 92bf
00000410: c27e 6d3d 15fa 7fbf 4052 e97f 5beb 993f
00000420: 28b4 94df 0d2f 783f 3944 0b4a d46f 8e3f
00000430: 8090 f355 2a8d 623f 32ae d05a bc57 76bf
00000440: 772b f0a2 bb62 8b3f 5e00 1526 8c8e a1bf
00000450: 6259 17d0 4a82 51bf 799e d2ac 4dd0 8abf
00000460: d0d5 1278 1dde 84bf d92c e1a1 2878 8a3f
00000470: 355e be5b 1931 8c3f b06b 6d9c f641 8a3f
00000480: c4fd ed38 1bce 853f 126e c1bc 4f28 80bf
00000490: 2c36 87bc c77c 623f 0932 8787 dfb6 a0bf
000004a0: 0cff e476 93f5 543f 6dbf 85e7 9e4c 68bf
000004b0: 6834 5466 c51d 8abf a276 3afa 2e7b 853f
000004c0: 138f 437c 6b4b 9a3f 5b92 5857 46e3 903f
000004d0: 18de ced3 a2ee 893f 4418 7aea fe52 8ebf
000004e0: 83b4 9c28 a848 8abf f9e5 f413 f6d1 9cbf
000004f0: 47ed 7de2 1047 813f 68c2 c0dd db61 75bf
00000500: 5816 738a 36fd 8abf e851 cb89 eb44 843f
00000510: 03ac f9a6 a047 903f 2aa0 4c87 59ca 883f
00000520: 8bce 9a02 9567 8d3f 4e6b b0e1 17c2 8ebf
00000530: bd49 eabd d075 84bf ae21 abc0 62d1 98bf
00000540: 6da5 5a03 66d3 873f c317 7bd1 6af9 57bf
00000550: 01e3 b0a8 6bfd 83bf 1aff 266c 0071 723f
00000560: 96c8 c7a7 6c00 683f 81a2 5cae 14cf 793f
00000570: b878 b55e 8ee7 8d3f 3e13 2d6a ffd1 72bf
00000580: 4e22 e05e 5792 77bf 3dd2 99af 3b45 96bf
00000590: abe3 5134 2bdb 7a3f ff92 3e4c 4787 7c3f
000005a0: 8357 17b2 6abf 8cbf f422 a688 2c31 593f
000005b0: b223 6047 651c 90bf 3fca 7ca2 79d8 993f
000005c0: 04a0 0abd 12c7 8f3f 0efe bb55 41d8 7abf
000005d0: 93b5 dd8b 1c8c 7e3f fc94 6662 826f 94bf
000005e0: 101e 2f97 d3a7 5c3f 9001 7f53 358e 733f
000005f0: 2ce7 8863 4ec4 93bf e35e 2c99 90ba 7b3f
00000600: eef5 29f4 4374 8abf 6158 cfbb 21fd 953f
00000610: 8505 0bec c801 923f abc3 b3e5 78ca 343f
00000620: a109 332c 7185 723f 9440 2bd2 7a0d 8bbf
00000630: 346f 08c2 81e3 28bf 189e 97fa 77aa 74bf
00000640: 5a39 66d8 2098 8dbf 0291 bca6 4b7d 903f
00000650: 0368 0cbe 3393 6dbf b8bd b9ac c1f9 8c3f
00000660: 388e e7d9 fb28 863f 60ca ec03 f5e5 753f
00000670: 1228 2500 8330 373f 9c78 2d0c 267f 98bf
00000680: 6fac a511 8dc6 7c3f 19dc bf05 6530 88bf
00000690: 9da2 e15e e53c 90bf a7d5 20d6 d670 8c3f
000006a0: ce82 53c0 a4a0 723f abf6 37c4 268b 7f3f
000006b0: 0715 1b2f 499f 803f 21c5 808b 4c8b 8b3f
000006c0: c72b 706a 0c15 7ebf a116 aa63 ae5b 96bf
000006d0: 2864 c416 1c15 8f3f 46e2 1f91 cf44 92bf
000006e0: f612 90d9 da98 89bf 1e34 2fce b2ca 833f
000006f0: c97a b2ab ca9e 733f deb9 d0bc e8fa 923f
00000700: bea8 4c8c 2454 863f 6faf 7d25 1f4a 7e3f
00000710: a202 0b8f 57f1 85bf 4699 abe2 e6be 93bf
00000720: 4cb2 c20c 3815 893f bed9 675d a28a 95bf
00000730: 7a7f e0d0 eb78 87bf 2844 1811 3c79 963f
00000740: f01c afdc 48bd 32bf a55f 98a2 4b13 a43f
00000750: e7ab 8af5 1add 363f e600 8171 b6bf 403f
00000760: 58f7 629c 2398 80bf 6a0b 21bb 87ce 8bbf
00000770: 83f0 f00f 485e 863f 1043 51e0 f03a a4bf
00000780: 4409 9854 9967 8bbf dd53 fd81 303d 913f
00000790: 83c0 4352 24e4 693f 8c8f 48a8 529e a33f
000007a0: 3926 7a9f 2434 81bf 1ea7 037c 5ede 24bf
000007b0: db6c 8a74 59b1 73bf 3ade bacb ecc1 66bf
000007c0: 6bac 703a 2e02 8b3f b014 a5ba 877d a5bf
000007d0: ce13 06bd 787e 8ebf e6d3 6908 c3e1 823f
000007e0: 8c44 01c1 7a2f 70bf 8bdc d88a 5566 a23f
000007f0: 5d9c 7fca 57d2 6f3f 859b 768e 0988 83bf
