A2/svm_best_model.pt (torch, 246592 bytes, 1 tensors)

W f8 [3073, 10]
000000 85 a5 88 fb 66 62 85 3f a3 ad 8f 47 7e a5 44 bf
       0.010441593695832871 -0.0006300798987672228
000010 e0 e5 51 e2 0a 28 62 bf b4 e0 cf f7 03 04 8c bf
       -0.002216359384473718 -0.013679533958552127
000020 56 37 64 89 ad 04 9c bf e9 34 b7 e7 cc 64 89 bf
       -0.027361594687185097 -0.012399292775536046
000030 3e 2b a8 ad 49 5f 83 3f 9c a8 7b a6 45 52 5a bf
       0.009459090816582024 -0.0016065292529057534
000040 b9 f6 7a 87 78 a5 a3 3f 8b af e5 1e c6 e5 38 bf
       0.038371817148328664 -0.00037990652972185655
000050 fd 9d 70 e1 63 0e 67 bf 0f 3b a5 ab 83 98 58 3f
       -0.0028144789498758525 0.0015012060017231576
000060 07 22 07 d6 8d 18 92 3f 84 d5 13 64 4c a4 6c 3f
       0.017671791256164606 0.003496312333136133
000070 d4 0c 21 d3 68 fb 73 bf 95 60 ec e6 4a 8f a2 bf
       -0.004878434630941803 -0.0362494856728414
000080 fd 1b 23 83 6b 68 92 3f 9f 8e 1c 14 ed cb 8b bf
       0.01797645557305926 -0.013572551895385586
000090 a0 1f 96 d1 1f d6 9d 3f cb 84 7b 35 63 20 89 bf
       0.02913713185037603 -0.012268805570274563
0000a0 00 03 53 cc bc 1b 8c bf c0 c5 ca 0e c0 d2 f9 3e
       -0.013724780068856912 2.4626963681389493e-05
0000b0 39 25 e6 af 1a d2 9e 3f 3b 21 e0 00 e6 cd 79 3f
       0.030098359094641956 0.006299875689372232
0000c0 dc 03 89 ba e1 9e 74 3f a7 6e 72 27 b6 26 9b bf
       0.005034333946753979 -0.026514860303548684
0000d0 d8 70 13 a4 56 54 92 3f 59 d6 aa 4b 1f a8 88 bf
       0.017899850620651886 -0.01203941774052024
0000e0 75 c7 f3 8d 63 25 93 3f bb a1 0a de ae 64 9a bf
       0.01869731477649546 -0.025774700453128335
0000f0 b1 8d 3c c1 ab 2a 82 bf a0 9c 37 c4 f5 15 5b 3f
       -0.008870450815783611 0.0016531848967760512
000100 27 04 30 87 9a 19 96 3f da 0a 66 d9 d6 fb 44 3f
       0.021582045079416325 0.0006403731411384853
000110 d3 b0 90 b7 bc be 75 3f 2e 9f 5a e2 eb b4 73 bf
       0.0053088542709185 -0.004811211989057358
000120 dc 87 1f c1 8b 7f 6b 3f 2f 03 a5 68 55 2a 90 bf
       0.003356717069423516 -0.015786489974973946
000130 a8 0b 7c 15 ed 03 98 3f be 59 e2 b7 1e 2a 9b bf
       0.023452476917565385 -0.02652786252346017
000140 48 3d 0f d7 30 d7 61 3f 39 cc cc 72 19 53 7e 3f
       0.0021778062732448512 0.00740346852107892
000150 da 39 80 94 2a 33 88 3f 9b 2b fa d6 1d aa 71 bf
       0.011816342026603022 -0.004312626420538114
000160 8e df 88 b8 7b 57 85 3f 1d 06 67 ed 9e 10 57 bf
       0.010420767373133601 -0.001407771303647449
000170 97 40 55 3a a8 23 71 bf f6 33 eb a3 95 17 94 bf
       -0.004184395923701476 -0.01962121785145495
000180 90 f4 8f 1d 6e 8e 96 3f 2e 71 e7 4b 18 e7 98 bf
       0.02202770286020389 -0.02431905711442644
000190 80 1a 03 bc 91 d8 7f 3f 4b ba c0 c4 28 da 7c bf
       0.007774895930373504 -0.0070439903757191875
0001a0 da 18 e7 05 20 68 8f 3f 7c 57 42 cd bc 68 80 bf
       0.01533532159818345 -0.008012270940792147
0001b0 43 af a0 64 59 c5 5f 3f 4a e3 cd e1 80 d4 6f bf
       0.001939141557623495 -0.003885509226560312
0001c0 7b cc 9a f0 5b bb 7a 3f df 4a d8 fa d5 75 46 3f
       0.006526335849844074 0.0006854338477658392
0001d0 1f ac 12 22 b5 eb 95 3f 02 e8 9c 64 c9 c7 a1 bf
       0.021406965450904033 -0.034727376491403575
0001e0 b2 e0 eb da 08 e5 44 bf cc a3 06 eb c7 39 52 bf
       -0.0006376546133131293 -0.0011124088597205149
0001f0 b8 b8 27 d0 fc 90 92 3f 34 f8 bf d6 1e ff 19 3f
       0.018131208615095956 9.916902280335331e-05
000200 28 58 62 a7 1e 16 57 3f 78 83 2a fd 17 82 34 3f
       0.001409082351107491 0.00031292997042880284
000210 ae 25 d6 ff d8 c3 65 3f 88 39 dd 86 3b 3d 73 bf
       0.002656864001157464 -0.004697067762960201
000220 15 27 c8 14 03 cb 92 3f fa 02 16 d0 15 ac a1 bf
       0.01835255445806812 -0.03451603093254181
000230 09 b4 31 fe 57 5b 83 bf ca 85 d4 8a 3c f8 28 bf
       -0.009451568074121413 -0.00019050349275410847
000240 42 05 28 e3 21 b3 94 3f aa 4e ef a0 9b 98 95 3f
       0.020214585771104916 0.02108996553199797
000250 72 84 ae 61 1b f8 5f 3f cf f4 af 7f 37 fd 7a bf
       0.0019512431524406873 -0.006589142601112387
000260 91 37 81 64 bd a8 6c 3f a0 b7 24 1f c9 55 97 bf
       0.0034984301637796607 -0.02278818371376412
000270 5c 14 66 db c9 2e 97 3f 3a 40 4f cd 6d 1a 9f bf
       0.02263942147830665 -0.03037425580606643
000280 cc 68 a7 a8 78 a0 7e bf 69 0f 01 9f ed 0b 81 3f
       -0.007477256129698694 0.008323532500191981
000290 a1 e7 b9 81 80 66 8a 3f 7a 57 b6 99 19 1a 8b 3f
       0.012890819510392339 0.01323337555258396
0002a0 f1 9b 49 b1 7c 8b 80 3f 10 f0 0b 29 72 be 91 bf
       0.008078550491701338 -0.017328056102073275
0002b0 29 24 af 25 ec 15 9b 3f 51 65 82 a3 a3 96 a1 bf
       0.026450815010125837 -0.03435241099323128
0002c0 1b 1a b8 c0 c0 97 8d 3f 6f 9a f6 fe e4 d8 98 bf
       0.014449602013894716 -0.024264886914944158
0002d0 36 77 6f 47 80 e0 84 bf 73 aa f1 2c 92 3d 87 3f
       -0.010193826847110548 0.011347906109411476
0002e0 e0 bc fb 13 17 ad 79 3f 9f 26 32 0b 8c 37 88 3f
       0.006268587254211172 0.011824697581931885
0002f0 79 92 3d 7e 0e ac 91 3f 48 6f 0f fb f4 97 5a bf
       0.017257906394109377 -0.0016231434240045629
000300 71 80 e8 60 df 60 95 3f 80 a6 76 9c a2 18 9f bf
       0.020877352037246447 -0.03036741332986148
000310 54 e7 9b b0 b7 e5 83 3f 42 d9 78 5d bb f9 a1 bf
       0.00971549518316165 -0.03510842815414829
000320 8b 1b 58 e3 d8 e5 83 bf 1b 5b d5 ed 93 29 51 3f
       -0.009715742528909185 0.0010475105876445792
000330 88 cc 67 65 c9 c1 54 3f 44 3a 2b 86 80 99 8b 3f
       0.0012669054755150306 0.013476375669964409
000340 0f 3a b5 99 95 af 8f 3f 9e ff 76 1e ed 70 8f 3f
       0.01547161937074029 0.015352108471119948
000350 be 73 6c cf 2d 7d 8a 3f fa 29 c1 e8 95 57 9e bf
       0.012934072392050907 -0.029630987483224992
000360 f1 a7 1d 4b 32 df 84 3f 16 12 f6 c6 22 1f 9f bf
       0.010191338460305817 -0.030392211335781814
000370 fa 21 a3 d4 a1 1e 4c 3f 0e bb 8c 59 a9 7b 29 bf
       0.0008581438244386612 -0.00019442026384682741
000380 02 ba 9d 57 1f 69 64 3f bd 28 60 4a dd 2d 9d 3f
       0.002491532531102126 0.02849527136280793
000390 3b 99 d7 58 0f e1 6b 3f 3e 68 62 c7 97 56 85 3f
       0.003403215384184891 0.010419069072941874
0003a0 f9 13 d9 8d 7b 84 71 bf 4e 19 6a 67 3e 56 91 bf
       -0.00427673590963184 -0.016930556356350927
0003b0 2b 32 7c 37 a6 6d 6b 3f a9 e1 34 3a 4d 47 9c bf
       0.0033481832905464435 -0.027615744283339492
0003c0 71 a6 2a fa 5d a0 74 bf 6f 02 ba 1e eb 05 a1 3f
       -0.005035750483025945 0.03324827909546434
0003d0 55 3b 6a 49 49 8f 7d bf 60 8c 80 95 83 16 98 3f
       -0.00721672656676627 0.02352338409413013
0003e0 b1 d4 ac aa 1d c7 6d bf 09 3a 16 e9 ca 51 70 bf
       -0.0036349849155166915 -0.003984253520128885
0003f0 f6 2f 58 98 84 00 6d bf ff 68 ad 3e cd 41 8c bf
       -0.003540286040111691 -0.01379738185430712
000400 12 94 fe 63 29 d4 53 bf bc 3f 47 93 8b ca 92 bf
       -0.001210251255522769 -0.018350773681788488
000410 02 9f 13 f9 19 a1 56 bf bd f3 a6 3c 63 18 9d 3f
       -0.0013811830179352729 0.02841334397975336
000420 18 3b 07 7f 76 c6 4e 3f f5 74 e1 28 95 8b 8c 3f
       0.0009391859621759894 0.013938107786254575
000430 28 e9 88 2b 83 02 38 bf 37 1a 55 6f 9b 85 8d bf
       -0.00036636068719854637 -0.01441499169835679
000440 36 26 77 8d 8b ab 91 3f c0 b4 a4 41 83 8d 9e bf
       0.017255955228199414 -0.0298367031875173
000450 77 5b e4 88 50 56 73 3f 33 12 cb f9 e9 ba 93 bf
       0.004720987881475894 -0.019267707701845004
000460 32 57 47 62 1d 25 75 bf f5 ef aa 18 ac 13 94 3f
       -0.005162348538268623 0.019606293683622728
000470 2b b6 46 0f 7e c1 88 3f 51 80 79 aa 18 b1 8b 3f
       0.01208780750388446 0.013521378233406408
000480 cc fc 43 32 92 a5 8d 3f 3b 0f d8 86 22 23 93 bf
       0.014475958022102019 -0.01868871639273027
000490 3e ea 6b f9 53 b7 4c 3f 6f 10 91 f4 69 18 a0 bf
       0.0008763465910697832 -0.03143626318390679
0004a0 af 92 5d 53 4d 0d 75 3f 5e 73 b0 df 5f 55 85 bf
       0.005139638951594235 -0.010416745199160079
0004b0 28 65 0e ce 8f a2 7f bf b1 1c 26 2d 17 a7 8a 3f
       -0.007723390329283299 0.013014012399038629
0004c0 fa d0 2a ed 17 d8 9d 3f bc 52 e7 14 01 14 95 3f
       0.029144643641033398 0.020584122563223714
0004d0 4b 4a d0 08 c1 97 94 3f 74 5c 39 70 b0 da 98 bf
       0.020110145724240785 -0.024271733140576804
0004e0 74 a1 3a 1c c9 75 92 bf 71 a7 08 ae 71 39 9e bf
       -0.018027441356623666 -0.029516006705456236
0004f0 85 fc 13 c5 e4 c6 85 3f 4b c5 37 da 91 90 8c bf
       0.010633265747399765 -0.013947619888286985
000500 12 85 07 ca 94 71 85 bf 7b 3f 73 13 c2 03 91 3f
       -0.010470545211264812 0.016615898549218393
000510 82 79 9c 44 78 12 8f 3f b0 3d 4a 0e c7 3d 86 3f
       0.015171947091911834 0.010860018848034197
000520 36 3b d5 41 f6 aa 90 3f f7 b8 f3 a1 60 9b 95 bf
       0.01627716805279108 -0.021100530514495976
000530 1a cb 4d 23 d1 a2 7f bf 5f 8e d4 6e 1d a9 9a bf
       -0.007723633713669265 -0.026035747422737617
000540 be a6 b2 d1 e9 4b 90 3f e6 97 ad c7 8b 77 83 bf
       0.015914586471501783 -0.0095053596794052
000550 8a 7f b3 7c e7 3b 84 bf ce 72 2c 28 cd 89 80 3f
       -0.009879883282735386 0.008075335300924105
000560 38 6b 04 95 bf c8 67 3f 03 36 2e 35 3e 86 70 bf
       0.002903341468607403 -0.0040342741002752395
000570 d5 07 d3 bc 8b 9d 91 3f 8c 77 ec 10 5b d8 84 bf
       0.017202552223132123 -0.01017829080006629
000580 e6 b9 b1 2b 1a 22 6c 3f 4f 32 6a b2 d2 6f 93 bf
       0.003434229960070245 -0.018981258525445018
000590 ee 63 55 65 36 3e 83 3f 41 0b 6d a1 23 e1 60 3f
       0.009396004645781244 0.002060479727704318
0005a0 20 4d be 3d 0e a8 8c bf 13 d6 75 5f 2b 4b 5d 3f
       -0.013992415675409264 0.0017879413188358658
0005b0 7b bd 58 da ea 67 91 bf fd 81 be de 3f e4 96 3f
       -0.01699797589952599 0.022355077715134886
0005c0 21 29 7c 2d 6c 81 91 3f 3e f6 78 d3 3a 23 7d bf
       0.017095270420250167 -0.00711367587024153
0005d0 7f 7a e6 43 9d 9c 92 3f 03 36 0b 33 d0 c1 90 bf
       0.01817556120806296 -0.016364338984933734
0005e0 6c 80 cf 2d 52 1d 2b bf 7e 3f ae bf be 6d 73 bf
       -0.00020686748658161073 -0.004743332969965651
0005f0 2b ce a7 f5 27 40 91 bf 37 59 b6 5a dc 4a 82 3f
       -0.016846298569318 0.008931848066634813
000600 52 c8 06 89 86 c1 8d bf 56 dc f7 16 0b 01 95 3f
       -0.014529276901928654 0.020511792446964293
000610 d9 25 c9 cf 5e 7f 97 3f 61 ee c0 1f 0c 65 67 bf
       0.02294681685660813 -0.002855800323258426
000620 18 a5 02 87 5e c2 82 3f 5a 9a 62 d9 0d ee 83 bf
       0.009159792418659538 -0.0097313959088982
000630 5e 2b 19 7f 7f 9c 6a bf 2f 47 b2 47 f2 5c 8d bf
       -0.0032484522023756143 -0.014337437451363037
000640 62 c8 88 f4 bd a4 82 bf 0e cf 75 40 d7 bc 8a 3f
       -0.009103282952399098 0.013055497793835549
000650 52 83 d5 41 58 29 77 bf f2 28 b9 64 42 b4 83 3f
       -0.005654663805530218 0.009621161173658941
000660 58 a8 fe cf 7f e8 89 3f 14 e6 42 66 d0 bf 76 3f
       0.01265048840999243 0.00555402189291378
000670 a0 90 5d 82 6e f3 74 3f 0c 9c 23 23 f0 a5 94 bf
       0.00511496703788708 -0.020164253372879457
000680 68 20 c0 6f 0b 3a 80 3f de d4 c5 d2 61 73 93 bf
       0.007923211429457136 -0.018994835366773148
000690 d9 05 03 74 27 50 92 bf 60 be 8d fd f9 ed 8a 3f
       -0.01788388867931254 0.01314921669992869
0006a0 e4 26 e2 22 2e b4 6d 3f 29 09 04 cb b6 96 7d 3f
       0.00362595568646361 0.0072238102295634566
0006b0 30 f2 bd e1 7c 21 7a 3f 99 89 9d 61 f9 7b 94 3f
       0.0063795927234165245 0.02000417383477213
0006c0 a8 a5 f5 52 e5 0c 7f bf b5 46 a7 6d 0c 5c 92 bf
       -0.007580657765495692 -0.01792926234504107
0006d0 03 a1 1d 0b 63 02 94 3f 77 0e 44 5d 08 2a 9b bf
       0.019540355256510555 -0.026527529423232523
0006e0 24 7e b4 27 04 61 91 bf 2c 91 9f 21 b2 13 85 3f
       -0.016971650050548473 0.010291473055936771
0006f0 78 ba dd dc 3c d7 7a 3f 28 f7 bf bf c3 43 86 3f
       0.006552922959470402 0.0108714383022704
000700 de e9 cb ce ea 80 80 3f 29 7a 28 ea 09 ac 89 3f
       0.00805839007943104 0.012535169084967173
000710 e0 6a 0c 4a 07 49 82 bf 2f 6d c5 9d ed 00 85 bf
       -0.008928353259354649 -0.010255676629347647
000720 69 1e e1 79 3c d6 8d 3f f2 f0 a4 71 b4 5c 9b bf
       0.014568779439414219 -0.02672082847242136
000730 d2 60 e8 63 73 4b 8a bf 5c b1 aa f1 c2 bc 88 3f
       -0.012839223371927142 0.012078783989033219
000740 26 18 4f 6f 1e 1e 70 3f 31 a9 91 fc 7b 74 a2 3f
       0.003934973607959724 0.0360449548541787
000750 2b 4c 2b d9 ad 4d 1e bf 1d 13 fb 44 2c e7 75 3f
       -0.0001155984266845578 0.005347416808665154
000760 50 c2 61 32 60 2a 85 bf 58 d1 ba 26 8b ab 70 bf
       -0.010334731614620868 -0.004069846687049093
000770 ea c8 b7 5b fc af 89 3f d3 25 33 58 5f ce a5 bf
       0.012542697476395099 -0.042590121761871956
000780 57 5b b9 5c 36 a7 86 bf 93 5c 9c a5 fa 03 72 3f
       -0.011061119751656951 0.004398326005477976
000790 f9 78 99 c8 81 98 87 3f 11 d8 6b 55 84 32 a4 3f
       0.011521352705298403 0.03944791357746181
0007a0 30 45 db db ce 0a 82 bf 0e b1 2d da 10 5a 71 3f
       -0.008809677204598104 0.0042362840930361256
0007b0 89 a4 98 46 ed df 7c bf e2 89 49 d3 f5 ea 40 3f
       -0.007049490793670129 0.0005162906950995606
0007c0 96 e0 fa aa c5 97 8b 3f fc 92 38 e7 6f e5 a7 bf
       0.013473076134104905 -0.046672341323107575
0007d0 fe 9c 02 c2 04 74 90 bf 29 82 cb ba 83 30 38 bf
       -0.016067575780337677 -0.00036910263115255915
0007e0 93 ab 8d 8c a1 fa 6a 3f f5 55 a4 42 51 da a2 3f
       0.003293338323080383 0.0368218797540684
0007f0 7f 5c e6 0f de d8 68 3f 64 83 5c 96 55 90 6e bf
       0.003033097949081631 -0.0037309333446419613
