A5/transformer.pt (torch, 415951 bytes, 387 tensors)

emb_layer.weight f4 [16, 32]
-0.18577918 1.1408839 0.36982414 -0.33537683 -0.86415267 -0.14023083 1.5170486 0.37180105
-1.5822861 0.17362885 -0.39867154 -0.97874296 -0.46420288 1.2477463 -0.08121736 -0.32104158
-0.37665093 0.0065005417 -0.078901954 -0.37429115 0.47332144 -1.01881 -0.45808005 0.15212503
-2.047557 -0.17188035 0.679016 -0.05877497 0.41656035 -0.36268887 -1.2596185 0.0030863388
0.62388235 -0.54643327 1.7359251 0.8016761 0.48023403 0.699134 -0.5568443 -0.91188306
1.1789558 0.27322796 0.39169404 1.3975923 1.1649493 0.40657115 0.302783 0.87976515
-0.76351064 0.22955048 -0.3886826 0.06964138 2.7667572 1.3904558 1.9134597 -2.2741098
0.96065897 -0.35542598 1.9714738 2.9303305 0.7590153 -0.9028348 -1.5604845 0.76175016
-0.73336446 1.400622 -0.49551272 0.4759101 -2.0113425 -0.9052844 0.90576714 -0.19537237
0.9759575 -0.7277277 -0.8042137 0.20665595 -1.7062 -0.46176517 1.3332337 0.24010302
-0.5120255 -2.1602056 -2.2298558 1.1788146 0.32653376 -0.4146361 -0.4519635 1.4980284
1.5321138 1.088628 0.97682875 0.38728046 1.0539014 0.21004482 -2.6257627 -0.43467212
1.0688943 1.002712 -0.010701335 0.6338816 -1.2315781 -0.21436213 2.522048 0.41628355
-1.7117823 0.19109574 1.1144127 3.5538046 0.09311226 -0.6782219 -1.1854106 1.2644562
1.0614096 -0.27983397 0.14607678 -0.9188081 0.6380365 -0.6512184 -0.02992258 -0.4972886
1.3157381 1.2162589 1.38654 0.7469002 -0.0395604 2.0564227 0.6087641 0.13180341
-0.7621303 1.6006569 -0.31361932 -0.467808 0.64064866 -0.32664645 -0.25172895 0.88945353
-1.2374837 0.37800327 -0.5609191 -0.89497507 -0.8104886 0.5156399 -2.1705 0.0023142076
-0.5162868 0.16153736 0.9760361 0.15293862 -1.88697 -0.7554677 -0.30348516 -0.3313961
-0.6734804 1.0673724 0.6627052 -1.9651154 0.95273477 -0.41662672 -0.0988486 0.82323736
-0.26008272 -0.12227416 -1.4766735 -0.26071298 1.4255979 0.43636176 1.3275542 -0.7649769
0.10400016 -0.61768645 1.1973425 1.4524534 0.23082627 0.9389931 -1.4531282 -0.30077264
1.7928178 0.4817193 1.3535256 0.65751904 1.1218457 1.4357563 0.9703875 0.80016035
-0.38280934 -0.5066655 0.69730604 -1.8015 -0.045818638 0.563281 -0.28480577 -0.90152025
-0.9858067 0.17878382 -0.37952533 0.13067749 -1.4804211 1.2851512 0.5702445 -0.590691
-0.69812465 -0.7858046 -0.35292348 -0.56517196 -0.24989109 -0.54812473 -0.9553026 0.95909256
0.5128992 -0.45075032 -1.710692 0.8870949 0.7584372 -0.45701063 0.787665 -0.33003634
0.44881138 -0.5758528 1.1377666 0.28394622 -0.096216455 2.2875695 -0.23642395 -0.107421145
2.3014927 -1.0132799 -0.5137798 -0.63510686 0.043642413 0.07792977 -0.7568082 0.13264298
0.23871894 1.9165267 -1.2295591 -0.48013118 0.4756558 -0.39371502 -0.39115843 0.24772851
-0.6255695 0.42634663 1.7145417 -0.14325643 -1.0883368 -0.005980375 0.19607016 -0.3219454
1.6536661 0.43787593 -0.120083116 0.9759329 0.8005243 1.6037139 -1.5912166 -1.8514695
00000000: e63c 3ebe 7c08 923f 9759 bd3e 83b6 abbe
00000010: 1c39 5dbf ac98 0fbe a62e c23f b55c be3e
00000020: 5a88 cabf c3cb 313e ad1e ccbe e68e 7abf
00000030: 00ac edbe 27b6 9f3f 4a55 a6bd 905f a4be
00000040: 64d8 c0be 7f02 d53b 5997 a1bd 17a3 bfbe
00000050: 3057 f23e 5e68 82bf 7889 eabe aac6 1b3e
00000060: 2d0b 03c0 6701 30be fed3 2d3f 06be 70bd
00000070: 6647 d53e 5bb2 b9be 2e3b a1bf 2c44 4a3b
00000080: c1b6 1f3f 0de3 0bbf cb32 de3f a53a 4d3f
00000090: 3ce1 f53e 72fa 323f 598d 0ebf 2b71 69bf
000000a0: 06e8 963f 89e4 8b3e 1f8c c83e 4ee4 b23f
000000b0: 0f1d 953f 182a d03e 6006 9b3e 4a38 613f
000000c0: 6f75 43bf 480f 6b3e 6801 c7be 24a0 8e3d
000000d0: 8d12 3140 75fa b13f 3fec f43f 048b 11c0
000000e0: bfed 753f 65fa b5be 4159 fc3f 898a 3b40
000000f0: d44e 423f 2e20 67bf f5bd c7bf 0f02 433f
00000100: c6bd 3bbf 9547 b33f d8b3 fdbe 7daa f33e
00000110: d6b9 00c0 b8c0 67bf 5be0 673f b20f 48be
00000120: 5ad8 793f 5d4c 3abf f3e0 4dbf 9e9d 533e
00000130: c364 dabf 7c6c ecbe 67a7 aa3f 91dd 753e
00000140: 1a14 03bf cf40 0ac0 f5b5 0ec0 66e3 963f
00000150: 6f2f a73e 2f4b d4be c367 e7be 65bf bf3f
00000160: 4e1c c43f 2a58 8b3f 7311 7a3f a049 c63e
00000170: 3ee6 863f fd15 573e 7f0c 28c0 588d debe
00000180: 87d1 883f de58 803f a754 2fbc 1146 223f
00000190: 5aa4 9dbf bf81 5bbe 3c69 2140 1e23 d53e
000001a0: af1b dbbf 9aae 433e 13a5 8e3f 8971 6340
000001b0: a4b1 be3d f39f 2dbf 89bb 97bf b3d9 a13f
000001c0: 45dc 873f 6646 8fbe 2795 153e 0237 6bbf
000001d0: 5c56 233f 40b6 26bf 3320 f5bc 9d9c febe
000001e0: 1b6a a83f 5fae 9b3f 257a b13f da34 3f3f
000001f0: 160a 22bd 6e9c 0340 f7d7 1b3f 79f7 063e
00000200: f91a 43bf 53e2 cc3f b692 a0be 8884 efbe
00000210: 8d01 243f 343e a7be 9ee2 80be 3ab3 633f
00000220: de65 9ebf a589 c13e 6598 0fbf 161d 65bf
00000230: 2e7c 4fbf fa00 043f 79e9 0ac0 f6a9 173b
00000240: 5f2b 04bf 0d6a 253e 80dd 793f f19b 1c3e
00000250: 3c88 f1bf 5566 41bf 6862 9bbe c0ac a9be
00000260: 3669 2cbf a99f 883f 0ca7 293f e788 fbbf
00000270: 6de6 733f 1950 d5be 2371 cabd afbf 523f
00000280: 9029 85be e06a fabd a303 bdbf 2c7c 85be
00000290: fe79 b63f cf6a df3e 4ced a93f 87d5 43bf
000002a0: 09fe d43d b320 1ebf 8542 993f fee9 b93f
000002b0: b95d 6c3e da61 703f 1b00 babf dffe 99be
000002c0: 0e7b e53f e9a3 f63e 5440 ad3f 2b53 283f
000002d0: a498 8f3f ddc6 b73f 516b 783f 4fd7 4c3f
000002e0: 96ff c3be d5b4 01bf a682 323f 8d97 e6bf
000002f0: 53ac 3bbd 2f33 103f 10d2 91be 08ca 66bf
00000300: d45d 7cbf 1b13 373e 2551 c2be 52d0 053e
00000310: 707e bdbf d67f a43f 8bfb 113f 8637 17bf
00000320: 4cb8 32bf 7e2a 49bf 63b2 b4be 1caf 10bf
00000330: 73e3 7fbe e751 0cbf b68e 74bf 1787 753f
00000340: 5d4d 033f bfc8 e6be f5f7 dabf a718 633f
00000350: f128 423f 4cfd e9be 6aa4 493f 86fa a8be
00000360: 9bca e53e 176b 13bf 56a2 913f 6661 913e
00000370: 220d c5bd 8a67 1240 1f19 72be 9eff dbbd
00000380: a84b 1340 28b3 81bf 1387 03bf 5d96 22bf
00000390: 63c2 323d a599 9f3d 2fbe 41bf 90d3 073e
000003a0: bd72 743e bf50 f53f 3162 9dbf c1d3 f5be
000003b0: 2889 f33e 0495 c9be eb45 c8be 8bac 7d3e
000003c0: 5325 20bf 1b4a da3e 1a76 db3f d0b1 12be
000003d0: 9f4e 8bbf 06f7 c3bb 9ec6 483e 07d6 a4be
000003e0: 55ab d33f 4631 e03e 23ee f5bd bdd6 793f
000003f0: 29ef 4c3f 7f46 cd3f fcac cbbf f4fc ecbf

encoder.layers.0.attn.attns.0.q.weight f4 [8, 32]
-0.36357474 -0.083324805 0.27251798 0.22038317 0.36342114 -0.3753554 -0.07487516 -0.15345109
0.020852733 0.35691962 -0.13386951 0.18363541 -0.027468622 -0.27884057 -0.029648079 -0.2274658
0.19993031 -0.11421182 0.13271119 0.29161072 -0.20061913 0.008126265 0.352242 0.3016098
-0.10383877 0.24468169 -0.36872438 0.2320641 -0.13405778 -0.05805963 -0.12783737 0.22258802
-0.11924779 -0.22736734 0.2512061 0.37694103 0.35459906 0.02926666 -0.2665563 -0.329155
0.20682132 0.04052181 -0.25695723 -0.23103975 -0.09383315 -0.23035792 -0.29902765 0.22555603
0.26221332 0.17202616 -0.056749687 0.3880118 0.009959162 0.16903558 -0.31591806 0.0013238391
0.0796748 0.025057018 -0.332377 0.11667621 -0.2129149 0.02088986 0.3830399 -0.003751553
-0.26489913 0.25111464 0.39384526 0.34572127 0.13339904 0.11244157 0.3514392 -0.06543291
0.07612613 -0.031003365 0.27111924 0.22758472 -0.16797362 0.081136875 0.34241432 0.20824808
0.101398446 0.16843988 -0.12656958 -0.37988505 -0.21501087 -0.20814614 -0.22212398 0.0120555395
-0.309124 0.32664967 0.17089663 0.20211925 -0.22447103 -0.2635746 -0.034061983 -0.23973337
0.34018055 -0.021082215 -0.33597317 0.32156202 -0.12824032 0.19890988 0.3350163 -0.21765494
-0.27555084 -0.25519586 -0.08548737 -0.084886625 0.1414947 0.068111375 -0.33184063 0.14847793
-0.18469645 0.102705605 -0.35911396 -0.292147 -0.39855653 -0.09717342 -0.2351619 0.053829562
-0.28868535 0.025881873 -0.25470874 -0.1388061 -0.1713701 -0.0029645688 0.080001146 -0.17240143
-0.29188427 -0.11055344 -0.24176587 -0.30599946 0.1364158 -0.18880822 0.02504909 0.11395555
0.0066224923 0.16137388 0.27466732 0.12055397 -0.37117428 0.24927504 -0.36779913 0.116352305
0.06674907 0.2578783 0.033433825 -0.10349633 -0.29895043 -0.009031128 0.28772876 0.14339978
0.34042892 -0.15218481 0.10046881 0.31647775 -0.07750817 -0.18540128 0.11475586 -0.23509686
0.12668526 -0.10433204 -0.3756209 0.058397777 0.22736758 0.277104 -0.20470905 0.21399787
0.06635549 0.18868065 0.07829862 -0.28446317 0.32479018 0.2136654 -0.28895563 0.32632327
-0.34377947 0.10470388 0.23476338 -0.35093856 -0.058327958 -0.18803209 -0.2573373 -0.3582889
-0.35745052 0.17155561 -0.073743634 -0.19969137 -0.12850592 0.0032264523 0.12607363 -0.15300706
-0.2785001 0.07728502 0.02539947 0.3487113 -0.16248517 -0.28554714 -0.3243253 -0.30913305
0.06595661 -0.13577092 0.2823631 0.25220463 -0.12472826 0.012217617 0.24021667 -0.0973988
0.09690232 0.14766715 -0.15474647 0.05362899 0.37222707 -0.24089585 -0.34611633 0.24388544
-0.01965142 -0.00033181004 0.033367347 0.24943796 -0.35579106 0.12552214 -0.34555247 0.24903461
-0.29782277 0.26597092 -0.095891304 0.23194042 -0.14053579 0.2234526 -0.16039653 -0.25827205
0.33676514 0.2883744 -0.22862153 0.2893822 -0.13493502 0.16687468 -0.15162304 0.17417337
-0.13519256 -0.31329036 -0.051870473 0.33368483 -0.080929086 0.036664613 0.11709719 -0.14002173
0.20781526 -0.073739514 -0.25539955 -0.30691665 -0.1849145 -0.015194816 0.041355792 0.07239355
00000000: 7826 babe 32a6 aabd 7a87 8b3e 20ac 613e
00000010: 5612 ba3e 952e c0be 2658 99bd 4822 1dbe
00000020: 5ad3 aa3c 2bbe b63e 1715 09be ec0a 3c3e
00000030: e005 e1bc 31c4 8ebe 87e0 f2bc cbec 68be
00000040: 88ba 4c3e e3e7 e9bd 71e5 073e 004e 953e
00000050: 1a6f 4dbe 0724 053c 1059 b43e 9a6c 9a3e
00000060: 6ca9 d4bd d68d 7a3e 71c9 bcbe 36a2 6d3e
00000070: 7146 09be efcf 6dbd cde7 02be 1dee 633e
00000080: 2f38 f4bd fcd2 68be 169e 803e 6afe c03e
00000090: 028e b53e a2c0 ef3c 117a 88be 0187 a8be
000000a0: f8c8 533e 33fa 253d e68f 83be af95 6cbe
000000b0: 982b c0bd f2e2 6bbe 271a 99be 29f8 663e
000000c0: d340 863e a027 303e 5c72 68bd 7ca9 c63e
000000d0: c12b 233c aa17 2d3e 03c0 a1be ab84 ad3a
000000e0: 8b2c a33d 6044 cd3c 512d aabe f0f3 ee3d
000000f0: 5d06 5abe 3621 ab3c ce1d c43e 9ddc 75bb
00000100: dca0 87be 1992 803e 16a6 c93e 6102 b13e
00000110: c299 083e c447 e63d d7ef b33e b101 86bd
00000120: 04e8 9b3d c5fa fdbc 24d0 8a3e f80b 693e
00000130: 4701 2cbe 172b a63d ee50 af3e fc3e 553e
00000140: fda9 cf3d 817b 2c3e 759b 01be 4b80 c2be
00000150: cf2b 5cbe 4324 55be 7874 63be 9984 453c
00000160: 8045 9ebe a03e a73e 87ff 2e3e 59f8 4e3e
00000170: bcdb 65be 40f3 86be 9484 0bbd aa7c 75be
00000180: 252c ae3e 9cb4 acbc ad04 acbe c7a3 a43e
00000190: 6e51 03be 08af 4b3e 4287 ab3e f0e0 5ebe
000001a0: 0015 8dbe 08a9 82be 0114 afbd 0ad9 adbd
000001b0: fde3 103e fa7d 8b3d 04e7 a9be 990a 183e
000001c0: 1121 3dbe 5157 d23d c9dd b7be 4b94 95be
000001d0: 9a0f ccbe dc02 c7bd 48ce 70be 637c 5c3d
000001e0: 91ce 93be 3906 d43c 2f69 82be 3023 0ebe
000001f0: a57b 2fbe 3649 42bb a4d7 a33d 008a 30be
00000200: db71 95be d869 e2bd 7991 77be f6ab 9cbe
00000210: 95b0 0b3e f156 41be c033 cd3c 8761 e93d
00000220: 7e01 d93b 323f 253e 32a1 8c3e 00e5 f63d
00000230: 8e0a bebe f541 7f3e 2b50 bcbe 1e4a ee3d
00000240: bdb3 883d a008 843e e8f1 083d e2f5 d3bd
00000250: 0810 99be 4cf7 13bc 2f51 933e 64d7 123e
00000260: b34c ae3e 56d6 1bbe 97c2 cd3d 5f09 a23e
00000270: 9abc 9ebd d5d9 3dbe 1f05 eb3d 3bbd 70be
00000280: c8b9 013e 09ac d5bd 6251 c0be 8232 6f3d
00000290: 0cd3 683e 93e0 8d3e 409f 51be 4222 5b3e
000002a0: 63e5 873d 8035 413e 075b a03d 28a5 91be
000002b0: e64a a63e 1acb 5a3e fef1 93be d813 a73e
000002c0: dd03 b0be fd6e d63d d065 703e 38ae b3be
000002d0: 4ce9 6ebd 7c8b 40be b7c1 83be a571 b7be
000002e0: c103 b7be 46ac 2f3e e706 97bd e57b 4cbe
000002f0: 0e97 03be e372 533b 7219 013e e2ad 1cbe
00000300: 9197 8ebe 9c47 9e3d 8d12 d03c 4a8a b23e
00000310: 8362 26be 3c33 92be f70d a6be b046 9ebe
00000320: 4214 873d 8807 0bbe e591 903e f720 813e
00000330: 8871 ffbd 662c 483c 5cfb 753e 0679 c7bd
00000340: b974 c63d 0f36 173e dc75 1ebe 12aa 5b3d
00000350: 8c94 be3e 67ad 76be 2936 b1be 1bbd 793e
00000360: 04fc a0bc caf6 adb9 33ac 083d aa6c 7f3e
00000370: 3f2a b6be e088 003e 41ec b0be ee02 7f3e
00000380: 3a7c 98be 572d 883e a962 c4bd ca81 6d3e
00000390: 9de8 0fbe c2d0 643e fd3e 24be 3c3c 84be
000003a0: 7b6c ac3e cfa5 933e c31b 6abe e729 943e
000003b0: 682c 0abe 32e1 2a3e 1243 1bbe 815a 323e
000003c0: eb6f 0abe 9867 a0be 2276 54bd bdd8 aa3e
000003d0: 26be a5bd a22d 163d a7d0 ef3d db61 0fbe
000003e0: 86cd 543e be04 97bd bbc3 82be 2e24 9dbe
000003f0: 3a5a 3dbe adf3 78bc b164 293d 1243 943d

encoder.layers.0.attn.attns.0.q.bias f4 [8]
0.07576389 -0.049259298 -0.06939207 -0.055594184 -0.14667346 0.04939078 0.07449373 0.118999586
00000000: 192a 9b3d 1ec4 49bd 6e1d 8ebd bab6 63bd
00000010: 9131 16be fd4d 4a3d 2b90 983d 0eb6 f33d

encoder.layers.0.attn.attns.0.k.weight f4 [8, 32]
-0.36635938 0.2880381 -0.25553286 0.18253595 0.053683773 0.2519094 -0.13549832 -0.17502159
-0.3278169 0.3033164 0.3026473 -0.0464137 0.19830902 -0.10374318 -0.2538911 0.26637673
-0.15864442 -0.047481593 -0.31597108 -0.2653101 -0.09721467 0.04945422 -0.3183777 0.19398592
0.3475111 0.32509437 -0.026021091 0.25258717 0.3270388 0.09439351 -0.27451065 0.20151623
-0.13328972 -0.27910167 -0.1513528 -0.08197958 0.30155528 -0.3224913 -0.3389174 0.25021833
0.29308233 -0.27948192 -0.31333068 -0.0029524977 0.17486261 0.042919956 0.024043996 -0.3539133
-0.35059026 0.2898739 -0.004614515 -0.093580164 0.22371887 -0.26360652 -0.19405393 -0.098484896
-0.2707145 -0.30087855 0.033391636 -0.30206403 0.27591088 -0.25690946 0.13865289 0.15731527
-0.23405308 0.25792062 0.045285664 -0.26535884 0.28332165 0.10672979 0.12440456 0.016635906
0.091800086 0.1129463 0.03237367 -0.10750758 -0.3316353 -0.1433031 0.37836188 -0.0053715906
-0.30699 -0.37226978 -0.07013475 0.0905953 -0.38499957 -0.38608152 0.05955797 -0.026109356
-0.22223705 -0.35336876 0.35659656 -0.030911641 0.4058108 0.28318134 0.33134758 0.15540892
0.2746219 0.13363317 -0.15376237 0.38608006 -0.16915885 -0.32175124 -0.22949564 0.08567534
0.34375423 0.16822334 -0.089766905 -0.047302734 0.100836135 0.028150711 -0.30312136 0.26221374
-0.31280538 -0.054003973 -0.142331 -0.053116683 0.025171312 0.18012223 0.118203714 -0.35317823
0.039654978 -0.06627835 0.26350915 0.15283583 -0.33528048 0.044301078 0.29707888 -0.23260535
0.15324542 -0.25653115 -0.236595 -0.25967282 -0.2108082 0.1488265 -0.17677748 -0.33550367
0.3549308 0.2206755 -0.19904663 -0.06725273 0.008929542 -0.289849 0.3534836 -0.32445648
-0.20813559 0.18853831 0.11221068 0.24263817 0.25521573 0.2496545 0.1505194 -0.019443724
0.20560369 -0.3451084 0.024379965 0.3455213 -0.3908401 0.05437902 0.3344209 0.10995133
0.19980694 0.36689606 0.091054395 0.044321492 0.29175746 0.2909989 -0.34971923 -0.24433187
-0.36467624 -0.27858058 0.14612636 0.114578396 0.08915484 -0.050934594 0.07194826 -0.26117748
0.35989326 -0.22798774 0.18033352 -0.1906098 -0.28541267 0.15693152 0.17477228 -0.115356244
0.23853944 0.15402947 -0.16667315 0.21036482 0.11980854 0.010452326 -0.09141133 -0.02124406
0.36120155 0.1701854 0.37952095 0.3594207 -0.31113744 0.23690692 0.055829752 -0.33246052
-0.26136678 0.2541639 -0.04175929 0.23741165 0.38764116 0.1323543 0.009886495 -0.18942007
-0.004870594 0.054727197 0.24518576 -0.15000169 -0.28668928 -0.038892377 -0.11850862 0.035046358
-0.3654675 -0.32660457 -0.2427051 0.35135818 0.21275412 0.33550277 -0.14978047 0.17039716
0.13724537 0.29134262 0.0173498 -0.37658417 -0.11786198 -0.2175405 -0.0011950665 0.010649099
-0.16188262 0.09958894 0.3012505 -0.20982781 0.1739999 0.20995396 -0.23365952 -0.05218083
-0.10897819 -0.03456123 -0.016884964 0.29945347 0.14439069 -0.00088390696 -0.23578902 0.1441336
-0.22207986 0.19828711 0.106391795 -0.12938519 -0.09050688 -0.33496493 -0.29191273 -0.31907257
00000000: 7593 bbbe bb79 933e 34d5 82be b4ea 3a3e
00000010: 84e3 5b3d 45fa 803e 12c0 0abe dc38 33be
00000020: 9ed7 a7be 4a4c 9b3e 96f4 9a3e 4b1c 3ebd
00000030: 8511 4b3e 4e77 d4bd 04fe 81be 8862 883e
00000040: af73 22be 0f7c 42bd f6c6 a1be bad6 87be
00000050: 7c18 c7bd 8290 4a3d 6702 a3be 3fa4 463e
00000060: faec b13e c572 a63e 2f2a d5bc 1b53 813e
00000070: a171 a73e 6251 c13d a98c 8cbe 455a 4e3e
00000080: 1a7d 08be 6ae6 8ebe 3afc 1abe e9e4 a7bd
00000090: 7465 9a3e 941d a5be 9586 adbe 9e1c 803e
000000a0: e30e 963e 4118 8fbe e16c a0be b17e 41bb
000000b0: 2f0f 333e d6cc 2f3d eaf7 c43c 2034 b5be
000000c0: 9180 b3be 5a6a 943e 5c35 97bb f5a6 bfbd
000000d0: 8f16 653e 6ff7 86be 13b6 46be 73b2 c9bd
000000e0: 179b 8abe c10c 9abe abc5 083d 23a8 9abe
000000f0: 3144 8d3e a389 83be 06fb 0d3e 4117 213e
00000100: 9cab 6fbe 2c0e 843e 767d 393d 1ddd 87be
00000110: 890f 913e 2695 da3d d1c7 fe3d 0648 883c
00000120: af01 bc3d 6450 e73d 419a 043d ef2c dcbd
00000130: 1acc a9be 0cbe 12be a6b8 c13e 2b04 b0bb
00000140: cb2d 9dbe 259a bebe cfa2 8fbd 078a b93d
00000150: aa1e c5be 7aac c5be 0ff3 733d 4ae3 d5bc
00000160: 1c92 63be c0ec b4be d393 b63e 693a fdbc
00000170: 6fc6 cf3e 25fd 903e 64a6 a93e 8423 1f3e
00000180: 3e9b 8c3e 22d7 083e e273 1dbe 49ac c53e
00000190: fa37 2dbe 94bc a4be e800 6bbe 8d76 af3d
000001a0: 8e00 b03e bd42 2c3e b6d7 b7bd 83c0 41bd
000001b0: 2d83 ce3d 529c e63c b932 9bbe e140 863e
000001c0: 0728 a0be 4533 5dbd 38bf 11be e190 59bd
000001d0: 1134 ce3c f671 383e ca14 f23d c7d3 b4be
000001e0: 426d 223d f2bc 87bd acea 863e ff80 1c3e
000001f0: e2a9 abbe 0c75 353d b91a 983e 1930 6ebe
00000200: 5eec 1c3e 0d58 83be f645 72be d6f3 84be
00000210: 1bde 57be f965 183e 2805 35be 23c7 abbe
00000220: 7db9 b53e c2f8 613e e1d2 4bbe cdbb 89bd
00000230: 374d 123c 1767 94be cdfb b43e 291f a6be
00000240: 7f21 55be 3010 413e b7ce e53d 2476 783e
00000250: a3ab 823e 6ea5 7f3e c221 1a3e 7248 9fbc
00000260: c689 523e 0cb2 b0be 7eb8 c73c 2be8 b03e
00000270: 321c c8be 89bc 5e3d 3739 ab3e 2a2e e13d
00000280: 319a 4c3e cdd9 bb3e ba7a ba3d 748a 353d
00000290: 3c61 953e cffd 943e 660e b3be 2232 7abe
000002a0: d8b6 babe 1da2 8ebe 26a2 153e 14a8 ea3d
000002b0: d096 b63d cba0 50bd 9c59 933d 0eb9 85be
000002c0: ee43 b83e 9e75 69be 5aa9 383e 372f 43be
000002d0: 9c21 92be a8b2 203e 81f7 323e e53f ecbd
000002e0: af43 743e e7b9 1d3e 5eac 2abe e069 573e
000002f0: 2e5e f53d 3c40 2b3c dd35 bbbd 0608 aebc
00000300: 69ef b83e 1545 2e3e 9250 c23e fd05 b83e
00000310: 684d 9fbe ba97 723e bdad 643d 4438 aabe
00000320: ded1 85be c521 823e ca0b 2bbd 0a1c 733e
00000330: e778 c63e e387 073e f7fa 213c 56f7 41be
00000340: 8199 9fbb a029 603d fa11 7b3e 0b9a 19be
00000350: f0c8 92be 9d4d 1fbd a6b4 f2bd c58c 0f3d
00000360: 8e1e bbbe b738 a7be b087 78be 38e5 b33e
00000370: 37dc 593e 05c7 ab3e 0d60 19be 987c 2e3e
00000380: 0d8a 0c3e dc2a 953e 2b21 8e3c a4cf c0be
00000390: 9f61 f1bd f0c2 5ebe c7a3 9cba 8f79 2e3c
000003a0: 8fc4 25be 49f5 cb3d 813d 9a3e 1add 56be
000003b0: 082d 323e 2cfe 563e 7144 6fbe 91bb 55bd
000003c0: f52f dfbd 1490 0dbd 5652 8abc f751 993e
000003d0: 27db 133e feb5 67ba ad72 71be c297 133e
000003e0: e768 63be c70b 4b3e f1e3 d93d 8d7d 04be
000003f0: ac5b b9bd 8680 abbe 9675 95be 7b5d a3be

encoder.layers.0.attn.attns.0.k.bias f4 [8]
-0.0053489273 0.02555285 -0.008785909 -0.043143556 0.15690452 0.14326903 -0.021596694 0.014475679
00000000: 0e46 afbb 3654 d13c c6f2 0fbc 4cb7 30bd
00000010: 94ab 203e 1eb5 123e 8deb b0bc 662b 6d3c

encoder.layers.0.attn.attns.0.v.weight f4 [8, 32]
-0.3239698 -0.18251747 -0.28727615 -0.29281935 0.037371766 -0.11837558 -0.06123676 -0.03391651
-0.29326612 -0.32329074 -0.33634967 -0.12809475 0.3997785 -0.10251613 0.13106073 -0.24664031
-0.020319572 0.12707074 0.11566428 0.1949136 0.21553181 -0.32479602 0.05489092 -0.20382145
0.043586228 0.10318901 0.033437286 -0.20084809 0.0016747904 -0.18488306 0.21524043 -0.3199045
0.2810165 0.35491908 0.3483687 0.37297648 -0.11526656 0.0034515464 -0.21266407 -0.22122072
0.2858406 0.13524516 -0.33263138 0.097874984 0.14288415 -0.31116465 0.31989032 0.004480741
-0.007323518 -0.3192797 -0.01626636 -0.36054957 0.24705698 0.1347294 0.1818611 -0.16989966
-0.012671092 0.30487648 0.32722136 -0.3474187 -0.0633109 0.39315447 0.22649202 0.08204251
0.06250525 0.2767404 0.2661865 -0.3468143 -0.20329145 -0.13165827 -0.16156289 0.08199531
-0.31979942 -0.14346164 0.1470077 0.23754121 -0.0037564915 0.37205556 0.14396413 -0.14548172
0.027813014 0.25171557 -0.15705788 -0.3540179 0.3007348 0.32254046 0.2694304 -0.013068571
-0.3558843 -0.2526173 -0.2453208 0.2721544 -0.028983394 -0.09144429 0.3088496 -0.16159335
0.11004466 -0.25815517 -0.2705399 0.11388893 -0.21211089 0.025239702 0.05806108 -0.07720499
0.2505569 -0.2506954 -0.18351656 -0.16932 0.14068334 -0.37421578 -0.07859531 -0.12638174
-0.32910383 -0.23507446 -0.1906816 -0.39294654 -0.17639881 0.18114959 0.25695828 0.28597954
-0.116261244 0.053723868 -0.025465425 0.056499086 0.1334561 0.091428 0.39118758 0.22726423
0.20318507 0.2031619 0.25519627 0.36198235 -0.24228716 -0.2744636 0.18660565 0.23777562
0.23409092 0.34450045 -0.3522967 -0.19799677 0.031455338 -0.2974995 0.23461355 -0.37299734
-0.25707513 -0.20220336 -0.31200615 -0.05039522 0.07214952 0.10202988 -0.36529312 0.19812906
-0.038830787 0.34577549 -0.03104477 0.0778814 -0.15187925 0.30604562 -0.0369319 -0.07027215
0.062488884 -0.078351 -0.12470769 -0.21209331 -0.3196674 0.18861283 -0.10513355 0.15419239
-0.21380946 0.12114666 -0.09970624 -0.015699318 0.3678071 0.16598524 0.3600671 0.28776285
0.26576352 0.19435388 -0.15853691 -0.2675118 0.20952705 0.14657885 0.084795676 -0.31400123
-0.36833358 0.34638205 0.34396228 0.056360703 -0.33383253 -0.37628767 0.054527655 0.1520199
-0.380343 0.09546266 0.20932908 -0.34300846 0.34930405 -0.06699004 -0.11537329 -0.09118061
-0.13937272 0.18100512 -0.17566544 0.06222845 -0.05755222 0.33578852 0.13244948 0.31435987
0.27517277 -0.009799378 0.19409606 -0.3592051 -0.21709858 -0.32702395 0.28294525 0.2619208
0.1889798 -0.23899247 -0.30906153 0.19725558 0.20645498 -0.35484177 0.0988186 0.0049499916
-0.21711643 0.11624804 0.10104962 -0.010789808 -0.22704011 0.19769682 -0.27277067 -0.10797699
-0.10393477 0.29752228 -0.13373746 -0.35124508 0.06534978 -0.021945115 -0.14490251 -0.25497085
0.1570766 -0.12260403 -0.28206417 -0.365868 0.06605413 -0.32896808 0.04207988 0.24789476
0.31562275 -0.029320428 0.21343878 0.3453328 0.00065498875 -0.031421334 -0.23397094 -0.2123681
00000000: 5fdf a5be dce5 3abe dc15 93be 6bec 95be
00000010: 2313 193d e56e f2bd 66d3 7abd 0aec 0abd
00000020: fa26 96be 5d86 a5be 0636 acbe 452b 03be
00000030: c4af cc3e faf3 d1bd c934 063e 478f 7cbe
00000040: 3b75 a6bc d51e 023e 65e1 ec3d 6e97 473e
00000050: 5fb4 5c3e aa4b a6be 4dd5 603d 92b6 50be
00000060: 7987 323d c254 d33d 89f5 083d 1fab 4dbe
00000070: a484 db3a fc51 3dbe fd67 5c3e 86ca a3be
00000080: 65e1 8f3e f4b7 b53e 625d b23e c6f6 be3e
00000090: e010 ecbd 5733 623b 9cc4 59be af87 62be
000000a0: b359 923e b57d 0a3e a94e aabe ae72 c83d
000000b0: 3950 123e f950 9fbe aac8 a33e 2ed3 923b
000000c0: 1ffa efbb a178 a3be 0841 85bc f499 b8be
000000d0: 81fc 7c3e 81f6 093e cc39 3a3e 2dfa 2dbe
000000e0: 699a 4fbc c518 9c3e 8f89 a73e dde0 b1be
000000f0: 25a9 81bd 8b4b c93e 86ed 673e e705 a83d
00000100: c102 803d ebb0 8d3e 9949 883e a591 b1be
00000110: a22b 50be 6dd1 06be be70 25be 28ed a73d
00000120: c0bc a3be 9ce7 12be 3089 163e 013e 733e
00000130: 782f 76bb 117e be3e 556b 133e 29f9 14be
00000140: 1ed8 e33c dde0 803e c8d3 20be d641 b5be
00000150: e9f9 993e 0624 a53e c8f2 893e 8f1d 56bc
00000160: 7836 b6be 0e57 81be 6035 7bbe d257 8b3e
00000170: 956e edbc 2547 bbbd 8921 9e3e ba78 25be
00000180: 185f e13d ea2c 84be 3584 8abe 993e e93d
00000190: 9933 59be 7ec3 ce3c 74d1 6d3d a61d 9ebd
000001a0: fe48 803e 265b 80be c4eb 3bbe 3962 2dbe
000001b0: 4b0f 103e 3699 bfbe 94f6 a0bd 376a 01be
000001c0: 4c80 a8be 5cb7 70be 0a42 43be 4a30 c9be
000001d0: e4a1 34be 477f 393e 0990 833e e96b 923e
000001e0: 601a eebd 8f0d 5c3d de9c d0bc 966b 673d
000001f0: b7a8 083e 9a3e bb3d bd49 c83e f4b7 683e
00000200: bf0f 503e ac09 503e 16a9 823e c055 b93e
00000210: 201a 78be 7e86 8cbe 8d15 3f3e 747b 733e
00000220: 88b5 6f3e 5d62 b03e 3c60 b4be aabf 4abe
00000230: 50d7 003d db51 98be 893e 703e 82f9 bebe
00000240: 5a9f 83be 660e 4fbe 45bf 9fbe 386b 4ebd
00000250: 21c3 933d 0bf5 d03d b307 bbbe 58e2 4a3e
00000260: 080d 1fbd 7c09 b13e 9a51 febc 4980 9f3d
00000270: 3c86 1bbe 03b2 9c3e e745 17bd d8ea 8fbd
00000280: 58f4 7f3d 7d76 a0bd bf66 ffbd fd2e 59be
00000290: 72ab a3be b923 413e 4250 d7bd 9ce4 1d3e
000002a0: def0 5abe bd1b f83d c932 ccbd db9b 80bc
000002b0: 3651 bc3e 09f8 293e b75a b83e a755 933e
000002c0: 2812 883e b404 473e 8057 22be 4ff7 88be
000002d0: 428e 563e c418 163e 5ba9 ad3d c5c4 a0be
000002e0: 3896 bcbe fd58 b13e d31b b03e 7bda 663d
000002f0: 19ec aabe c7a8 c0be 6458 5f3d 1bab 1b3e
00000300: 51bc c2be ed81 c33d 5d5a 563e ce9e afbe
00000310: fbd7 b23e 1332 89bd d548 ecbd e6bc babd
00000320: b9b7 0ebe 6859 393e a4e1 33be 42e3 7e3d
00000330: e0bb 6bbd 79ec ab3e d6a0 073e c7f3 a03e
00000340: 72e3 8c3e 928d 20bc 1ec1 463e bbe9 b7be
00000350: 174f 5ebe af6f a7be 33de 903e 7c1a 863e
00000360: ec83 413e 71ba 74be 503d 9ebe 5efd 493e
00000370: ef68 533e d2ad b5be 6861 ca3d 8a33 a23b
00000380: c553 5ebe 7413 ee3d 1af3 ce3d bcc7 30bc
00000390: 347d 68be 0971 4a3e 99a8 8bbe 0a23 ddbd
000003a0: c1db d4bd d754 983e 79f2 08be 65d6 b3be
000003b0: 1bd6 853d 3ec6 b3bc 5361 14be 8a8b 82be
000003c0: b0d8 203e d217 fbbd b76a 90be 0d53 bbbe
000003d0: 6347 873d 816e a8be f45b 2c3d 20d8 7d3e
000003e0: 4e99 a13e 6531 f0bc b28f 5a3e 76cf b03e
000003f0: 8db3 2b3a a8b3 00bd 1496 6fbe 0677 59be

encoder.layers.0.attn.attns.0.v.bias f4 [8]
-0.008065601 0.0084458 -0.05192177 -0.006409295 -0.08833141 -0.086770795 0.00037683983 0.10453979
00000000: 9525 04bc 4160 0a3c ecab 54bd 1005 d2bb
00000010: 19e7 b4bd e3b4 b1bd 9692 c539 f518 d63d

encoder.layers.0.attn.attns.1.q.weight f4 [8, 32]
0.3613097 -0.1488388 0.039629206 0.28843436 -0.2503647 0.0032244213 -0.03387664 0.14410722
0.16604276 -0.23129253 -0.18710437 -0.285672 -0.2093255 -0.30657324 0.09470673 -0.32847974
-0.36922443 0.19671972 0.03939155 0.36707264 -0.048365097 0.36490518 -0.16965495 0.0032333457
0.23790962 -0.25691164 -0.24238288 -0.048011463 -0.20216309 -0.22978775 -0.031435795 -0.2350667
0.105009325 -0.027184945 0.2704479 -0.29602838 0.3612741 0.09714148 -0.07873805 0.35603663
-0.37009987 -0.03602669 0.041556798 -0.01642252 0.26322392 -0.2507742 -0.27398205 -0.28692538
0.054584246 0.015720753 -0.35461557 -0.30313304 -0.21914384 -0.20638539 0.16010259 -0.22302678
-0.015976736 -0.065981455 0.23506778 0.07236591 -0.0058015846 -0.08847726 0.085279934 0.16002183
-0.26006427 0.21738696 -0.113015205 0.0070139817 -0.34564364 -0.26590982 0.33607367 0.014005076
-0.35104713 -0.115510866 0.015918186 0.25892895 0.07176036 -0.3671013 -0.21167433 -0.30550072
0.21250488 -0.13683276 -0.014335361 0.3197032 -0.16789867 -0.20935003 0.07561763 -0.09073992
-0.12977779 0.26650056 0.38361508 -0.24601506 -0.2880267 0.16657512 -0.16238965 -0.20784289
0.3788047 0.13425745 0.17068243 0.16514161 -0.060592983 0.0017694848 0.0019217572 -0.10688876
-0.29260063 0.09976287 -0.054531388 0.12192969 -0.0034167035 -0.16613008 -0.38250592 -0.3341792
-0.3145207 -0.28477386 0.14164032 -0.24653424 0.18576598 0.2231412 0.05801839 -0.23280497
0.0737338 -0.30849546 -0.13514043 -0.29413554 0.09874774 0.049606893 0.0935985 -0.27518907
0.12347372 0.21338269 0.3119163 0.32655215 -0.10384704 -0.28046095 0.25717604 0.24312562
0.020968953 0.22752528 0.117091365 0.2638615 -0.020198597 -0.08661233 0.26250204 -0.12409334
-0.061447658 0.16409898 -0.19326657 0.32841954 0.049800705 0.18179116 -0.06293556 -0.06508642
0.12268788 0.25840002 0.07328467 -0.27827606 0.0030161764 -0.22200793 0.1684352 -0.26823646
-0.24169266 -0.18133657 -0.10540496 -0.3034437 -0.19077054 0.2123337 -0.088234596 0.04283127
-0.10265286 0.21811692 0.0893432 -0.25447023 -0.37151387 -0.25712 -0.12049521 -0.045648765
0.29447204 0.037069865 0.05548163 0.028845241 -0.38000506 0.05562007 0.023267556 -0.3012654
-0.38818392 0.11728611 0.3823418 -0.28258824 -0.10085969 -0.12728451 0.022453154 -0.06487559
-0.043097813 0.12364987 -0.27815518 0.046223808 0.36739329 0.35437918 -0.17006002 -0.094836764
0.13340892 -0.2552069 -0.37103888 0.21426983 0.24932046 -0.28874546 -0.008444331 0.11506845
-0.2871015 0.027166495 0.12950832 0.27056667 0.19226253 -0.10350754 0.10628857 -0.18160546
0.22361962 -0.106439725 0.01568711 0.23370335 -0.047262665 -0.120024614 -0.37765595 0.08019573
0.26981258 0.2752799 0.21933927 0.081572786 -0.35116017 0.040213924 0.34323367 -0.3712579
0.29181245 -0.063807495 -0.15488112 -0.19799875 0.18945912 0.18732764 0.06832947 -0.013727935
-0.33973935 -0.054743685 -0.3840237 0.031231575 0.009906554 -0.33037722 0.1419701 -0.014532163
-0.022886071 -0.044250384 -0.2979581 0.30285877 -0.39314553 0.2826619 -0.25164366 -0.33695188
00000000: 96fd b83e 3369 18be 3c52 223d abad 933e
00000010: cd2f 80be d050 533b 3bc2 0abd d890 133e
00000020: 1d07 2a3e f3d7 6cbe 4a98 3fbe 9a43 92be
00000030: 6d59 56be 2bf7 9cbe 9af5 c13d 7f2e a8be
00000040: fc0a bdbe e570 493e 0959 213d f2f0 bb3e
00000050: 7b1a 46bd dad4 ba3e 07ba 2dbe 8ae6 533b
00000060: 949e 733e ec89 83be 3833 78be aba7 44bd
00000070: d703 4fbe 7b4d 6bbe d2c2 00bd 53b5 70be
00000080: 210f d73d f6b2 debc 2678 8a3e 0891 97be
00000090: ebf8 b83e 1df2 c63d 6a41 a1bd 6f4a b63e
000000a0: bb7d bdbe b990 13bd 7637 2a3d 8588 86bc
000000b0: 49c5 863e 7a65 80be 6047 8cbe e2e7 92be
000000c0: bb93 5f3d cfc8 803c 2c90 b5be 4134 9bbe
000000d0: 3e67 60be b156 53be eff1 233e 2261 64be
000000e0: a5e1 82bc 4921 87bd 9cb5 703e 9434 943d
000000f0: 381b bebb 9133 b5bd 3fa7 ae3d c3dc 233e
00000100: 2527 85be b09a 5e3e 8474 e7bd 8bd5 e53b
00000110: 34f8 b0be 5525 88be d911 ac3e 8c75 653c
00000120: 73bc b3be f690 ecbd db66 823c 5692 843e
00000130: 18f7 923d b4f4 bbbe 28c1 58be 976a 9cbe
00000140: e19a 593e e31d 0cbe ddde 6abc 23b0 a33e
00000150: a1ed 2bbe db5f 56be 6add 9a3d dad5 b9bd
00000160: 78e4 04be c372 883e 3269 c43e 5feb 7bbe
00000170: 3c78 93be ab92 2a3e 7949 26be c4d4 54be
00000180: b1f2 c13e c97a 093e 60c7 2e3e e21a 293e
00000190: 5930 78bd 0fee e73a 79e3 fb3a 7fe8 dabd
000001a0: c0cf 95be 7a50 cc3d 4e5c 5fbd 46b6 f93d
000001b0: c6ea 5fbb 011e 2abe d1d7 c3be 8919 abbe
000001c0: db08 a1be e1cd 91be 290a 113e 7973 7cbe
000001d0: 7039 3e3e 207f 643e b1a4 6d3d 6d64 6ebe
000001e0: bf01 973d 1ef3 9dbe 4162 0abe ef98 96be
000001f0: 413c ca3d 9930 4b3d 92b0 bf3d 95e5 8cbe
00000200: cadf fc3d fe80 5a3e 7eb3 9f3e d831 a73e
00000210: c2ad d4bd 9498 8fbe 94ac 833e ecf5 783e
00000220: 15c7 ab3c 63fc 683e 99cd ef3d db18 873e
00000230: 8777 a5bc ce61 b1bd ab66 863e a624 febd
00000240: 8ab0 7bbd 9009 283e ace7 45be 9b26 a83e
00000250: d3fb 4b3d 7627 3a3e 5ce4 80bd 074c 85bd
00000260: c943 fb3d 024d 843e 4616 963d 337a 8ebe
00000270: 0bab 453b 0c56 63be 477a 2c3e 4a56 89be
00000280: 487e 77be 4bb0 39be 8ede d7bd f95c 9bbe
00000290: 5a59 43be 016e 593e 57b4 b4bd d76f 2f3d
000002a0: aa3b d2bd 0b5a 5f3e 91f9 b63d ec49 82be
000002b0: 1137 bebe 3ca5 83be 31c6 f6bd 33fa 3abd
000002c0: 0ac5 963e 92d6 173d b540 633d db4c ec3c
000002d0: 0690 c2be dfd1 633d 9a9b be3c 753f 9abe
000002e0: 0bc0 c6be b333 f03d 4ec2 c33e 68af 90be
000002f0: 868f cebd df56 02be adef b73c 7edd 84bd
00000300: 5587 30bd 253c fd3d 5b6a 8ebe 2d55 3d3d
00000310: f91a bc3e 3071 b53e 3724 2ebe c739 c2bd
00000320: 599c 083e 7baa 82be cff8 bdbe 8d69 5b3e
00000330: dd4d 7f3e 72d6 93be 175a 0abc 02a9 eb3d
00000340: f8fe 92be 458c de3c d49d 043e b787 8a3e
00000350: 78e0 443e c3fb d3bd d2ad d93d c8f6 39be
00000360: 8bfc 643e 12fd d9bd 4182 803c ee4f 6f3e
00000370: 7f96 41bd 77cf f5bd 1f5c c1be a93d a43d
00000380: e024 8a3e 7df1 8c3e 799a 603e a20f a73d
00000390: 44cb b3be 5bb7 243d 53bc af3e 8415 bebe
000003a0: 7168 953e 81ad 82bd 2899 1ebe 2fc0 4abe
000003b0: 9201 423e d1d2 3f3e 52f0 8b3d 22eb 60bc
000003c0: 51f2 adbe ea3a 60bd c19e c4be 5cd9 ff3c
000003d0: 194f 223c 3427 a9be 9c60 113e 4f18 6ebc
000003e0: 927b bbbc e43f 35bd f78d 98be 4e10 9b3e
000003f0: 5f4a c9be 10b9 903e 70d7 80be f584 acbe

encoder.layers.0.attn.attns.1.q.bias f4 [8]
0.11477424 0.0067916056 -0.16784601 -0.012900801 -0.026476905 -0.1718821 0.090596706 0.149754
00000000: c20e eb3d 1e8c de3b d3df 2bbe e25d 53bc
00000010: 18e6 d8bc dc01 30be c48a b93d 1d59 193e

encoder.layers.0.attn.attns.1.k.weight f4 [8, 32]
-0.31735346 -0.18958089 0.1632876 -0.01411812 0.26709023 -0.38136262 0.28447697 -0.13465314
0.30384353 0.13813898 0.29517314 0.30596602 -0.2762183 -0.16177554 -0.19642776 0.2126484
-0.009457009 0.15746872 0.1027305 0.09016749 -0.030174572 0.0008981457 -0.33959493 -0.2897019
0.29883808 -0.324062 -0.09178234 0.082407236 0.049287792 -0.26696587 -0.30559573 0.13329653
-0.039775353 0.19490385 0.04462463 0.0022855783 0.095082 -0.28269255 -0.29613587 -0.31175712
0.11891795 -0.18814409 -0.37814865 -0.2264801 0.38293526 0.3122941 0.15719132 -0.073819034
-0.23580684 0.16149755 0.06769672 -0.122922994 -0.17066489 0.257349 -0.22708759 0.3420707
-0.32994992 -0.09356264 -0.374013 -0.18363096 -0.22646642 0.06800633 0.15108101 0.04068171
-0.32652733 -0.16941784 0.10194618 0.053431503 -0.10849645 0.27720568 0.07552266 -0.15856779
0.36216003 -0.27697384 -0.30297256 0.33252665 -0.15784399 0.30223665 -0.33401474 -0.254319
0.35401466 0.055415582 0.25474635 -0.29719058 0.0012116831 0.17418942 0.013269106 -0.3836019
0.118616484 -0.12734333 -0.066136695 -0.37372538 -0.3619014 -0.21629988 -0.010586834 0.03856746
-0.26989374 -0.14157578 0.083355054 0.065666795 0.35807067 0.26510984 -0.33802697 0.34496805
0.28595412 -0.22520898 -0.004139595 0.28538308 0.32467481 0.38301387 -0.13032939 0.38607806
-0.05650068 -0.11968298 0.07438012 -0.29722401 0.29810032 0.10174543 0.20063734 -0.36650738
0.116255894 0.21388255 0.08856286 0.10528201 -0.21839514 0.2451651 -0.15005338 0.19648099
-0.024890022 -0.08971402 0.29296046 0.1407564 -0.338509 0.039847728 0.079679236 0.076478474
0.114735015 -0.31065363 0.17271355 0.3049378 -0.15467876 -0.37411585 -0.2689328 -0.28597873
0.1071507 -0.36270413 -0.26651475 0.34331095 0.06605772 0.088631414 0.0018322113 -0.20276801
0.28467327 -0.37620178 0.37367815 0.0029840048 -0.22405708 0.2661955 0.0588164 -0.14133422
-0.17636259 0.06407365 -0.1203197 -0.33722156 -0.11408327 0.38901117 -0.24241611 -0.14268647
0.32199737 0.34210184 0.01931598 0.19064553 -0.3810465 -0.36805528 -0.016409859 -0.079387315
-0.37130973 -0.03484365 -0.31201392 0.0061521865 -0.32473466 0.025148807 -0.2565724 0.29786992
-0.08275392 -0.021911154 0.17460522 -0.25486284 -0.006746268 -0.07914842 0.19014858 0.098165005
0.13887805 -0.09751024 -0.3008259 -0.22536696 0.14511535 -0.36460805 0.023634283 -0.27466077
0.02365993 0.23565555 0.040927023 -0.14547066 0.1217184 0.29626143 -0.15646452 -0.22889435
0.0867009 0.023901824 -0.27825293 -0.37933177 0.11196983 -0.27063626 0.20866218 0.104371496
-0.19486003 0.25483313 0.04084921 0.28267974 0.17809127 0.050637815 0.32543814 -0.032224648
0.08227512 -0.31956393 -0.19812731 0.3758548 0.030603748 0.022221925 0.19050829 -0.06678892
0.19943275 -0.21928455 -0.25558758 0.3434951 0.18313423 0.015395759 0.093631856 -0.24558823
-0.32753748 -0.10134423 -0.22075331 0.28866842 0.081590965 0.065454096 0.17853545 0.0808738
-0.054389317 0.16764629 -0.14840046 0.12013687 0.010621767 0.2403619 0.09205463 0.3659049
00000000: 277c a2be 7e21 42be dd34 273e b04f 67bc
00000010: 0dc0 883e f641 c3be f7a6 913e 83e2 09be
00000020: 6191 9b3e 4e74 0d3e ef20 973e 94a7 9c3e
00000030: 7c6c 8dbe 7da8 25be 5c24 49be 81c0 593e
00000040: 92f1 1abc 7b3f 213e 5e64 d23d bca9 b83d
00000050: aa30 f7bc 8a71 6b3a 63df adbe cf53 94be
00000060: 4e01 993e 74eb a5be 61f8 bbbd 20c5 a83d
00000070: ffe1 493d c0af 88be 0b77 9cbe e37e 083e
00000080: 7beb 22bd e094 473e 51c8 363d a4c9 153b
00000090: 5aba c23d 14bd 90be 1f9f 97be a19e 9fbe
000000a0: 418b f33d d8a8 40be b39c c1be 66ea 67be
000000b0: 1710 c43e 03e5 9f3e c3f6 203e 6f2e 97bd
000000c0: 5977 71be 9d5f 253e 94a4 8a3d 0dbf fbbd
000000d0: c7c2 2ebe 40c3 833e a689 68be e423 af3e
000000e0: 32ef a8be c59d bfbd a27e bfbe c109 3cbe
000000f0: d0e6 67be e746 8b3d fbb4 1a3e dda1 263d
00000100: 972e a7be df7b 2dbe 29c9 d03d feda 5a3d
00000110: 6333 debd e7ed 8d3e a0ab 9a3d 985f 22be
00000120: 0a6d b93e 84cf 8dbe 381f 9bbe ef40 aa3e
00000130: dba1 21be c3be 9a3e fb03 abbe 1a36 82be
00000140: 6941 b53e 73fb 623d 1d6e 823e 5d29 98be
00000150: 57d1 9e3a b65e 323e aa66 593c 7867 c4be
00000160: 33ed f23d 4a66 02be ad72 87bd ef58 bfbe
00000170: 244b b9be b77d 5dbe 6674 2dbc eaf8 1d3d
00000180: 832f 8abe 3ef9 10be 0eb6 aa3d 507c 863d
00000190: 0a55 b73e 7abc 873e df11 adbe a79f b03e
000001a0: 9468 923e 2f9d 66be 71a5 87bb bb1d 923e
000001b0: c73b a63e 651a c43e 1175 05be 06ac c53e
000001c0: 426d 67bd 5a1c f5bd 9b54 983d bf2d 98be
000001d0: 9ba0 983e e85f d03d e073 4d3e dba6 bbbe
000001e0: 9217 ee3d 0704 5b3e 7260 b53d 189e d73d
000001f0: faa2 5fbe 8f0c 7b3e 98a7 19be 5032 493e
00000200: 29e6 cbbc fcbb b7bd eafe 953e 7222 103e
00000210: 0d51 adbe 5f37 233d de2e a33d bfa0 9c3d
00000220: 31fa ea3d fe0d 9fbe d2db 303e cf20 9c3e
00000230: 1c64 1ebe 1d8c bfbe 8fb1 89be ce6b 92be
00000240: d471 db3d 5bb4 b9be 9f74 88be 74c6 af3e
00000250: 4549 873d 6384 b53d cf26 f03a 6ba2 4fbe
00000260: b2c0 913e 859d c0be be52 bf3e 4b8f 433b
00000270: 386f 65be c74a 883e 77e9 703d ebb9 10be
00000280: 6598 34be 0c39 833d 2d6a f6bd 4ea8 acbe
00000290: 7da4 e9bd 792c c73e ee3b 78be 671c 12be
000002a0: d7dc a43e f927 af3e 8c3c 9e3c 9538 433e
000002b0: 8718 c3be be71 bcbe f86d 86bc d195 a2bd
000002c0: 4f1c bebe 37b8 0ebd 4ac0 9fbe 4898 c93b
000002d0: 9f43 a6be df04 ce3c 755d 83be 6882 983e
000002e0: e37a a9bd 057f b3bc b6cb 323e 627d 82be
000002f0: cc0f ddbb 9118 a2bd 4fb6 423e bc0a c93d
00000300: 0c36 0e3e 73b3 c7bd da05 9abe 99c6 66be
00000310: 1e99 143e e8ad babe af9c c13c 56a0 8cbe
00000320: 78d2 c13c b04f 713e 18a3 273d 43f6 14be
00000330: 7f47 f93d 94af 973e 3c38 20be 4863 6abe
00000340: 3e90 b13d c2cd c33c 2b77 8ebe c637 c2be
00000350: 7050 e53d d690 8abe 8aab 553e b9c0 d53d
00000360: 6389 47be 7d79 823e 8051 273d 66bb 903e
00000370: 8f5d 363e 9969 4f3d d49f a63e fefd 03bd
00000380: dc7f a83d e29d a3be e3e1 4abe 0a70 c03e
00000390: b6b4 fa3c c10a b63c 9b14 433e a1c8 88bd
000003a0: 1938 4c3e 218c 60be 60dc 82be 97de af3e
000003b0: 8a87 3b3e 7e3e 7c3c 0fc2 bf3d 7b7b 7bbe
000003c0: feb2 a7be 908d cfbd 280d 62be 59cc 933e
000003d0: 2a19 a73d cc0c 863d ffd1 363e 2aa1 a53d
000003e0: 55c7 5ebd 78ab 2b3e 4af6 17be 520a f63d
000003f0: eb06 2e3c 6e21 763e 2387 bc3d e357 bb3e

encoder.layers.0.attn.attns.1.k.bias f4 [8]
0.12870122 0.002663312 -0.019590948 0.15693784 -0.081691146 -0.15345544 -0.12322678 -0.0046441285
00000000: 41ca 033e f68a 2e3b 327d a0bc 50b4 203e
00000010: b04d a7bd 6c23 1dbe 525e fcbd c62d 98bb

encoder.layers.0.attn.attns.1.v.weight f4 [8, 32]
0.031190544 -0.3086593 0.21179797 0.1848238 0.13919097 0.06340735 0.18219686 0.0675957
0.19260146 0.028521178 0.26058793 0.31311664 -0.0627244 0.0244878 0.22625054 0.22218755
-0.28588343 -0.16312484 -0.2359616 -0.2236161 -0.3186599 0.26204252 0.29645446 0.3067969
0.14227857 0.33537114 0.33190605 -0.027515512 0.14955115 -0.108825624 0.06550168 -0.22489877
-0.049917184 0.31421047 -0.37755302 -0.2896683 0.1901759 -0.058622316 -0.023890741 -0.2645856
0.15207504 0.2879505 -0.19299321 0.117765106 -0.3353331 0.2687309 -0.37636614 0.28034014
-0.26810214 -0.3094867 -0.18526803 -0.10990576 0.18797404 -0.351864 -0.18803898 -0.2443382
0.22566222 0.025195677 -0.17018953 -0.06334416 0.041922204 -0.042543046 -0.15797403 -0.38077798
-0.08828831 0.35688585 0.32497254 -0.2695 -0.033247802 -0.121693715 -0.2518352 -0.29577705
-0.007925256 0.045619115 -0.008459105 -0.12597129 0.01275455 -0.080223285 -0.003946594 0.25650188
-0.010648762 -0.08099571 -0.0048650284 0.2566425 0.14284228 0.27082264 -0.13300486 -0.03823045
0.29859623 0.29061872 -0.021328224 -0.23138942 0.0041951174 0.08056752 0.11772789 -0.346564
0.2731397 -0.0101234745 0.03833437 0.027959991 0.23161012 -0.035717864 0.058317382 0.18189664
0.14963362 -0.25932935 0.13626198 -0.38045153 -0.10135369 0.16234459 -0.23637159 -0.14478478
0.21857725 -0.3819084 -0.032771777 -0.03247595 0.31949234 -0.13722281 0.1767848 -0.01202257
-0.28787708 0.0072192573 0.011061766 -0.033563312 0.20021743 -0.22584713 -0.35724235 0.369987
0.35182688 0.02657362 -0.31248987 0.09349701 -0.026391653 -0.13807231 -0.25058976 0.33552474
0.38916138 0.365556 0.18907177 0.11318594 0.069260515 -0.30425146 -0.16520612 0.07963113
0.26956278 0.17506668 0.06631577 0.02849319 -0.09425987 0.36202112 -0.2946947 -0.36231852
0.20667303 -0.26241085 0.2983504 0.04645941 0.1339337 0.3605045 0.2903053 0.34431347
-0.2284202 -0.18193358 0.37838784 -0.014500173 0.22215821 -0.1650218 -0.1903575 -0.20402049
-0.19470052 0.0828794 0.14236356 -0.29638255 0.33379087 -0.10210192 0.29311302 0.14218038
0.3358416 0.13737953 0.23935597 -0.33574373 0.07828219 0.06482691 -0.35854587 0.2445978
-0.18435296 0.109848544 -0.1932278 -0.27285466 -0.16542639 -0.18944326 -0.19653095 0.04296595
0.1699838 -0.28949013 -0.17583008 0.35323521 -0.3703084 -0.105411924 0.15744926 0.1832419
-0.3234723 0.26005137 -0.028717954 -0.35811952 0.2938716 0.13215668 0.02541686 -0.08855687
0.09282207 -0.23148613 0.1243227 -0.12018006 0.33777556 -0.2156669 0.32314858 0.033764992
0.1103815 0.3331969 0.01906445 -0.3706693 -0.02659974 -0.1385817 -0.38322946 0.37991786
0.20498379 0.2366019 0.037841402 0.20947981 -0.29682013 -0.07912362 -0.18004198 0.27719778
-0.055122312 0.110529274 -0.3587079 -0.14522001 0.08393479 0.35297355 0.22948635 0.085373886
-0.37634277 -0.1568724 -0.2703922 0.37304956 -0.140611 -0.20959166 0.21732616 -0.006694225
-0.011015627 -0.009235322 0.0010732693 -0.08477649 -0.1470375 -0.25958046 -0.100663535 -0.31753257
00000000: 5083 ff3c 9708 9ebe 91e1 583e 7342 3d3e
00000010: 1488 0e3e b6db 813d d091 3a3e 9d6f 8a3d
00000020: 5139 453e 3fa5 e93c c86b 853e d350 a03e
00000030: a675 80bd a49a c83c 39ae 673e 2285 633e
00000040: 505f 92be 330a 27be eb9f 71be 9efb 64be
00000050: 6427 a3be 702a 863e e1c8 973e 7c14 9d3e
00000060: 79b1 113e c4b5 ab3e 97ef a93e 3668 e1bc
00000070: f023 193e f8df debd bf25 863d dd4b 66be
00000080: f675 4cbd 32e0 a03e a14e c1be 674f 94be
00000090: 79bd 423e f41d 70bd 84b6 c3bc c477 87be
000000a0: 8fb9 1b3e 3f6e 933e 03a0 45be d52e f13d
000000b0: c8b0 abbe 1997 893e 10b3 c0be be88 8f3e
000000c0: af44 89be 0a75 9ebe e7b6 3dbe 4516 e1bd
000000d0: 447c 403e 8527 b4be 4a8d 40be cb33 7abe
000000e0: ff13 673e 2a67 ce3c 2a46 2ebe 95ba 81bd
000000f0: 9eb6 2b3d 9e41 2ebd f2c3 21be 55f5 c2be
00000100: 80d0 b4bd beb9 b63e cd62 a63e e7fb 89be
00000110: d92e 08bd 8e3a f9bd 8bf0 80be 1770 97be
00000120: efd8 01bc 1cdb 3a3d 0f98 0abc 9efe 00be
00000130: 76f8 503c 1b4c a4bd 6e52 81bb 3754 833e
00000140: 2578 2ebc 14e1 a5bd d16a 9fbb a566 833e
00000150: 3f45 123e 44a9 8a3e 6d32 08be 8897 1cbd
00000160: 9be1 983e facb 943e 87b8 aebc 59f1 6cbe
00000170: 3277 893b 9500 a53d 521b f13d d670 b1be
00000180: f7d8 8b3e eedc 25bc 8004 1d3d 5a0c e53c
00000190: 342b 6d3e e54c 12bd 35de 6e3d 1d43 3a3e
000001a0: 8e39 193e d1c6 84be 4388 0b3e 8bca c2be
000001b0: 8692 cfbd a93d 263e 650b 72be 7642 14be
000001c0: b7d2 5f3e 7f89 c3be b33b 06bd 8005 05bd
000001d0: 8094 a33e 2384 0cbe 1307 353e 50fa 44bc
000001e0: a064 93be 858f ec3b 693c 353c af79 09bd
000001f0: cc05 4d3e 7844 67be 78e8 b6be f06e bd3e
00000200: a722 b43e ecb0 d93c acfe 9fbe 5c7b bf3d
00000210: 4f33 d8bc d462 0dbe 4d4d 80be e6c9 ab3e
00000220: 2940 c73e 282a bb3e 089c 413e 08ce e73d
00000230: 75d8 8d3d d9c6 9bbe cb2b 29be a515 a33d
00000240: 2204 8a3e ae44 333e 90d0 873d 8d6a e93c
00000250: 520b c1bd d55a b93e 39e2 96be d081 b9be
00000260: 18a2 533e b75a 86be 62c1 983e 394c 3e3d
00000270: ea25 093e 0c94 b83e e5a2 943e db49 b03e
00000280: fce6 69be cc4c 3abe 0dbc c13e 2292 6dbc
00000290: 717d 633e 7afb 28be 14ed 42be bfea 50be
000002a0: 935f 47be adbc a93d c1c7 113e 74bf 97be
000002b0: a3e6 aa3e d01a d1bd e912 963e bc97 113e
000002c0: 6ef3 ab3e 38ad 0c3e bb19 753e 9ae6 abbe
000002d0: 6a52 a03d f9c3 843d 5393 b7be d877 7a3e
000002e0: 06c7 3cbe 46f8 e03d 82dd 45be 9bb3 8bbe
000002f0: 8965 29be 6afd 41be 693f 49be 10fd 2f3d
00000300: 3c10 2e3e 0d38 94be cd0c 34be 3fdb b43e
00000310: 1099 bdbe 35e2 d7bd 613a 213e c4a3 3b3e
00000320: 299e a5be 7425 853e ea41 ebbc 715b b7be
00000330: 5776 963e 1554 073e 0537 d03c 4e5d b5bd
00000340: 7f19 be3d b30a 6dbe e69c fe3d f720 f6bd
00000350: ebf0 ac3e c9d7 5cbe bb73 a53e 294d 0a3d
00000360: b20f e23d c998 aa3e 0d2d 9c3c 5ec8 bdbe
00000370: b3e7 d9bc 5ce8 0dbe a736 c4be 9884 c23e
00000380: 45e7 513e c547 723e 96ff 1a3d e081 563e
00000390: cff8 97be 910b a2bd ed5c 38be deec 8d3e
000003a0: efc7 61bd 2c5d e23d 90a8 b7be 8eb4 14be
000003b0: 01e6 ab3d f3b8 b43e 78fe 6a3e 81d8 ae3d
000003c0: 00b0 c0be 29a3 20be d970 8abe 5a00 bf3e
000003d0: 54fc 0fbe 329f 56be c08a 5e3e 3b5b dbbb
000003e0: e37a 34bc bf4f 17bc f1ac 8c3a 4c9f adbd
000003f0: 0091 16be bbe7 84be af28 cebd a193 a2be

encoder.layers.0.attn.attns.1.v.bias f4 [8]
0.10718834 -0.04537602 0.11634726 0.16438696 0.122023 0.06097359 0.06428317 -0.008731376
00000000: 8f85 db3d 35dc 39bd 7947 ee3d 0e55 283e
00000010: 32e7 f93d 71bf 793d e5a6 833d 0c0e 0fbc
