A3/one_minute_deepconvnet.pth (torch, 704116 bytes, 8 tensors)

W1 f4 [32, 3, 3, 3]
0	0xbcf530f1	-0.029930564
1	0xbe11d0d3	-0.14239816
2	0xbcb87627	-0.022517277
3	0x3e1e44d6	0.15455946
4	0xbd994e0d	-0.0748559
5	0xbe045ddb	-0.12926428
6	0xbca107c8	-0.01965703
7	0xbe93ea37	-0.2888963
8	0x3e8b5946	0.27216548
9	0xbe551f70	-0.20812774
10	0xbeb26748	-0.34844422
11	0x3c409ff0	0.011756882
12	0xbde9c8f0	-0.11415279
13	0xbe4afcea	-0.19823042
14	0x3c8efc51	0.017454298
15	0x3e2a9395	0.1665786
16	0x3ecba18c	0.39771688
17	0x3d9c76c6	0.07639842
18	0x3e866954	0.26252234
19	0x3e0be96c	0.13663262
20	0xbdb5eb85	-0.088828124
21	0x3eb390a1	0.3507128
22	0xbe6ed830	-0.23324656
23	0x3e92780d	0.28607216
24	0xbd05f3f6	-0.032703362
25	0xbe8c1e2c	-0.2736677
26	0xbd69e7bd	-0.05710577
27	0xbe5b2ab2	-0.21403006
28	0x3e046a42	0.12931159
29	0x3eb600db	0.35547528
30	0xbeaad9f9	-0.33369425
31	0x3ec0fd53	0.3769327
32	0x3e93470d	0.28765145
33	0xbeccb378	-0.39980674
34	0x3e5ce153	0.2157033
35	0x3ec4665b	0.3835934
36	0xbf2e8149	-0.68166023
37	0xbe07f07b	-0.1327533
38	0xbdcde056	-0.10052554
39	0xbf834e39	-1.0258247
40	0x3d2bfb65	0.041987795
41	0x3f029165	0.51003104
42	0xbe43127f	-0.19050024
43	0x3f015320	0.50517464
44	0x3e38564c	0.1800167
45	0xbf55a9fe	-0.8346251
46	0xbe98a93e	-0.29816622
47	0x3f0f3b8c	0.55950236
48	0xbf5db1b7	-0.86599296
49	0x3f29a207	0.6626286
50	0x3f0c2c0a	0.547547
51	0x3e1fbbce	0.15598986
52	0x3e6473a7	0.22309743
53	0x3d44bcff	0.048031803
54	0xbf37025d	-0.7148798
55	0xbf902dd7	-1.1263989
56	0x3e7a0cc2	0.24418929
57	0x3eb31ad9	0.3498142
58	0xbeb3ecfe	-0.35141748
59	0x3e3fc8af	0.18728898
60	0x3e7097b3	0.23495369
61	0x3e4a68c3	0.19766526
62	0x3f168194	0.5879147
63	0xbecc8a91	-0.39949468
64	0xbf32a7b7	-0.6978716
65	0xbdee44b6	-0.11634199
66	0x3f0a7626	0.5408653
67	0x3dfe8b6c	0.12428936
68	0x3cbd26ad	0.023089731
69	0xbde78821	-0.113052614
70	0x3f814f69	1.0102359
71	0x3f048ecd	0.51780397
72	0xbeebcd65	-0.4605514
73	0xbf479303	-0.779587
74	0x3e2a7b3a	0.1664857
75	0xbebb4c43	-0.3658162
76	0x3dc1a552	0.094553605
77	0x3e706b28	0.23478377
78	0xbcfd854c	-0.03094735
79	0x3f350e34	0.707248
80	0x3e36c57b	0.1784877
81	0xbf1d01e8	-0.61331034
82	0x3ce83d4f	0.028349547
83	0xbf0ce214	-0.5503247
84	0x3ed37a63	0.4130431
85	0x3e170376	0.14747414
86	0xbd9a466b	-0.075329624
87	0x3ec55213	0.3853918
88	0x3eed4b35	0.4634644
89	0x3dfb203c	0.122620076
90	0xbd656b7f	-0.05601072
91	0x3d9c5c8e	0.07634841
92	0xbd7854f1	-0.06062788
93	0xbde6b373	-0.11264696
94	0xbe940d79	-0.2891653
95	0x3f16ad09	0.5885778
96	0x3e0c132a	0.13679186
97	0x3e1982b5	0.14991267
98	0xbeac61be	-0.3366832
99	0xbe946234	-0.28981173
100	0xbe87e3cf	-0.26540992
101	0x3d031c65	0.0320095
102	0xbecfc832	-0.40582424
103	0xbecef342	-0.40419966
104	0x3e01baa7	0.12668858
105	0xbe00c9f8	-0.12577045
106	0xbe291882	-0.16513255
107	0x3ce1ec6f	0.02757856
108	0xbebd379b	-0.36956486
109	0xbe7e303c	-0.24823087
110	0xbd5cc91c	-0.05390273
111	0x3ecaedc5	0.3963453
112	0x3e04f07a	0.1298236
113	0x3f87ac3f	1.059944
114	0x3e8dd66d	0.27702656
115	0x3e553ab5	0.20823176
116	0x3ecd2f5c	0.40075195
117	0xbf14dc28	-0.5814843
118	0x3df8d798	0.12150496
119	0xbe4caad8	-0.19987047
120	0xbe7152f8	-0.23566806
121	0xbece4e6d	-0.4029421
122	0xbe2efc84	-0.17088515
123	0x3cf69d6f	0.030104367
124	0xbf5cf79d	-0.8631533
125	0xbe426f16	-0.18987688
126	0x3e99a080	0.30005264
127	0x3edcc1d2	0.43116623
128	0x3f3eb0d1	0.7448855
129	0x3eb02719	0.3440483
130	0xbf34cea5	-0.70627815
131	0xbe9d986b	-0.30780348
132	0x3e5d0d2a	0.21587053
133	0xbed20f19	-0.41027144
134	0xbe244197	-0.16040646
135	0x3e60a602	0.21938327
136	0x3f2ccee5	0.67503196
137	0x3f1fccb7	0.62421745
138	0x3d266b43	0.040629636
139	0x3d8169b1	0.06318987
140	0xbe9b4026	-0.3032238
141	0xbec89923	-0.39179334
142	0xbf2d2fc2	-0.67651
143	0xbf3129fc	-0.6920469
144	0x3f0ddffa	0.55419886
145	0x3dbfcebb	0.093656026
146	0x3ecb80b6	0.39746636
147	0x3e983172	0.29725224
148	0xbe26b1ec	-0.1627881
149	0x3f3fea02	0.7496644
150	0xbefb347c	-0.4906348
151	0xbefaae2a	-0.48961002
152	0xbf131d0d	-0.574662
153	0x3f2f7fe9	0.6855455
154	0x3e932b04	0.28743756
155	0xbd060583	-0.0327201
156	0xbe12b336	-0.14326176
157	0xbe54506d	-0.20733805
158	0x3ebbf762	0.36712176
159	0xbe975eeb	-0.29564604
160	0xbe918834	-0.28424227
161	0xbeed0621	-0.46293738
162	0xbe67014c	-0.22559088
163	0xbe1c4104	-0.15259176
164	0x3d3c9c62	0.046047576
165	0xbec356db	-0.38152203
166	0x3df2482b	0.11830171
167	0xbcf69d07	-0.030104173
168	0x3dad17e3	0.08451822
169	0x3e8c441b	0.2739571
170	0x3e8447ef	0.2583613
171	0xbf031dbc	-0.51217246
172	0x3b44f46b	0.003005291
173	0x3e26ab31	0.16276242
174	0xbd2ecb49	-0.042674337
175	0xbe919bc8	-0.28439164
176	0x3eb91f99	0.3615692
177	0x3eb27f7b	0.34862885
178	0x3d5a14b6	0.053242408
179	0xbde7963f	-0.11307954
180	0x3dffba2a	0.1248668
181	0x3e277fb3	0.16357307
182	0xbdb205d2	-0.086925164
183	0x3f009ade	0.5023631
184	0xbe0ef5c5	-0.13960941
185	0x3e452313	0.19251661
186	0x3eb36208	0.3503573
187	0x3eaccda4	0.3375064
188	0x3e95cc2f	0.29257342
189	0xbe5ba0c9	-0.21448053
190	0xbed39e46	-0.4133169
191	0x3ec8fcc1	0.39255336
192	0xbdae4bc6	-0.085105464
193	0xbd27f8dd	-0.04100882
194	0xbd12924c	-0.03578405
195	0xbe1f7714	-0.15572768
196	0x3e9083d8	0.2822559
197	0xbec54299	-0.38527372
198	0x3d03d031	0.03218097
199	0x3d94841f	0.072517626
200	0x3e565f4b	0.20934789
201	0x3cf24f38	0.02957879
202	0xbe0d4994	-0.13797599
203	0x3e194fe7	0.14971887
204	0x3ed61e97	0.41820213
205	0x3e15cd46	0.14629087
206	0x3c7fa08c	0.015602242
207	0x3e259c59	0.16172923
208	0x3e8908c3	0.26764497
209	0xbf047116	-0.51735055
210	0x3ecf0449	0.40432957
211	0x3eb8ce58	0.36094928
212	0x3e9d86f9	0.30767038
213	0xbd676c3a	-0.056499697
214	0xbc4c58f5	-0.012472381
215	0xbe3eabd7	-0.18620239
216	0x3ea393c2	0.31948668
217	0x3f1e6973	0.6187965
218	0x3f1ed1a8	0.6203866
219	0xbefa9ace	-0.48946232
220	0x3ed13dcc	0.4086746
221	0x3edb2ac8	0.42806077
222	0xbebd184d	-0.36932603
223	0xbe1021a9	-0.1407534
224	0x3ea26542	0.3171788
225	0xbf08300d	-0.5319832
226	0xbea6f60d	-0.32609597
227	0xbf2ce1ed	-0.67532235
228	0xbeb3e9a4	-0.3513919
229	0xbe1bf1ef	-0.15229009
230	0x3ea3c0f0	0.31983137
231	0xbf4c7c4d	-0.7987717
232	0xbd21d420	-0.03950894
233	0xbe1198be	-0.14218423
234	0x3d8cc519	0.06873531
235	0x3e30abd5	0.17253049
236	0x3dd6b8eb	0.10484489
237	0x3e1b2d31	0.15153958
238	0xbee1c9e6	-0.4409935
239	0xbe88d49b	-0.26724705
240	0x3e1f0523	0.15529303
241	0xbe29f21e	-0.16596267
242	0x3b8fff02	0.004394413
243	0x3f3a44a8	0.7276101
244	0x3f2fb497	0.68634933
245	0xbd09a08d	-0.03360038
246	0x3f5c4682	0.86045086
247	0xbd55aeea	-0.052168764
248	0x3d377879	0.044792626
249	0xbe97f864	-0.29681695
250	0xbee75c5b	-0.4518765
251	0x3e931a9b	0.28731236
252	0x3f3c46f6	0.7354578
253	0xbd38acfc	-0.045086846
254	0xbd53cd1e	-0.051709287
255	0xbdf2eebf	-0.118619435

b1 f4 [32]
0	0xbe617b28	-0.22019637
1	0x3e554982	0.20828822
2	0x3e6edb40	0.23325825
3	0xbe394ea1	-0.18096401
4	0x3e222182	0.15833095
5	0xbd2cc789	-0.04218248
6	0xbec2a227	-0.38014337
7	0xbcc45ce2	-0.023970071
8	0xbe58a5e2	-0.2115703
9	0xbe1f3c26	-0.15550289
10	0x3e21ae89	0.15789236
11	0xbecab9d0	-0.3959489
12	0x3d54a743	0.051917326
13	0x3e39ed89	0.18157019
14	0x3dec598d	0.11540518
15	0xbde55418	-0.1119768
16	0x3da328a6	0.079667374
17	0xbe6db22d	-0.232125
18	0x3d8ddee1	0.069272764
19	0x3e31b9ec	0.1735608
20	0xbe2606eb	-0.16213576
21	0xbe24132f	-0.16022943
22	0xbc523ea0	-0.012832314
23	0xbd334d51	-0.043774907
24	0xbdf8fc24	-0.12157467
25	0xbdd47ef9	-0.103757806
26	0x3e4002ea	0.18751112
27	0xbdf57124	-0.119844705
28	0x3e730065	0.23730619
29	0x3e6ee8a8	0.23330939
30	0x3dd0a54e	0.10187779
31	0x3e720029	0.23632874

W2 f4 [64, 32, 3, 3]
0	0x3da0a884	0.07844642
1	0x3ddea3d8	0.108710945
2	0x3d48f0c0	0.049057722
3	0x3c4d29c1	0.012522162
4	0x3deef133	0.11667099
5	0x3d23faae	0.04003399
6	0xbdced3bc	-0.10098979
7	0xbd07a71e	-0.03311836
8	0x3e126c0c	0.14299029
9	0x3e5b4a1c	0.21414989
10	0x3da9a7bb	0.08283945
11	0xbce695f3	-0.028147673
12	0xbd302f2e	-0.043013744
13	0xbc94b9be	-0.018154975
14	0xbdcc5ce5	-0.09978656
15	0xbe24973c	-0.16073316
16	0xbe0c1dba	-0.13683215
17	0x3c6ff557	0.014645896
18	0x3cfa3c78	0.030546412
19	0xbd693692	-0.056936808
20	0x3da91cef	0.08257472
21	0x3e103a1d	0.14084668
22	0xbe37f2cc	-0.17963713
23	0xbdd85d9f	-0.10564732
24	0x3d286dac	0.041120216
25	0x3e2844dd	0.1643252
26	0xbdbefdd0	-0.09325755
27	0x3e341055	0.17584355
28	0x3d0fbed9	0.035094116
29	0x3d3cc859	0.046089504
30	0x3d98a05d	0.07452462
31	0x3cb4af5d	0.022056276
32	0xbd7f50e0	-0.062332988
33	0xbc186a45	-0.00930268
34	0x3e33d56b	0.17561881
35	0xbc99bd19	-0.018766927
36	0x3d57b662	0.05266417
37	0xbddcd524	-0.10782841
38	0xbe033379	-0.12812604
39	0xbde696da	-0.112592414
40	0xbc80899e	-0.015690621
41	0xbe0d8d74	-0.13823491
42	0xbe86fcb5	-0.26364675
43	0xbe1eb63f	-0.15499209
44	0x3dde7954	0.10862985
45	0x3d854896	0.06507985
46	0xbe1ac04e	-0.15112421
47	0x3df219e1	0.11821342
48	0x3daf8acd	0.08571396
49	0x3afd9f48	0.0019349838
50	0xbd017018	-0.03160104
51	0xbdbdd1f9	-0.09268565
52	0x3d49b3b2	0.049243636
53	0xbdaac601	-0.083385475
54	0x3caeb13d	0.021324748
55	0x3c9227e4	0.017841287
56	0x3d8d5077	0.06900113
57	0xbdf8f6fa	-0.12156482
58	0xbaf93e85	-0.0019015825
59	0xbde0363e	-0.10947846
60	0x3ca6bcd0	0.020353705
61	0xbe0c177b	-0.13680832
62	0xbd899134	-0.067171484
63	0x3d4635eb	0.048391264
64	0xbdf151e1	-0.11783195
65	0x3e0b79ef	0.13620733
66	0x3de20011	0.11035169
67	0x3dc0cbe7	0.09413891
68	0x3d0b9fab	0.034087818
69	0x3c5d37af	0.013502046
70	0x3e035243	0.12824349
71	0xbcc9bff7	-0.024627669
72	0x3da588c8	0.080827296
73	0xbe0c7044	-0.13714701
74	0xbe062677	-0.1310061
75	0xbd9af0b3	-0.07565441
76	0xbcf036ef	-0.02932307
77	0x3d450e63	0.048109423
78	0xbc91bd86	-0.017790567
79	0xbe67de40	-0.22643375
80	0x399956a7	0.00029246995
81	0xbe6189b0	-0.2202518
82	0xbe02b5f7	-0.12764727
83	0xbe09b712	-0.13448742
84	0xbe04ad58	-0.1295675
85	0xbe3e827d	-0.18604465
86	0xbdf7dc72	-0.121025935
87	0xbde7672b	-0.112989746
88	0xbd938040	-0.07202196
89	0xbebbf8db	-0.367133
90	0xbdf81b6f	-0.121146075
91	0x3e9f16b8	0.3107202
92	0x3bf7496e	0.0075465953
93	0xbe002a17	-0.12516056
94	0xbe778b96	-0.24174342
95	0x3e57d493	0.21077184
96	0x3e131e70	0.1436708
97	0xbdfc60d6	-0.123231575
98	0xbd7af91b	-0.06127272
99	0xbd175bec	-0.036952898
100	0x3ce9f634	0.028559782
101	0x3b9a4bc5	0.0047087395
102	0xbd15074f	-0.036383923
103	0xbc82ec9f	-0.01598197
104	0xbd130669	-0.035894785
105	0xbd644388	-0.055728465
106	0xbd7c9ea0	-0.061674714
107	0x3dd90c1a	0.10598011
108	0x3d4a7a5b	0.049433094
109	0xbb0d8f89	-0.0021600446
110	0x3def3f9e	0.11682056
111	0x3d4a9e84	0.04946758
112	0x3dbe127d	0.0928087
113	0x3c624ca6	0.01381222
114	0x3e028844	0.12747294
115	0xbd8dfea6	-0.06933336
116	0xbdf85884	-0.12126258
117	0x3e3aac18	0.18229711
118	0xbdfd8473	-0.12378778
119	0xbd1b3db7	-0.037900653
120	0x3d099007	0.03358462
121	0x3d3d182d	0.046165634
122	0x3bf4d150	0.007471241
123	0xbdc85a9a	-0.09782906
124	0x3d962a5e	0.073323
125	0xbe084f73	-0.13311557
126	0x3e453e80	0.19262123
127	0x3debb2b1	0.11508692
128	0xbb9d62cf	-0.0048030387
129	0xbd9c5d83	-0.076350234
130	0xbdb9d371	-0.090735324
131	0x3ddbdf75	0.107359804
132	0x3de3466f	0.110974185
133	0xbd937656	-0.07200305
134	0xbe126f9c	-0.14300388
135	0x3d41000c	0.047119185
136	0xbd77f8f9	-0.060540173
137	0xbdc30e07	-0.0952416
138	0x3cdc5dfc	0.026900284
139	0x3e0a081b	0.13479654
140	0xbdb3e8eb	-0.0878466
141	0xbd4479c6	-0.047967695
142	0xbcf9cbc7	-0.030492676
143	0xbe284ac7	-0.16434775
144	0xbbdb5326	-0.0066932617
145	0x3c56d32a	0.013111869
146	0x3dd61ca2	0.1045468
147	0xbde4e9be	-0.11177395
148	0x3cba43a3	0.02273733
149	0x3d10d74b	0.03536157
150	0xbe1a0ab1	-0.15043141
151	0xbdfb0545	-0.122568645
152	0x3d980faf	0.074248664
153	0xbcc651f4	-0.024209
154	0xbe100838	-0.14065635
155	0xbdef6ead	-0.116910316
156	0x3c3fe467	0.01171217
157	0xbdaa8f2f	-0.08328091
158	0x3d10a09c	0.03530942
159	0x3d52cd18	0.051465124
160	0xbde99f92	-0.11407389
161	0xbdfd8d74	-0.12380496
162	0x3cef35fe	0.02920055
163	0xbe14bc29	-0.14524902
164	0x3d9edc44	0.07756856
165	0xbca89fbb	-0.020583978
166	0xbe3b45ac	-0.18288296
167	0xbe48a471	-0.1959398
168	0xbcc124d8	-0.023577139
169	0xbbc0a437	-0.005878951
170	0xbc1a41b1	-0.009415076
171	0xbe11fd13	-0.14256696
172	0x3d41c239	0.047304366
173	0xbe266d13	-0.16252546
174	0xbe1f9259	-0.15583171
175	0xbdfce1ec	-0.12347779
176	0xbe1ba7aa	-0.15200678
177	0xbe16c19c	-0.14722294
178	0xbe3b21bb	-0.18274586
179	0xbb8d85c2	-0.0043189237
180	0x3c4cd77b	0.012502546
181	0xbd0aa1b6	-0.033845626
182	0xbdd1d5d9	-0.10245866
183	0xbba7cad2	-0.0051206136
184	0xbd6f6f25	-0.058455605
185	0xbd2bd436	-0.041950427
186	0xbc399bd0	-0.0113286525
187	0x3c527134	0.012844373
188	0x3d20a42b	0.039219063
189	0xbdaec5a2	-0.08533789
190	0xbd8281ec	-0.06372437
191	0xbd9c1827	-0.07621794
192	0xbda2016c	-0.079104275
193	0x3db3836d	0.08765302
194	0xbcb0677e	-0.021533724
195	0xbddd3bb5	-0.10802404
196	0xbda5c82d	-0.08094821
197	0xbd86de57	-0.06585377
198	0xbaa8d346	-0.0012880347
199	0xbd0b3b99	-0.033992384
200	0xbdea04a8	-0.11426669
201	0x3c561324	0.013066087
202	0xbe16d394	-0.14729148
203	0xbc037dd4	-0.008025605
204	0xbcab3bae	-0.02090248
205	0xbdf95c05	-0.121757545
206	0xbb19bdb9	-0.002345903
207	0xbe2849e8	-0.16434443
208	0xbd89dca0	-0.06731534
209	0xbd87a851	-0.06623901
210	0xbdca4297	-0.09875982
211	0x3cbf936f	0.023385732
212	0x3bd9ddf5	0.006648774
213	0xbd668e92	-0.05628831
214	0xbe27460c	-0.16335315
215	0x3d91399d	0.07091067
216	0x3cf56a34	0.029957868
217	0xbde7c270	-0.11316383
218	0xbd043326	-0.03227534
219	0x3dbf47a0	0.09339833
220	0xbba3c31b	-0.0049976236
221	0xbce96a9e	-0.028493222
222	0xbe163205	-0.14667518
223	0x3d500d34	0.05079384
224	0x3da896de	0.08231901
225	0x3e7cbb5b	0.24680845
226	0x3ddec971	0.10878266
227	0xbdfbec9c	-0.12300989
228	0xbe22ff41	-0.15917684
229	0x3ccd73e6	0.025079679
230	0x3dd566cc	0.104199976
231	0xbcdc6c3c	-0.026907079
232	0xbdbd5869	-0.092453785
233	0xbd90226c	-0.070378155
234	0x3da2de50	0.07952559
235	0xbe5288a7	-0.20559941
236	0x3d2cf8b9	0.042229388
237	0x3c6b6fe8	0.014369942
238	0x3db162fe	0.086614594
239	0x3cf48dfa	0.029852856
240	0xbddc0375	-0.10742847
241	0x3c987223	0.018609112
242	0x3e6db52c	0.23213643
243	0xbd0425aa	-0.03226248
244	0x3e0b41a9	0.13599266
245	0x3cac5b32	0.021039579
246	0x3d819db1	0.063289054
247	0xbd336d3c	-0.043805346
248	0xbdc141eb	-0.09436401
249	0xbca61f19	-0.0202785
250	0x3e6431ca	0.22284618
251	0xbc8c55ec	-0.017130814
252	0xbe088eca	-0.1333572
253	0xbd6fc5e6	-0.05853834
254	0xbe3a0bfe	-0.18168637
255	0xbe2afc61	-0.16697837

b2 f4 [64]
0	0x3e488a65	0.19584043
1	0xbf060a86	-0.5235981
2	0xbe00b913	-0.125706
3	0xbde9f5f8	-0.11423868
4	0xbe094799	-0.13406219
5	0xbdeae7e5	-0.114700116
6	0x3d2bf09a	0.041977502
7	0xbeeaba0d	-0.4584507
8	0xbc53d226	-0.012928521
9	0xbddbe65b	-0.10737296
10	0x3e80ca78	0.2515447
11	0x3e8b8b77	0.2725484
12	0xbeb1c370	-0.3471942
13	0xbec0b154	-0.3763529
14	0xbd8b3ff4	-0.067993075
15	0xbe6d8286	-0.23194322
16	0x3f168b77	0.58806556
17	0x3bbd2392	0.0057720626
18	0xbdd66c26	-0.104698464
19	0x3c892e8f	0.016745834
20	0xbdab3d99	-0.08361358
21	0xbdfa168c	-0.12211332
22	0xbaeedc88	-0.0018223682
23	0xbc11a3be	-0.008889137
24	0x3e8e39b8	0.2777841
25	0x3e6da2e1	0.23206665
26	0xbde6d87a	-0.112717584
27	0xbed57aaa	-0.41695148
28	0xbe3aae06	-0.18230447
29	0xbdf0bfb2	-0.11755313
30	0xbe33d7fe	-0.17562863
31	0xbe8fde9e	-0.2809953
32	0x3d36c0ef	0.04461759
33	0x3deb52ce	0.11490403
34	0x3ee4c311	0.44680074
35	0x3bbd1047	0.0057697627
36	0xbe432c7d	-0.1905994
37	0xbd1fca13	-0.039011072
38	0xbc666a4a	-0.014063427
39	0xbcd4ed55	-0.025992075
40	0xbe071234	-0.13190538
41	0x3d86d58d	0.065837
42	0xbd8faa56	-0.07014911
43	0xbe97abd1	-0.29623273
44	0xbf368637	-0.71298546
45	0xbd55652e	-0.052098446
46	0xbe8093a1	-0.25112632
47	0xbf172cb4	-0.59052587
48	0xbd4d2577	-0.050084557
49	0xbe9d3bc2	-0.30709654
50	0x3d32628c	0.043551013
51	0xbe59647c	-0.21229738
52	0xbef28c82	-0.47372824
53	0x3e0065bb	0.12538807
54	0xbe0fa463	-0.14027552
55	0x3e1f9960	0.15585852
56	0x3dd5bb78	0.104361475
57	0x3e220c5a	0.15825024
58	0xbe840e3a	-0.25792104
59	0xbde6588f	-0.1124736
60	0xbdd95915	-0.10612694
61	0xbe0e22fa	-0.1388053
62	0xbd50a44c	-0.050937936
63	0xbc76ea2e	-0.015070481

W4 f4 [8192, 10]
0	0xbc834520	-0.016024172
1	0x3c979fbf	0.01850879
2	0x3d00b1be	0.03141951
3	0xbd896e76	-0.06710522
4	0x3bfab627	0.007651109
5	0xbc7e3b03	-0.015516999
6	0xbc776eb3	-0.015102076
7	0x3cc2ce1a	0.023779918
8	0x3cd95f92	0.02653483
9	0x3d01d3ad	0.03169601
10	0xbb4a485c	-0.0030865883
11	0xbce25165	-0.027626703
12	0x3d80faeb	0.06297859
13	0xbd37954a	-0.044820108
14	0x3d17cf1e	0.037062757
15	0x3cf54a58	0.029942676
16	0xbd1190a8	-0.035538346
17	0xbc1109ed	-0.008852464
18	0x3d0650a3	0.032791745
19	0xbd38f0c1	-0.045151476
20	0xbcba5986	-0.022747766
21	0x3c8e295f	0.017353712
22	0x3cb89ea1	0.022536578
23	0xbc825128	-0.015907839
24	0xbd8db4cd	-0.06919251
25	0x3d31a12b	0.043366592
26	0x3c9b846e	0.018984046
27	0x3bfd8ea3	0.007737951
28	0x3c177c09	0.009245881
29	0xbb4a459c	-0.0030864244
30	0x39bd908e	0.0003615659
31	0x3d907c4f	0.0705496
32	0x3d06b521	0.03288758
33	0xbca1955f	-0.019724546
34	0xbcfc54bf	-0.030802129
35	0xbafd9545	-0.0019346854
36	0xbb00ec79	-0.0019672199
37	0x3cfcfc3a	0.03088199
38	0xbb505460	-0.0031788573
39	0xbd6f5abc	-0.05843614
40	0x3cde3200	0.027123451
41	0x3d51be19	0.051206682
42	0x3c95c359	0.018281626
43	0xbdaca7a6	-0.08430414
44	0xbabea31f	-0.0014544463
45	0x3cf77ce3	0.030210918
46	0xbd0f7634	-0.035024837
47	0xbd1b6dee	-0.037946634
48	0x3ceb5a17	0.028729482
49	0xbcc7a50a	-0.024370689
50	0xbcdf4f3d	-0.027259463
51	0xbc97f9c3	-0.018551713
52	0x3c11c26b	0.0088964505
53	0xbd3090b6	-0.043106757
54	0x3d71a1c6	0.05899217
55	0x3c815bfe	0.015790936
56	0xbd107ebd	-0.035277117
57	0xbcb0add5	-0.021567265
58	0xbb682ba6	-0.0035426407
59	0x3d8bb827	0.06822234
60	0x3c9aa262	0.018876258
61	0xbb69228f	-0.0035573577
62	0xbb901773	-0.0043973266
63	0x3d8a9e55	0.06768481
64	0xbd3e1f98	-0.04641685
65	0x3c2813e3	0.010258648
66	0xbcc7ff4c	-0.024413727
67	0xbcf9c3c7	-0.030488862
68	0x3d61fbc9	0.05517176
69	0xbd4b55ea	-0.04964248
70	0x3d157c6a	0.036495604
71	0xbcd399c8	-0.025830165
72	0xbca27926	-0.019833159
73	0x3ca2ddf5	0.019881228
74	0xbd2709b6	-0.040780745
75	0x3d1be388	0.038058788
76	0x3cc6de86	0.02427603
77	0xbd1b8521	-0.03796876
78	0x3b1ebc9a	0.0024221302
79	0x3ca8cd22	0.020605627
80	0xb954b1d3	-0.0002028414
81	0x3cb42fdf	0.021995483
82	0x3d0e9d29	0.03481785
83	0xbd5a6b0f	-0.053324755
84	0xbd281900	-0.041039467
85	0x3d28bcdd	0.04119574
86	0xbc194984	-0.009355906
87	0x3c18ba7f	0.009321808
88	0xbc57dac4	-0.013174716
89	0x3cd17b95	0.025571624
90	0xbbd9bc44	-0.0066447575
91	0xbc77a495	-0.015114923
92	0x3d4dd7aa	0.0502545
93	0xbd200235	-0.039064605
94	0xbcc489af	-0.023991434
95	0x3d2a9c25	0.041652817
96	0xbcf793e8	-0.030221894
97	0xbc958ae3	-0.018254703
98	0x3d976261	0.07391811
99	0xbbae7e52	-0.005325117
100	0xbc2c9371	-0.0105332
101	0xbcfe3ded	-0.031035388
102	0xbca1a29d	-0.01973086
103	0x3cad6480	0.021166086
104	0xbc1cdf84	-0.009574775
105	0xbb7ef359	-0.003890237
106	0x3b72edde	0.003706805
107	0x3d23e2ac	0.040011093
108	0xbd06c9b0	-0.032907188
109	0xb9ff6e51	-0.00048719582
110	0x3ce476cd	0.02788868
111	0xbad99c93	-0.0016602449
112	0xbc8a0fac	-0.016853176
113	0x3ceff5c5	0.029291997
114	0xbd7e7265	-0.062120814
115	0xbd634d7d	-0.05549382
116	0x3ca72587	0.020403637
117	0x3d2e80b1	0.0426032
118	0xba0f2dd2	-0.0005461845
119	0xba8cfff4	-0.0010757432
120	0x3d236029	0.039886627
121	0xbd27e9c1	-0.04099441
122	0xbc94d594	-0.018168248
123	0x3bfb521a	0.0076696994
124	0xbd8715b4	-0.065959364
125	0x3d8a6c68	0.06758958
126	0x3aea2111	0.0017862638
127	0x3d78a606	0.060705207
128	0xbbd3a8dc	-0.0064593386
129	0xbc8a0765	-0.01684923
130	0xbd09539d	-0.033527005
131	0x3aae271c	0.0013286802
132	0x3c6ab6b0	0.014325783
133	0xbd0e2c59	-0.034710262
134	0x3ca6e6cf	0.02037373
135	0x3d475c6b	0.04867212
136	0xbcc0924c	-0.02350726
137	0x3d19da11	0.03756148
138	0x3c7ed37a	0.01555335
139	0xbca66b41	-0.020314815
140	0xbd25d85d	-0.040489543
141	0xbd1443c9	-0.036197457
142	0xbd4d9bd1	-0.050197426
143	0x3cc157c0	0.023601413
144	0xba37207a	-0.00069857354
145	0x3d96c846	0.07362418
146	0x3af7dbff	0.0018910168
147	0x3c68b82a	0.014204064
148	0x3d3f304b	0.046676915
149	0xbc63fd73	-0.0139154075
150	0xbc908b80	-0.017644644
151	0x3c5fb80b	0.013654719
152	0xbd2b8928	-0.04187885
153	0xbcb79bb8	-0.02241312
154	0xbcccc30c	-0.02499535
155	0x3d7d5879	0.061851952
156	0xbd6f79e6	-0.05846586
157	0x3cba997f	0.02277827
158	0x3d59b7a6	0.053153656
159	0x3b65c230	0.0035058372
160	0xbda91647	-0.08256202
161	0xbd2a47cb	-0.041572373
162	0x3d49e4e2	0.049290545
163	0x3d52b21e	0.051439397
164	0x3d521a7e	0.051294796
165	0x3bd2cfb3	0.006433451
166	0xbd5f7a64	-0.05456008
167	0x3c2caef2	0.010539757
168	0x3cd0e7d6	0.025501173
169	0x3cb819b6	0.022473197
170	0xbce458ab	-0.027874311
171	0x3c803dbd	0.01565444
172	0x3d789682	0.06069041
173	0x3d349a20	0.044092298
174	0xbd6ac4a4	-0.057316437
175	0x3d0eb387	0.03483918
176	0xbd0ed3be	-0.0348699
177	0x3d74714d	0.059678365
178	0xbcc7282e	-0.024311151
179	0xbd80373f	-0.06260537
180	0xbcb32ad3	-0.021871006
181	0x3c967fc6	0.018371474
182	0xbcef6530	-0.029223055
183	0xbc2143ed	-0.009842855
184	0x3d694fc2	0.05696083
185	0xbbff0b26	-0.0077833114
186	0xbc1cb250	-0.009563997
187	0x3c76c03f	0.0150604835
188	0x3c3e7e2d	0.011626762
189	0xbd290829	-0.041267548
190	0xbdaa4309	-0.08313567
191	0x3d1980d1	0.037476365
192	0x3d60561d	0.054769624
193	0x3d4a5698	0.04939899
194	0xbca414ea	-0.020029504
195	0x3cabf57a	0.020991076
196	0xbd6673ba	-0.05626271
197	0xbd44af24	-0.04801859
198	0x3c46df7c	0.012138244
199	0x3c93e0da	0.018051554
200	0xbcdcddf9	-0.026961314
201	0xbd109ce1	-0.03530586
202	0xbbe9173f	-0.007113367
203	0x3caa6d23	0.020803994
204	0x3d7e7e4a	0.062132157
205	0x3a350d94	0.00069066253
206	0xbd293d98	-0.041318506
207	0x3c27226c	0.010201078
208	0x3d0b29e5	0.0339755
209	0xbcd92126	-0.026505064
210	0xbcd3b9a0	-0.025845349
211	0xbd0b0af7	-0.033946004
212	0xbb50b18a	-0.0031844103
213	0xbcd2a2ea	-0.02571245
214	0x3c5399f2	0.012915121
215	0x3c9cd832	0.019146059
216	0x3d126b72	0.035747
217	0x3b08a7e3	0.0020852021
218	0x3cfb8a9d	0.030705744
219	0xbccace9f	-0.024756728
220	0xbd3e32f9	-0.04643533
221	0x3ce1422c	0.027497374
222	0xbd343cad	-0.044003177
223	0x3d61f795	0.055167753
224	0x3c0d7283	0.008633259
225	0xbd8f9a38	-0.07011837
226	0xbb879c58	-0.0041385107
227	0x3d7a6f27	0.06114116
228	0x39f53b71	0.0004677433
229	0x3bab5097	0.005228113
230	0xbad04ff1	-0.0015892965
231	0x3c26b587	0.010175115
232	0xbb7f64e1	-0.003897004
233	0xbcad7335	-0.021173099
234	0x3c1402e3	0.009033891
235	0x3b6d52bf	0.003621265
236	0x3c91cae9	0.01779695
237	0x3d17d048	0.037063867
238	0x3c3ba5b8	0.011453085
239	0x3bd8f12d	0.0066205473
240	0x3cc48ee1	0.023993911
241	0x3d720993	0.059091162
242	0xbc221822	-0.009893449
243	0x3aa42a3b	0.0012524793
244	0x3c990023	0.018676823
245	0x3da6275d	0.08112977
246	0xbd0336bf	-0.03203463
247	0xbd4d51d5	-0.05012687
248	0x3c12b497	0.008954189
249	0xbdd35664	-0.10319212
250	0xbcc863e0	-0.024461687
251	0xbd782a99	-0.0605875
252	0xbcf6a510	-0.030108005
253	0xbc22d557	-0.0099385595
254	0x3ccd85bc	0.025088184
255	0xbce072ae	-0.027398434

b4 f4 [10]
0	0xbe847c1a	-0.25875932
1	0xbf2f0cf1	-0.6837912
2	0x3e6f452f	0.23366235
3	0x3e87529f	0.26430222
4	0x3f328cb9	0.69745976
5	0xbe90553e	-0.28190035
6	0x3f270d79	0.6525493
7	0xbee24d0f	-0.44199416
8	0x3e5aa548	0.21352112
9	0xbeca446c	-0.39505327

W3 f4 [128, 64, 3, 3]
0	0xbd612bd1	-0.054973427
1	0x3bd27281	0.0064223413
2	0x3d289bb2	0.041164108
3	0xbe19256a	-0.14955679
4	0xbd70f150	-0.058823884
5	0x3d534357	0.051577892
6	0xbda92a29	-0.082599945
7	0xbd6213e9	-0.05519477
8	0x3d4dc564	0.050237074
9	0xbda7eeea	-0.08199866
10	0x3cc14b8e	0.023595598
11	0x3c85e505	0.016344557
12	0xbcf5718e	-0.029961374
13	0xbd99b211	-0.075046666
14	0xbc8b95e5	-0.017039249
15	0xbd917e26	-0.07104139
16	0x3d83f213	0.06442656
17	0x3d1f1273	0.038835954
18	0xbd4a937c	-0.04945706
19	0x3d334768	0.04376927
20	0xbd465975	-0.048425157
21	0xbd9b9ca2	-0.07598235
22	0x3dc310f0	0.09524715
23	0x3ca145de	0.019686636
24	0x3df644fd	0.12024877
25	0xbc068039	-0.008209282
26	0xbd873777	-0.06602376
27	0x3bc82f00	0.0061091185
28	0xbd709fa7	-0.058746006
29	0xbd81c830	-0.06337011
30	0xbd698ae2	-0.057017215
31	0xbcfd0626	-0.03088672
32	0xbd04ced0	-0.032423794
33	0x3c4e2016	0.012580892
34	0xbd6400b6	-0.05566474
35	0xbd07c28d	-0.033144522
36	0xbde6ba2a	-0.11265977
37	0xbcc4854f	-0.023989348
38	0x3ceee821	0.029163422
39	0xbd6b16c4	-0.057394758
40	0x3d2143ab	0.039371174
41	0xbc8ac3b7	-0.016939027
42	0xbd82cb09	-0.06386382
43	0xbc1b9c75	-0.0094977515
44	0xbe122857	-0.14273201
45	0xbc90666e	-0.017626967
46	0xbdab2e3f	-0.0835843
47	0xbdbb2a9f	-0.09138989
48	0xbcf3683a	-0.029712785
49	0xbd95e550	-0.073191285
50	0xbcba2199	-0.022721099
51	0xbd2eb1e7	-0.04265013
52	0xbcc5c6f1	-0.024142714
53	0xbd017f0a	-0.031615295
54	0xbd49dbc6	-0.049281858
55	0xbd8d79e8	-0.069080174
56	0x3b816cec	0.003949752
57	0xbd27fdb5	-0.04101344
58	0xbda655f3	-0.08121862
59	0x3c650e87	0.013980514
60	0xbbc32719	-0.0059555885
61	0x3bb16710	0.0054138973
62	0xbdd2d998	-0.10295409
63	0xbc067319	-0.008206152
64	0xbe0631bb	-0.13104908
65	0xbd67a6b8	-0.05655548
66	0x3da02906	0.078203246
67	0xbd44e957	-0.048074093
68	0x3ba44da7	0.0050141397
69	0x3d82bd47	0.06383758
70	0x3d8da199	0.06915588
71	0xbe0fc2a3	-0.14039092
72	0xbdb5cf46	-0.08877425
73	0x3d57dfe7	0.052703764
74	0x3c4d058d	0.01251353
75	0xbd85de43	-0.06536534
76	0xbdf34c77	-0.11879819
77	0x3d309d91	0.043119017
78	0xbbb70397	-0.0055851447
79	0x3d25e026	0.040496968
80	0xbd7eeba2	-0.062236436
81	0x3cb6267a	0.022235144
82	0xbcc311f1	-0.023812266
83	0xbcd0df1c	-0.025497012
84	0xbdbacce6	-0.091211125
85	0x3b900efc	0.0043963175
86	0x3d015425	0.031574387
87	0x3d503e3c	0.0508406
88	0xbcffc098	-0.031219766
89	0x3d25616e	0.04037612
90	0x3da94535	0.08265153
91	0x3d8ca417	0.06867235
92	0xbad92ddf	-0.0016569457
93	0xbe2a1d4c	-0.16612738
94	0x3c4c3c38	0.012465529
95	0xbd19f92f	-0.037591156
96	0xbd43b6e1	-0.04778183
97	0xbca9228e	-0.02064636
98	0xbe12a5eb	-0.14321105
99	0xbded9f24	-0.11602619
100	0xbd322a84	-0.043497577
101	0xbd877485	-0.06614021
102	0xbd0eae84	-0.0348344
103	0xbdca035e	-0.098639235
104	0xbdbc9676	-0.09208386
105	0xbc100b0a	-0.008791694
106	0x3cbb4606	0.022860538
107	0xbd175c23	-0.036953103
108	0xbd29b4f6	-0.041432343
109	0x3a84e3f4	0.0010138736
110	0x3e22fee1	0.15917541
111	0x3cfe6109	0.03105213
112	0xbd1e4ebe	-0.038649313
113	0xbc4fb139	-0.0126765305
114	0xbd09971a	-0.033591367
115	0xbd357860	-0.04430425
116	0xbd9a7472	-0.075417414
117	0xbd5f801a	-0.054565527
118	0xbdae5950	-0.08513129
119	0xbd48b530	-0.04900092
120	0xbc359fa4	-0.011085425
121	0xbd52a660	-0.0514282
122	0x3c69ddfd	0.014274118
123	0x3b80e3cb	0.003933405
124	0x3cac43f1	0.02102849
125	0xbd3cc0fe	-0.04608249
126	0xba91b183	-0.0011115525
127	0xbe2a8ce2	-0.16655305
128	0x3a3831f9	0.00070264895
129	0x3dc8a15b	0.09796401
130	0xbdd99bcb	-0.10625418
131	0xbda4ec7c	-0.08052918
132	0x3c0ba146	0.008522337
133	0xbd0a159e	-0.033712022
134	0xbdbb977a	-0.09159751
135	0xbd53206a	-0.051544584
136	0x3c917504	0.017755993
137	0x3cbb09dd	0.022831852
138	0x3bcbcdd1	0.0062196036
139	0x3d7250e5	0.05915918
140	0x3cc80cbe	0.024420138
141	0xbc419613	-0.011815566
142	0xbc9b03cf	-0.018922715
143	0xbda619ba	-0.08110376
144	0xbd1c57b2	-0.03816957
145	0xbd7d8cbe	-0.0619018
146	0xbd62d545	-0.05537917
147	0x3dee87a1	0.11646963
148	0xbd0cfe15	-0.034422
149	0xbdcfb4fa	-0.101419404
150	0xba13fcad	-0.00056452566
151	0xbe0cc7ce	-0.13748094
152	0xbcb7de49	-0.022444861
153	0xbc96f82b	-0.018428883
154	0xbd099a41	-0.033594374
155	0xbb918ec6	-0.0044420687
156	0xbc645acc	-0.013937663
157	0xbdbd0994	-0.092303425
158	0xbd31a46e	-0.043369703
159	0x3d6a6359	0.05722365
160	0x3aaf704d	0.0013384909
161	0xbc835a95	-0.016034404
162	0xbd3bd860	-0.04586065
163	0xbd2cde8b	-0.04220442
164	0xbcfc4fa6	-0.030799698
165	0x3be8dee3	0.0071066483
166	0x3cb740a5	0.022369692
167	0x3d096fa2	0.033553727
168	0xbda71020	-0.081573725
169	0xbd63ac7d	-0.05558442
170	0xbcc34d53	-0.023840582
171	0xbd035658	-0.032064766
172	0xbdae1201	-0.08499528
173	0xbc3586f8	-0.011079542
174	0x3d176f28	0.03697124
175	0xbe0765eb	-0.13222472
176	0x3ca1359f	0.019678889
177	0x3d0a5a64	0.03377761
178	0x3d269835	0.0406725
179	0x3c9bc818	0.01901631
180	0xbce70f4d	-0.028205538
181	0x3d175b32	0.036952205
182	0xbdc35b4a	-0.095388964
183	0xbe072f12	-0.1320155
184	0x3e053c04	0.13011175
185	0x3cd5a358	0.026078865
186	0x3c43e6d8	0.011956893
187	0xbd0fc0c9	-0.035095964
188	0x3db25461	0.087075
189	0xbd583538	-0.05278513
190	0x3de771f0	0.11301029
191	0x3c2ed31c	0.01067045
192	0x3ddd1ba8	0.10796291
193	0xbdd07418	-0.10178393
194	0x3d0a132f	0.0337097
195	0xbdc1db01	-0.094656
196	0xbb7d061a	-0.0038608373
197	0xbc74b565	-0.014935826
198	0xbcc54a39	-0.024083244
199	0x3bee6fe3	0.0072765215
200	0xbdd325bd	-0.103099324
201	0xbdc0db2e	-0.09416805
202	0xbde26f40	-0.110563755
203	0x3db262de	0.08710264
204	0x3d3a6650	0.04550773
205	0xbceff608	-0.029292122
206	0x3bb21b45	0.0054353797
207	0xbc6db9a4	-0.014509592
208	0xbc6f191a	-0.014593387
209	0x3ce6ed1c	0.028189234
210	0x3a3a23fb	0.00071006984
211	0xbd3144c2	-0.043278463
212	0x3d3e980a	0.046531714
213	0x3d9fd704	0.07804683
214	0xbd1646ab	-0.036688488
215	0x3c98e278	0.018662676
216	0xbc348332	-0.0110176075
217	0x3ca6c506	0.02035762
218	0xbdf9f286	-0.12204461
219	0xbd890cda	-0.06691904
220	0xbd80663c	-0.062695
221	0xbdf6c932	-0.12050094
222	0x3cf6400a	0.030059833
223	0xbdb8adf6	-0.090175554
224	0xbd899d11	-0.06719411
225	0xbd83e17c	-0.06439492
226	0x3c5d3974	0.013502467
227	0x3e0e2eb3	0.13885002
228	0xbdff1188	-0.12454516
229	0xbd228019	-0.039672945
230	0x3d2741c0	0.04083419
231	0xbd1a553f	-0.037678953
232	0xbd8e6b3d	-0.06954048
233	0x3db480aa	0.08813603
234	0x3d62f5b4	0.055410102
235	0xbce80379	-0.028321968
236	0xbdaf96ba	-0.08573671
237	0x3c864215	0.016388932
238	0xbc9018c4	-0.017589934
239	0x3dcefe46	0.101070926
240	0xbbd162d5	-0.0063899555
241	0xbd3dc125	-0.046326775
242	0xbc447438	-0.011990599
243	0x3dcc4d41	0.099756725
244	0xbbcff3dd	-0.0063462094
245	0xbd8c435d	-0.06848786
246	0xbd7deab4	-0.06199141
247	0xbd18cfd3	-0.03730757
248	0xbdb1bcce	-0.0867859
249	0xbe0103ef	-0.12599157
250	0x3d6bb566	0.057546042
251	0x3d62fa21	0.055414323
252	0x3dd0111f	0.101595156
253	0xbcb86ffd	-0.022514338
254	0x3c93456d	0.01797744
255	0x3cf2cd82	0.02963901

b3 f4 [128]
0	0xbe526052	-0.20544556
1	0xbe03eb6f	-0.1288278
2	0xbeded4f0	-0.43521833
3	0xbdfa92fd	-0.12235067
4	0xbe24cfd1	-0.160949
5	0xbdcab2e5	-0.09897403
6	0xbdfccf88	-0.12344271
7	0xbe42f900	-0.19040298
8	0xbe4cc639	-0.19997491
9	0xbe4f61a0	-0.20252085
10	0xbe600b76	-0.21879372
11	0xbe27ce69	-0.16387333
12	0x3d5a597d	0.053308
13	0x3f21805a	0.63086474
14	0xbde15cf3	-0.11004057
15	0xbef1f923	-0.4726039
16	0xbe0a8cdc	-0.13530296
17	0x3e35d372	0.17756441
18	0xbdd17575	-0.10227481
19	0xbe572e2a	-0.21013704
20	0xbdd569d4	-0.10420576
21	0xbe3a611a	-0.18201104
22	0xbc21b06d	-0.009868723
23	0xbe3e5793	-0.18588094
24	0x3bb1fe31	0.0054319133
25	0xbe6dd9e4	-0.2322765
26	0xbdd8ea65	-0.10591582
27	0xbd74cb4a	-0.059764184
28	0x3e10f9ae	0.14157745
29	0x3d53ee10	0.051740706
30	0x3e922fa8	0.28551984
31	0xbe9499c5	-0.29023567
32	0x3db10e00	0.086452484
33	0x3d48d98a	0.049035586
34	0xbddf56a3	-0.109051965
35	0xbf0589a3	-0.5216314
36	0xbe7aa234	-0.24475938
37	0xbe1b5a1a	-0.1517109
38	0xbe350a1a	-0.17679635
39	0xbd865922	-0.065599695
40	0x3e4c0f40	0.19927692
41	0xbe82868a	-0.2549327
42	0xbd923946	-0.0713983
43	0xbd25e1aa	-0.040498413
44	0x3e423710	0.18966317
45	0xbe925e3b	-0.28587517
46	0xbea4eafd	-0.32210532
47	0xbe355e18	-0.17711675
48	0xbdcae84f	-0.099075906
49	0xbdee3e67	-0.11632996
50	0xbef32352	-0.47487885
51	0x3c5d6538	0.013512902
52	0xbde279ed	-0.11058412
53	0xbd8be75a	-0.06831236
54	0x3dc90b08	0.09816557
55	0xbdfb9064	-0.122834
56	0xbd0fa487	-0.035069015
57	0xbea5584f	-0.32293937
58	0xbeb2b950	-0.34907007
59	0xbe5cf144	-0.2157641
60	0xbe98ad84	-0.29819882
61	0xbe77d2c4	-0.24201494
62	0xbddaea71	-0.106892474
63	0x3d3ebb63	0.046565425
64	0xbd35ea26	-0.044412754
65	0x3c6886e1	0.014192314
66	0xbc7ba8f8	-0.0153601095
67	0xbd8184ff	-0.06324195
68	0xbd8d094f	-0.06886541
69	0xbe24e684	-0.1610356
70	0xbe07758e	-0.13228437
71	0x3c962fa5	0.018333266
72	0xbe865c8f	-0.26242492
73	0x3eef18a4	0.46698487
74	0x3d48f481	0.049061302
75	0xbc5682a8	-0.013092674
76	0xbe59c79f	-0.21267556
77	0xbec5ecea	-0.38657314
78	0xbe5587d1	-0.20852591
79	0x3e3103ba	0.17286578
80	0xbe0ae3c3	-0.13563447
81	0xbea39ba3	-0.3195468
82	0xbde6a014	-0.11261001
83	0x3c9ccce7	0.019140674
84	0xbe5013cd	-0.20320053
85	0xbe1b4dd9	-0.15166415
86	0xbe48a746	-0.1959506
87	0xbde4b591	-0.111674435
88	0xbd107a08	-0.035272628
89	0xbde28171	-0.11059845
90	0xbeb0086e	-0.3438143
91	0xbd40ed07	-0.047101047
92	0xbe2de34c	-0.16981238
93	0xbe5bd65f	-0.21468495
94	0xbe4d94ae	-0.20076248
95	0xbe20405e	-0.15649554
96	0xbe2d8c19	-0.16947974
97	0xbe53f17d	-0.20697589
98	0xbe8dcb25	-0.2769405
99	0x3f978db1	1.1840116
100	0xbe69d4f0	-0.22835135
101	0xbde755de	-0.11295675
102	0xbc7a829b	-0.015289928
103	0xbe54042f	-0.20704721
104	0x3e1c0e24	0.15239769
105	0xbde7a1de	-0.113101706
106	0xbe721200	-0.23639679
107	0xbdc0fa94	-0.09422794
108	0xbe7a93e8	-0.24470484
109	0xbe3c3fb0	-0.1838367
110	0xbe91e730	-0.28496695
111	0xbdc19c79	-0.09453673
112	0xbe071c5e	-0.13194415
113	0xbe371ca2	-0.17882016
114	0xbcf89d14	-0.030348338
115	0xbe74b6ef	-0.23897909
116	0x3e52febf	0.2060499
117	0x3ed64eac	0.41856897
118	0xbda1e0a3	-0.07904174
119	0x3d675a3c	0.05648254
120	0xbea9c471	-0.33157685
121	0xbe66f769	-0.22555317
122	0xbea34b72	-0.31893498
123	0xbe2e909b	-0.1704735
124	0xbdf7f989	-0.12108142
125	0xbe0fdbf8	-0.14048755
126	0xbcda5e53	-0.026656305
127	0xbe446019	-0.19177283
