A3/one_minute_deepconvnet.pth (torch, 703653 bytes, 8 tensors)

W1 f4 [32, 3, 3, 3]
00000000: 9370 72bd fac7 59bf 2a69 073e b56b 98bd
00000010: 9c69 0cbf bf4b 42be af74 8d3e 97cc a2be
00000020: 7a02 e2be d3d6 a33e 0bc2 3fbd 0105 c73d
00000030: 79b6 873d 6af1 ebbe 0ca4 96be 0638 d73e
00000040: 7b05 e3bd 4c17 3e3e 03c1 17be 52cf 39be
00000050: 189d 1ebe 51cd 02bd 2953 213e aee1 313e
00000060: 5615 163f 182d 433f f0e4 133f c862 07bf
00000070: b403 933e 41d9 2a3e 3d98 1ebe 8ed6 05bf
00000080: 56c7 333e 34e2 cdbe e681 013d 15ca 343e
00000090: 5b54 6d3e 1404 0fbe 3896 3bbe 9c35 2d3b
000000a0: 6753 b3be 0ca1 a53e 7088 ecbe 05e4 263e
000000b0: 32e0 c33e c788 803d 87e0 3cbe 7629 f53e
000000c0: 824e 19bc 6c84 86be 2b6a f73e ada0 c4bc
000000d0: 9794 2cbd 7234 de3e a437 ecbe efef 353f
000000e0: df54 4bbd 5841 91bd 8ec9 8bbe 6ebc 00bf
000000f0: af99 8e3d eb7d 713d 7717 cebd 4396 a6be
00000100: 9604 d43d b946 133f 9de7 d8be 61de 123d
00000110: f3dc cdbd d9fc 173f 5f50 c9be 7747 853d
00000120: a213 41be be7f 27bc f6a3 503e 8a0a 933d
00000130: 2650 8cbe e442 743e c399 e23d 32ee c83e
00000140: fc85 893d 8c5b 233e f6f3 c93e 3d48 15be
00000150: 9063 a53d 7d4d 90bc 41b6 0fbc 8af5 7e3e
00000160: abfb b53e d622 97be 095d 39be f54e c43d
00000170: 1625 8d3e 51b7 3cbf 894f 28bf f325 e83d
00000180: 2f3c 02bf 40a1 893d 35e4 68bd 20ff 09bf
00000190: 09a4 1e3f eb8e f23d b72c 0abf 0a24 003f
000001a0: 546d 323f ed58 60bf 7596 29be ae29 463f
000001b0: b32d 883e 2b57 98be d6e2 a13b 04b7 cf3e
000001c0: 36f5 e13d 7499 dd3a 9a1e 163f ccb3 15bd
000001d0: 942a 213d c8bf 9a3e d022 b13d ed8e 51be
000001e0: bce4 19be 55bb a3be 9f3b 0abe 0faa 513e
000001f0: b1b9 513e 5816 fd3e 2aef 25be 83c1 5fbc
00000200: 7781 e83d 4976 0e3e 4095 80bd faa7 acbe
00000210: 475e 0fbe 4575 9d3e e305 8f3d 244a 613e
00000220: 023e a2be c5e7 afbd 66c5 403f ea15 d23c
00000230: 1ad6 0dbd d94f 8fbd b24f 79be 1435 123e
00000240: 55ef 103e 2e0b d03d 92c1 083e d5fd 0e3e
00000250: 8cdc f03d cd25 0e3c 243d aabe 817c 1ebf
00000260: a0ff b73d 0f4e b73d 1a8e aebe fb53 b23e
00000270: d0dd 7bbe dd36 9c3d b6b6 253e b780 20be
00000280: 044a 14be 7567 113e 9207 8e3d fc28 f73e
00000290: 8465 a0be e2d7 123f d03d d53e f7d6 afbe
000002a0: 579d 75be def9 e33c 40ab a9be 8207 a23e
000002b0: 74f0 eb3e c160 d4be 70b0 753d e8c6 d03c
000002c0: 8e2c 99bd 6b08 86bd 1383 a6bd 9c84 4dbe
000002d0: 32ac d1be 29e4 f13d 106b 713d b240 f2bc
000002e0: c9fc 77bc fc5e 173d 24f3 493e 0ab2 77bd
000002f0: e3a8 48be 57e3 723e 1ed4 113f 4ca1 acbd
00000300: 8dff e93e 297e a3bd 4025 bfbb 8822 a03d
00000310: fe4f cd3e 4524 5fbd 2391 933e 69bc 99be
00000320: 2826 aebc 468d a43a db5b 87bc d8eb 753d
00000330: 99ac 27be 311d af3e 9838 103f 3ed0 893e
00000340: df9b 4cbe 13a7 f8be ce63 49bf 7f36 d93c
00000350: 29d5 283e 8a99 47bf 8bde 21be e159 f73d
00000360: f5f6 853e 9363 96be 0b18 3dbd f210 363f
00000370: 0bd7 583e b195 c93b 31f5 14be 5e6e 12bf
00000380: 37aa a3be 4b8d 2d3f 1e10 10bd 627f acbe
00000390: 56c7 003f 74e1 babe 467c 4dbe 699b 26be
000003a0: 2d22 2dbf 9876 a5bd 29ae 033f 3c28 803e
000003b0: 1ee4 9e3e 2627 e73e 4378 a9be 7bda abbe
000003c0: f2dc 58be 7518 bebe 175a ae3d 6c5e 853e
000003d0: 1db2 e93e 582c 7f3d 7702 d0be a8eb 8dbf
000003e0: d2fd 033f 6d03 673e 9761 46be da17 84be
000003f0: 72e5 1c3e d9ad 293e 4ee5 be3e 133b 1ebd
-0.05918939 -0.85070765 0.1322371 -0.074424185 -0.5484865 -0.18974207 0.27628085 -0.31796715
-0.44142514 0.31999835 -0.046815913 0.09717751 0.06626601 -0.46082622 -0.29422033 0.4203493
-0.1108503 0.18563575 -0.14819722 -0.18145493 -0.15489614 -0.031934086 0.1575438 0.17371246
0.58626306 0.7624068 0.57771206 -0.52885103 0.28713763 0.16684438 -0.15487762 -0.5228051
0.1755651 -0.40211642 0.03161802 0.17655213 0.2317671 -0.139664 -0.18319023 0.0026429659
-0.35024568 0.32349432 -0.46197844 0.1629792 0.38256985 0.06276088 -0.18445025 0.47883195
-0.009357097 -0.26272905 0.48323187 -0.024002397 -0.042133894 0.43399388 -0.461362 0.71069235
-0.049641486 -0.070925415 -0.27302212 -0.5028752 0.069629066 0.058957975 -0.10063069 -0.32536516
0.10352437 0.5752979 -0.42364207 0.03585661 -0.10051908 0.5937019 -0.3931913 0.065077715
-0.18855146 -0.010223327 0.20375046 0.071797445 -0.27404898 0.23853642 0.11064484 0.3924423
0.067150086 0.15952891 0.3944394 -0.14578338 0.08075631 -0.017615074 -0.00877148 0.24898353
0.3554357 -0.29518765 -0.18101896 0.09585372 0.27567357 -0.7371722 -0.6574636 0.11335363
-0.5087308 0.06720209 -0.05685826 -0.53904915 0.6196905 0.11843666 -0.5397448 0.5005499
0.6969807 -0.8763569 -0.16561301 0.7740735 0.26597366 -0.29754004 0.004940371 0.40569317
0.110330984 0.0016906695 0.58640444 -0.03654842 0.039347246 0.30224442 0.08649218 -0.20464678
-0.15028661 -0.3197886 -0.13499306 0.20475028 0.20480992 0.4943111 -0.16204515 -0.013656977
0.113528185 0.1391231 -0.06278467 -0.33721906 -0.14000808 0.30753532 0.06983545 0.22000939
-0.31687933 -0.085891284 0.75301206 0.025645215 -0.03462801 -0.069976516 -0.24346808 0.1427806
0.14153798 0.10158382 0.13355091 0.13964017 0.11760816 0.008676005 -0.33249772 -0.6190873
0.089843035 0.08950435 -0.3409279 0.34829697 -0.24596334 0.07627652 0.1618298 -0.15674101
-0.1448136 0.14199622 0.06935038 0.48273456 -0.3132745 0.5736066 0.41648722 -0.34343693
-0.23985802 0.027829107 -0.33138466 0.31646353 0.4608189 -0.41480067 0.059982717 0.02548547
-0.07479201 -0.06544574 -0.08130469 -0.20070118 -0.40951687 0.11811096 0.058939993 -0.029571865
-0.015135952 0.03695582 0.19721657 -0.060472526 -0.19595675 0.23719536 0.5696429 -0.084292024
0.45702782 -0.079830475 -0.005833298 0.07819086 0.40100092 -0.05447795 0.28821668 -0.30026558
-0.021258429 0.001255431 -0.016523292 0.06003937 -0.16374435 0.3420196 0.56336355 0.2691669
-0.19981335 -0.48564968 -0.78667915 0.026515244 0.16487564 -0.77968657 -0.1580755 0.1207769
0.26164976 -0.29372844 -0.046165507 0.71119606 0.21175782 0.006151878 -0.14546658 -0.57199657
-0.319658 0.6779372 -0.03517162 -0.33690935 0.5030416 -0.36500132 -0.20066938 -0.16270222
-0.67630273 -0.080792606 0.5143762 0.25030696 0.31033415 0.45147055 -0.33099565 -0.33565125
-0.21178034 -0.37128034 0.08513277 0.260486 0.45643702 0.06229815 -0.4062688 -1.1087542
0.51559174 0.225599 -0.19373165 -0.25799447 0.15321901 0.16570224 0.3728432 -0.038630556

b1 f4 [32]
00000000: 7fdf a03e 58f9 163e 161a 333e a4e5 1f3e
00000010: 8744 9a3d 4615 2d3d f26a ab3d d2f1 a33e
00000020: 5c5d 4c3e 575b 833e 6a39 ff3d 67c9 e73c
00000030: 5d2f 05bd 7d8a 143e 2b13 4a3e 0e92 933e
00000040: c339 bf3d 2f4d 9d3e 10d4 c53d 1e44 babd
00000050: 627e b63c 9520 853e cbd4 d63d c31a 56bd
00000060: e129 0ebe ee1e 5b3e 8aa6 7a3d 54d0 9e3e
00000070: 670a 293e 82ad 543e 4948 143d 8920 b93c
0.31420514 0.14743555 0.1749042 0.15614945 0.07532602 0.042256616 0.083700076 0.32020432
0.19957489 0.25655624 0.12462123 0.028294278 -0.032515872 0.14505954 0.19733874 0.28822368
0.09337189 0.3072295 0.09659588 -0.090950236 0.02227706 0.2600142 0.10489806 -0.052271616
-0.13883163 0.21398517 0.06119398 0.31018317 0.16507874 0.20769313 0.03620175 0.022598522

W2 f4 [64, 32, 3, 3]
00000000: cc24 803d ba83 9dbd 4276 af3d ff7d 4dbd
00000010: dda8 34be e7e6 80be e658 453d 81dc 8abd
00000020: e699 343e 0c2f 72bd 4830 2ebd af60 f4bc
00000030: 64b8 f23d 02a1 333d 0d64 003d 029c ab3d
00000040: ba15 a73d d078 493d 4a56 8c3d 57c0 01be
00000050: 3f26 e03c 6069 8dbd af5e bf3d deec adbc
00000060: c274 143e 2873 2b3c ac3c 933d a632 eb3c
00000070: e9da 03bd cc97 3bbc e4ec c4bc c8df 58be
00000080: 9db9 8ebd d626 60bd 0b54 07bd 0cf5 13bd
00000090: 2873 6d3e cd15 e13d 12aa 813d 62a7 e3bd
000000a0: 7341 5a3c b8c3 d2bc 3f24 a23c 361f d8bd
000000b0: c1fa f2bd 3f23 4d3d 7b36 edbd 2edb 903c
000000c0: fc99 893d 5ca5 33bd 1785 12be 57f2 883d
000000d0: 1507 8f3d d158 0c3e c2bc f8bd 8f72 263e
000000e0: e172 10bd b104 f73d 462e 383c 566a 6e3c
000000f0: dfc5 84bd 135f d8bc c8b5 383c 7651 bfbc
00000100: 3828 9e3d f96a 8bbd 2ebf fbb8 b7c0 8ebd
00000110: a624 063c 1231 313c ab4f 7cbd 9b98 d83d
00000120: 3ccd 3dbd b4cc 6fbd a4e7 b83c 82a4 0abd
00000130: 34dd 89bd 549f b83c ad10 203e 2770 9bbd
00000140: 4bf6 9cbd 0d1c df3d b6e9 4abe f325 44bc
00000150: 501e 83bd e7b4 8ebe faff 1b3e 46f3 893c
00000160: 8864 0a3e c209 e13d 9653 32bc 9d9f 403b
00000170: 204f a53d 6375 fabc a318 3bbe e8f3 5abd
00000180: be21 df3c 54af 12bd 595f c83d 7809 7abc
00000190: 2605 923e b825 ecbc 83f7 f6bc 6700 9bbd
000001a0: 0cab 01bd a4c5 52bd 8ffb 9a3b ac57 15be
000001b0: c8af 7dbd 4011 36bd b1ac 3bbd 9972 4cbd
000001c0: 94b0 14bd 65ee 043e c603 5ebd 7a9c be3b
000001d0: a13a f23d 181f e7bd b711 393d 7eaf 713e
000001e0: 002f c33b 5e26 d73c a1b8 1c3e 3805 773c
000001f0: 3619 01be ea24 bebd 9241 fdbc ff59 6a3c
00000200: efec 03be 2608 70be a7da db3d b339 a83d
00000210: eb5c 06bd 6972 c4bc 3599 32bd 7f19 8f3d
00000220: 5141 78bd d860 3e3e acdd a4bc 3622 113e
00000230: c6c0 6d3d 2aca 083e ebf3 c7bc b4a4 743d
00000240: d59d 073e 8b57 dcbb 03e4 b73d 6c3c 033d
00000250: 893a 73bd 3f1b e0bd 90f6 3fbd db72 66bb
00000260: ade8 c6bd 1273 943d 04d9 e4bd 9285 e93d
00000270: c616 81bd c767 2bbc 7ed4 febd 83e5 4fbd
00000280: d28b 053e d2dd 683d bb81 76bc dd15 d53d
00000290: 8bfd 643b af2d a43e c1d9 36be 8b8b 043d
000002a0: d1fc e6ba df70 8e3c f557 443c d718 66bd
000002b0: 39d3 803d 75c1 c53d 9828 78bd fa5b 293e
000002c0: 1ca8 bb3d 128c 923d b8d0 9bbd 4bc5 923d
000002d0: 1966 2d3e 9559 e2bc fbc3 913c 8bbb 01bd
000002e0: 5fda 72bd 8f98 33bb bb81 843c ea01 a3bd
000002f0: 42a3 cdbc 50ce 443c 1437 503d eb8e 3f3d
00000300: cdc4 d0bc af0b 11be 4a8f febc b30d feba
00000310: 2b6a c7bd 2c23 0ebd 3699 163d e5d1 9fbd
00000320: 57bf 143e 1979 9dbc e45d e83d 733b 043e
00000330: 956c 483c f75a b7bc 18f7 81bd 14d6 07be
00000340: 59d0 7b3c 57d6 a0bd e273 713d 19ec b7bd
00000350: 9fa3 a63d 8bca 383a 30a8 913d c8f8 6d3d
00000360: 3143 2c3d 41a9 a63d 191a c63d cb18 2e3c
00000370: a634 fe3a cc8d 01bb 6845 ad3c fbd3 0abe
00000380: 4f6d 45be 0a32 5b3d 922b 183d 26e8 513c
00000390: 6dfc 1abd 05d9 cebc be9a 38be d773 76bd
000003a0: c7e2 afbd e632 693d 6962 813c af7c 143d
000003b0: 2146 10be c55f a93d 7650 393d 5131 fcbb
000003c0: 2520 f83c e075 823d 50b7 0abc d9bf f2bc
000003d0: 8d20 bd3d c2b0 083d fe3b 403d d90a e33d
000003e0: c7af 0dbd bf26 113d 09e1 823d 715e 6cbd
000003f0: f4f9 e13d eb3b 01be 18b7 613d f460 25be
0.062570184 -0.076911405 0.08567478 -0.050168987 -0.17642541 -0.25176165 0.048180483 -0.06780339
0.17636833 -0.0591269 -0.042526513 -0.029831259 0.11851576 0.04385472 0.031345416 0.083793655
0.08158441 0.04918748 0.06852396 -0.12671028 0.027361987 -0.06904864 0.09344231 -0.021231111
0.14497665 0.010464467 0.071893066 0.028710674 -0.03219119 -0.011449765 -0.02403874 -0.21179116
-0.06968997 -0.054724537 -0.033039134 -0.036122367 0.2318846 0.10990486 0.063312665 -0.1111591
0.013321268 -0.025728092 0.019792674 -0.10552828 -0.11864234 0.05008244 -0.11582657 0.017682638
0.06718823 -0.04385887 -0.14308582 0.06686848 0.06983773 0.13705756 -0.12145378 0.16254638
-0.035265807 0.12061442 0.011241501 0.01455172 -0.064830534 -0.026412522 0.011273809 -0.023354273
0.07722515 -0.06807513 -0.00012004223 -0.06970351 0.008187449 0.010814922 -0.061599415 0.10575982
-0.046338305 -0.05854483 0.022571392 -0.033848293 -0.06731644 0.022536911 0.15631361 -0.07589751
-0.07664164 0.10894022 -0.19815716 -0.011971938 -0.06402266 -0.27872393 0.15234366 0.016839635
0.13514912 0.10988189 -0.010884186 0.0029392012 0.080717325 -0.030573552 -0.18271117 -0.053455263
0.02723777 -0.035811737 0.09783811 -0.015261047 0.28519553 -0.02882658 -0.03014732 -0.07568436
-0.031657264 -0.051458016 0.004729695 -0.14584225 -0.061935216 -0.044450045 -0.04581899 -0.049913976
-0.03630121 0.12981565 -0.054202817 0.0058169933 0.11827589 -0.112852275 0.04518291 0.23602101
0.0059565306 0.026263412 0.15304805 0.015076928 -0.12607273 -0.092843845 -0.030915055 0.014303683
-0.12883352 -0.23440608 0.10735064 0.0821413 -0.032803457 -0.023980336 -0.04360314 0.06987285
-0.060609166 0.1859163 -0.020125233 0.14173207 0.05804517 0.1335837 -0.024408301 0.059727386
0.13243802 -0.006724303 0.08979037 0.032040045 -0.059381995 -0.10942697 -0.046866 -0.0035163674
-0.09712348 0.072485104 -0.11174205 0.1140243 -0.06303172 -0.010461754 -0.124428734 -0.05075599
0.13041618 0.05685217 -0.015045579 0.10404561 0.0034941162 0.32066104 -0.17856504 0.03235964
-0.0017622953 0.017387806 0.011983861 -0.056176033 0.062902875 0.096560396 -0.06058559 0.16538993
0.09162924 0.071556225 -0.07608169 0.07166537 0.16933478 -0.027630607 0.017793646 -0.031672996
-0.059290286 -0.0027404164 0.016175142 -0.079593495 -0.025102261 0.012012079 0.050833777 0.046767157
-0.025484467 -0.14164613 -0.031074185 -0.0019382745 -0.09737047 -0.03470151 0.036767207 -0.07803706
0.14526115 -0.019222783 0.11346033 0.12913303 0.012232919 -0.022382243 -0.063459575 -0.13265258
0.015369498 -0.07853382 0.058948405 -0.08980579 0.08136677 0.0007049224 0.07112157 0.058098584
0.042056266 0.08137751 0.096729465 0.010626028 0.0019394353 -0.0019768355 0.02115126 -0.13557427
-0.19279979 0.053514518 0.037150927 0.012811696 -0.03783839 -0.025249967 -0.1802778 -0.060169067
-0.08588176 0.056933306 0.015793996 0.03625172 -0.14089252 0.0827022 0.04524275 -0.0076963087
0.030288765 0.06370139 -0.008466557 -0.029632496 0.09234724 0.033371694 0.046932213 0.110860534
-0.034591462 0.03543734 0.06390578 -0.057707254 0.11034003 -0.12620513 0.055106252 -0.16150266

b2 f4 [64]
00000000: c001 01be 12fc 1a3b 9605 4b3c bcc5 b33d
00000010: 1905 4dbd 4f08 d8bd 038b 2cbd 07e4 a6be
00000020: 54d3 593e 3183 85bd 6d80 76bb 7651 103d
00000030: f57a 893d 0084 61be 6c2c 373d 236e 80bd
00000040: c4f2 22bd eab4 4e3d 17d8 a43e c5d4 b6bd
00000050: 8f8b 7ebd ef10 b73d 7548 bbbc c2cd 5e3c
00000060: 90bf e1bc 9c53 8c3e 1ea5 7dbd e48c 85be
00000070: e7d6 a4be 1486 0f3d e8ec 423d 54de d0bd
00000080: dd7d ff3c 3a55 e83d d3fd 8f3e 6198 11bd
00000090: ecec babd 0dd0 b7bd 74c1 1bbe 3016 53bd
000000a0: b58f bcbd 2e8b bbb9 d8fc d8bd 7190 27bc
000000b0: 8b9d 32be 9cf7 1c3d 1b61 ddbd d90f 7fbe
000000c0: 70a1 84bd 1910 cd3c 6463 553d 8305 a4bc
000000d0: 6f93 82bd 7806 fb3d 4fb0 adbd c294 7dbe
000000e0: 2727 2abc d5b8 0a3e c2ba d63d 63c7 acbc
000000f0: 9c7f 263d 1efe 033e ba70 c8bc fc36 883d
-0.12598324 0.002364878 0.0123914685 0.08777949 -0.05005369 -0.1054846 -0.04212476 -0.32595846
0.21272022 -0.065191634 -0.0037613169 0.035233937 0.06712905 -0.2202301 0.0447201 -0.06271007
-0.0397823 0.0504655 0.32196113 -0.08927301 -0.062144812 0.08938777 -0.022861699 0.013598861
-0.027557164 0.2740754 -0.061925046 -0.26084054 -0.32195207 0.035039976 0.047589213 -0.10198656
0.031187946 0.11344381 0.2812334 -0.03554571 -0.091272205 -0.089752294 -0.15210515 -0.05153483
-0.092070974 -0.00035771116 -0.10595101 -0.010227309 -0.1744291 0.038322076 -0.10809537 -0.24908389
-0.06476104 0.02503209 0.05209674 -0.02002216 -0.06375777 0.12257093 -0.08480894 -0.24763778
-0.010385311 0.1354707 0.1048484 -0.021091169 0.04064904 0.12889907 -0.024467815 0.066511124

W4 f4 [8192, 10]
00000000: b406 803c 7941 e2bb a043 3cbd e8ed b33c
00000010: 0806 dcbb d7f4 e13c 7b63 d83c 3319 d43c
00000020: fa23 aebc 5edf 61bb 8db2 6f3c 8c3e 82bc
00000030: b00e 4ebd 6fdd 69bc f304 ee3b c033 803d
00000040: 0e8f 783c ad28 71bc f3df 013c 5222 5b3b
00000050: af27 3e3d 8f72 bcbb c3e9 88bc 19ec a0bb
00000060: 31c8 65bc 6ff5 593c a37f c7bb eac4 0b3d
00000070: 23a2 f0bc d2e4 003d c173 dd3c 0dfa 3abc
00000080: 32db 8fbd 154c 623d 8ae7 b2bc a80f 00bd
00000090: 2711 c23b 8098 9d3d e814 393c 531b b3bc
000000a0: 88b8 ddba 6779 093d aa9d 5cbc 6d1e 353a
000000b0: 9560 d2bc 35d0 22bd ee4a 153b 390d 063d
000000c0: d8be 3a3a 2fca 23bc a420 303c 3bbd 353d
000000d0: 0b74 cdbb 4050 6bbc d6ad 20bc b781 f8bc
000000e0: 78c7 463b 3413 173d 5750 c4bc 2693 7abc
000000f0: fb5e 5b3d 754a fa3c cb11 98bc 5fa4 233c
00000100: da8c 003d afb0 66bc e06f 1abd d90f 383d
00000110: 7fc4 9bbc dd48 0c3c 16e3 6d3b 10fd d93c
00000120: afe6 a2bc 695a dc3b 2d67 6bbc ee11 193c
00000130: da96 ec3b 93ce 153c 55e6 fb3c cecd 03bc
00000140: 7636 f2bc 0fe9 eebc f602 a83c 6ecb 1ebc
00000150: 1a5e f83b 053c 883d 5b06 723c a41d aa3b
00000160: cfd2 b7bc 499a 9ebc 5d95 583c 6b03 aebb
00000170: 4f65 12bc 27ef 153d f5d6 21bd 27df 30bd
00000180: 4bb1 243c 1744 7d3c 67e7 e73b 4b4c 01bc
00000190: ba5a 453c 7c35 adbc 9553 78bd 2619 2ebd
000001a0: e215 403c 423c 863c e00a 183d 20bd 293b
000001b0: dc2a f63c 5399 053c fde0 873c 79b7 133c
000001c0: ac7f 063b 0fee 08bd 3a32 d33b 37a9 0abd
000001d0: 476a d2bc 3f36 523c dc96 883c 8888 6fbc
000001e0: 63f1 bc3c 6229 ebbc f86d db3c d9cf 1b3d
000001f0: 14ea db3b e6d0 94bd f607 24bc 520c b53c
00000200: 14c2 093c feca dd3b 4522 263d 6fd1 72bc
00000210: fd43 083d 23ca cabb 19a0 a03a 892e 62bd
00000220: 9f17 a33c 8c28 b93c 00ec b63b 8d9e c93b
00000230: c54c f23c d240 44bc 1771 d53c 8694 023d
00000240: 4f54 0e3d 407e 7fbc f8ea 6bbd 6d6b 313c
00000250: 7315 12bd 7166 e7bc 5e49 553d e022 dbbc
00000260: fb74 a7bc 3d7f 1e3d 5a4d 16bd dfb2 833c
00000270: a15b 9bb9 eaca 0e3c 4e30 d9bc 774a cdbb
00000280: c6cc 74bd 1f73 5bbd 321a a9bb e900 65bc
00000290: d945 8d3d dd74 5b3d 7737 3b3d 5a73 a4bc
000002a0: 2e57 3fbd e102 aa3c e1ba 913c f94d 8e3c
000002b0: 2ceb f8bb d901 0f3d 4bbc 17bd 865e c0bc
000002c0: 6c8b 9bbd d9b7 303d 7e88 333c 6f03 bf3c
000002d0: c3d0 a2bc 2e10 1d3d 4130 293b f259 163c
000002e0: 1204 9aba 8bd4 45bd e78e 42bc b30c 47bc
000002f0: 6f19 5f3d c601 9fbc 87e5 e6bc d9bb 733d
00000300: 04c9 7e3c fc18 58bd a9b4 ef3c da9c 41bc
00000310: 74e1 21bc ba5d edbc ce6b 123d c79c 933b
00000320: ef71 60bd 120c 853a 4236 373d 9b9d c1bc
00000330: 8388 c5bc 2d56 aebd 561a 333c 2bf6 67bd
00000340: 149c 383d a790 a83d 5c66 a13c 9796 3dbc
00000350: 8d9b f93c 70d6 00bd 9169 8dbc e32d 09bb
00000360: 6dd9 873b 7e35 2a3c 6206 37bc 0002 f73c
00000370: 5a0c 983d 16cd 06bd d9ad 193d fbf9 293c
00000380: 4491 523c 33f0 14bd 9f28 e8bb dd50 95bc
00000390: 252a 033c f463 80bb 81d3 7d3c 66cf 03bd
000003a0: 8e38 48bc df94 f13b bca8 343c 2d01 ee3c
000003b0: c94e 25bc e3a0 20bd f0bd fdbb 32d2 1d3c
000003c0: d828 1bbc 7125 813c 6983 9fbc a0e0 de3c
000003d0: 6d85 573d 7d33 9dbc de31 803d 19ea 15bd
000003e0: 64ed 98bd 7625 6d3c bb52 60bc 245e 1f3d
000003f0: c1d0 6f3c da36 313c 5b73 08bd 5d46 24bd
0.015628196 -0.0069047776 -0.04596293 0.021964028 -0.006714586 0.027582569 0.026414623 0.025890922
-0.02125739 -0.0034465413 0.014629972 -0.015898965 -0.050306976 -0.014273985 0.0072637736 0.062598705
0.015170826 -0.0147191705 0.007926929 0.0033437205 0.046424564 -0.005750961 -0.016713029 -0.0049109575
-0.01402478 0.013303145 -0.0060882135 0.03412334 -0.029374188 0.03146822 0.027032735 -0.011412156
-0.0702423 0.05524834 -0.021838922 -0.03126493 0.005922455 0.07695103 0.011296488 -0.021863615
-0.0016915957 0.033563044 -0.013465324 0.0006909136 -0.02568082 -0.039749343 0.0022780257 0.032727454
0.0007123775 -0.009996935 0.01074997 0.044369917 -0.006269937 -0.014362395 -0.009807071 -0.03033529
0.0030331295 0.036883548 -0.02396409 -0.015293872 0.053557377 0.030553082 -0.018563172 0.00998792
0.031384327 -0.014080211 -0.03770435 0.04493699 -0.019014595 0.008562294 0.0036298684 0.026609927
-0.01988539 0.006724645 -0.014367861 0.009342654 0.0072201313 0.009143489 0.03074948 -0.008044673
-0.029566985 -0.029163865 0.020509224 -0.009692056 0.007579577 0.06652073 0.014772023 0.0051915217
-0.022439389 -0.019360678 0.013219205 -0.005310466 -0.008935287 0.036605027 -0.03951164 -0.043181565
0.010052036 0.015458128 0.007077146 -0.007891725 0.012045557 -0.021143667 -0.060626585 -0.042504452
0.011723967 0.016386155 0.037119746 0.002590008 0.030049734 0.008154231 0.016586775 0.009015911
0.0020522876 -0.033430155 0.0064451965 -0.033852782 -0.025685443 0.012830316 0.016673498 -0.014619954
0.02306432 -0.028706256 0.026785836 0.038040016 0.006711254 -0.07266407 -0.010011664 0.022100601
0.008408088 0.0067685833 0.040560026 -0.014820441 0.033267964 -0.0061886474 0.0012254744 -0.05522016
0.019908724 0.022602342 0.0055823326 0.006152934 0.029577622 -0.011978345 0.026054902 0.031879924
0.03474837 -0.015594065 -0.05759713 0.010828835 -0.035664987 -0.02824709 0.05207192 -0.026750028
-0.020441523 0.038695563 -0.036694862 0.016076503 -0.00029632173 0.008715371 -0.026512291 -0.0062649804
-0.0597656 -0.053576585 -0.0051605934 -0.013977268 0.06898088 0.053578246 0.045707192 -0.020074535
-0.046714 0.020753326 0.017789306 0.017371165 -0.007596394 0.03491387 -0.037044805 -0.023482572
-0.07594952 0.04314408 0.010957835 0.023317067 -0.019874936 0.03834551 0.0025816115 0.009176718
-0.0011750481 -0.0482984 -0.011874891 -0.012149024 0.054467615 -0.019410025 -0.028185619 0.059505317
0.015550856 -0.052758202 0.02926095 -0.0118171815 -0.009880412 -0.028975356 0.03574734 0.0045047733
-0.054796156 0.0010150692 0.04472948 -0.023634722 -0.024112945 -0.085125305 0.010931572 -0.05663125
0.045070723 0.08230715 0.019702129 -0.011571548 0.03046968 -0.031454504 -0.017262252 -0.0020931892
0.004145792 0.01038873 -0.011170955 0.03015232 0.07424231 -0.03291043 0.03751931 0.010374541
0.012852017 -0.036361884 -0.0070849205 -0.018227035 0.0080056535 -0.0039181653 0.015492321 -0.032180212
-0.012220515 0.007372483 0.011026558 0.029053295 -0.010089585 -0.039215934 -0.0077435896 0.009632634
-0.009470187 0.015764924 -0.019471841 0.027206719 0.05261748 -0.01918959 0.062595114 -0.036600206
-0.07467154 0.014474263 -0.0136915995 0.03890814 0.014637173 0.0108163 -0.033313137 -0.040106166

b4 f4 [10]
00000000: 1a0f 0dbd 8dab 59be 1ef3 993d 9d76 af3d
00000010: ec82 583e 5f06 10bd 05b4 2e3d 4d9d 02be
00000020: 3e57 133e bead 18be
-0.03443823 -0.21256848 0.07517074 0.085675456 0.21143693 -0.035162326 0.04265215 -0.12755318
0.14388749 -0.14910027

W3 f4 [128, 64, 3, 3]
00000000: 66fe 41bd ae32 823c 4ce9 a93d 4022 413d
00000010: 43da 6d3d 6ba7 b93d 0040 663a 8d22 c43c
00000020: 9ddd 263e 500d d8bd 536c 4c3b 94b2 15be
00000030: e4e1 683d 40b9 353d ca51 a33d 5766 3dbd
00000040: dd68 6dbd 6ab7 1b3d cfba 9d3d 5387 9a3d
00000050: 83a9 273c 2cca 9e3d c122 f03c 6c24 b03c
00000060: cf4c 4c3d 192b 643c 99cb e3bd f924 afbb
00000070: fd87 aabd 0104 67bd eae9 bf3d 77d0 8a3c
00000080: 4065 49bc 3a11 6ebd 56ce 05bd d98f 703d
00000090: c506 8e3c 895b 0b3c e9fc 0abd c1e7 f33b
000000a0: 8f42 b2bd ac13 02bd 9834 023d a128 6cbb
000000b0: 7b9a 3d3d 15e9 b1bd c80e 33bc 6898 1cbe
000000c0: 1506 b43d 4804 bb3d a859 e2bd 3398 a4bd
000000d0: ccd9 103c a034 b23c fd7d ac3d 42ee 333d
000000e0: 3a17 a8bc c1bf 003d 0c70 d53c 5ce5 7b3b
000000f0: 4653 eabc 186c 59bd 1e63 093e e7f0 93bd
00000100: bdcd cd3c 9e71 593d ab37 17be 2f81 373c
00000110: 3d7a dcbc 0f66 cfbc 8d5c 2a3e 52b6 c6bc
00000120: 5cf2 8a3a 2d9c 82bd 62ed 2bbd 42a1 74bd
00000130: 5811 1cbd 22bb 91bc c845 4fbd eb0d e53d
00000140: 96bb 4ebd 4eb5 3dbd ae0b ef3c a011 4e3d
00000150: b5c1 b3bd 88eb 9abb 2f87 36bd de72 84bd
00000160: 9674 5dbd 04da a1bd 697a 093d 2cda 7d3d
00000170: ecf5 ab3d 4b3f 9abd 19b5 cc3c 011b 0fbe
00000180: b0a0 a23b e62f d83d c27b 8dbd e91c 89bd
00000190: c5e6 b43d 79ae 073e 6438 4a3d a80a 4e3d
000001a0: e623 5e3c ef8d 3ebd 98bc f5bc 1ee0 1d3d
000001b0: 1571 9f3d 0430 023d 95b6 b43d 1e0f bcbc
000001c0: 8d17 063b 8e1c 2fbc d6a5 a9bc 2a36 0ebe
000001d0: e3e3 6ebc 2ba7 06bd 38b3 a43a 237d b53c
000001e0: cd2e 81bc 9ef6 a8bc a0d4 df3c 482c ba3d
000001f0: b9e5 663c 2dce fe3d 78ed 063d 7fd6 4f3d
00000200: 59ad 353c 2e89 afbc f10d 413c abf4 9dbc
00000210: d095 bf3c 5001 cc3b 6595 9abd f06f 6d3d
00000220: c89d 373d a2b9 433b 5bef 37bd 85ea b1bc
00000230: 24ac 06be da6c 81bc 018a ff3b 9236 9cbc
00000240: 72a4 ad3d 28fb ecbc 07e2 f0bd fab7 303d
00000250: 0dac 923d 6b38 8f3b 13e0 b5bd 6199 85bd
00000260: 6758 e43c 3f86 013e 5163 433d 0438 823d
00000270: 70e5 40bd c0f2 2ebc 75e7 e33c d6ce 8cba
00000280: 712e 6cbd 6545 18b9 33b6 97bc dae6 c8bd
00000290: 7bd4 943d 8f99 753d b6f1 da3d e60a a8ba
000002a0: 0b3e fdbc 772d cb3b 31f4 5d3d 3199 11bd
000002b0: a64f 1a3d 8ec6 53bd 84c2 b5bd 4ea9 eebc
000002c0: f78a 0fbd 8da4 7bbd 9516 d43c 359b 373d
000002d0: 57fe 883d fc15 0ebd 6fc5 0d3c 157b 0d3d
000002e0: 08eb 953d 834c c83d 7ab7 ad3d 923c 6b3d
000002f0: 8067 d83c 15b7 443b 3366 263d fcc9 b0bb
00000300: 21d9 e8ba 90d3 83bc 6308 cf3b edea b6bc
00000310: 2729 e1bd 42c8 98bd 9834 a5bd 6ee5 db3c
00000320: 6c7e 083e e013 1bbd e31a bd3d c3b2 4dbd
00000330: 980e 76bc 918d 993c fa22 7b3d 4f57 dbbd
00000340: 5491 a5bb 350e c3bc 2409 70bd 78e8 05bd
00000350: 4905 3ebd dd41 30bd fd5f a6bd b05a 3fbd
00000360: 5f58 ed3b ca9d 96ba e0c9 30bc 7785 3fbd
00000370: 6c7d 79bc 9008 363e 7214 40bd 4377 863b
00000380: 146b f83d af12 1c3e 801c 263d 9d98 ea3d
00000390: 0447 943d b8bf 2cbd 298d 02bc 1fbb 7c3d
000003a0: a175 4fbd 6e36 c9bd 86ce 093d d1e0 8b3b
000003b0: cada d8bc 4dcc 523d dca9 ac3b 59ef 17bd
000003c0: 22fc f73b a1d4 d63b 2c63 70ba f0d2 0bbd
000003d0: c409 cf3d c94c acbd 65e6 05bc b57b 003e
000003e0: 3e71 30bd c851 503c ec03 17bd e66b 4b3d
000003f0: 3d53 d93c c68f 7a3d befd bdbc 46f0 2f3d
-0.047361754 0.015893307 0.08296451 0.047151804 0.05806948 0.090651356 0.00087833405 0.023942256
0.16295476 -0.10549414 0.0031192496 -0.14618903 0.05685605 0.04436612 0.079745844 -0.046240177
-0.057961334 0.038016714 0.077016465 0.07545342 0.010233286 0.07753405 0.029313447 0.021501742
0.049877938 0.013926291 -0.111228175 -0.0053449837 -0.08326719 -0.056400303 0.093707874 0.016945107
-0.012292206 -0.058121897 -0.03266748 0.058730934 0.017337212 0.00850571 -0.0339326 0.0074433987
-0.08704101 -0.03175704 0.03178844 -0.003603496 0.046289902 -0.08687035 -0.010928817 -0.15292513
0.087902226 0.09131676 -0.11052257 -0.08036842 0.008840989 0.02175361 0.08422468 0.043928392
-0.020518888 0.03143287 0.026054405 0.003843627 -0.028604161 -0.0530816 0.13416716 -0.07223683
0.025122518 0.05308687 -0.1476733 0.011200233 -0.026913757 -0.02531722 0.16636868 -0.024256859
0.0010600793 -0.063774444 -0.041974433 -0.0597241 -0.038102478 -0.017789427 -0.050603658 0.11184295
-0.050471865 -0.046315484 0.029180374 0.050309777 -0.08777181 -0.0047277845 -0.044562515 -0.06467222
-0.054066263 -0.07902911 0.033564005 0.061975643 0.08396515 -0.075316034 0.024988698 -0.13975145
0.004963003 0.10556011 -0.069083706 -0.06694967 0.08833078 0.1325015 0.049370185 0.05030313
0.013558364 -0.046522077 -0.029997155 0.038543813 0.077852406 0.031784073 0.08823887 -0.022956427
0.0020460815 -0.01068796 -0.02070896 -0.1388785 -0.0145807 -0.032874268 0.0012565618 0.022154396
-0.015769387 -0.020625409 0.027323067 0.09090477 0.014092856 0.12441669 0.03294131 0.05074167
0.011088693 -0.021427717 0.011783109 -0.019281706 0.023386866 0.0062257424 -0.07548026 0.05796808
0.044828206 0.0029865284 -0.044906 -0.021718273 -0.13151604 -0.015798975 0.007798434 -0.01906899
0.08478631 -0.028928354 -0.11761861 0.043144204 0.07161722 0.004370739 -0.088806294 -0.06523395
0.027874185 0.12648867 0.047702137 0.063583404 -0.04709381 -0.010677993 0.027820328 -0.0010742794
-0.057661477 -0.00014521701 -0.018519497 -0.098096564 0.0726709 0.059960898 0.10690634 -0.0012820631
-0.030913373 0.006200488 0.054187957 -0.035546485 0.037673615 -0.05170303 -0.088749915 -0.029133465
-0.035044637 -0.061436225 0.025889674 0.04482575 0.066891365 -0.034688935 0.008653029 0.03454121
0.07320219 0.097802185 0.08482261 0.05743081 0.02641654 0.0030016352 0.04062481 -0.005395172
-0.0017764905 -0.016092092 0.0063181384 -0.022328818 -0.10994177 -0.07460071 -0.08066672 0.026842799
0.13329476 -0.03786075 0.09233644 -0.05021931 -0.015018128 0.018744262 0.061312653 -0.10710012
-0.005052725 -0.023810485 -0.058602467 -0.032692403 -0.04639176 -0.043031562 -0.08123777 -0.046717346
0.0072432007 -0.0011491117 -0.010790318 -0.04675814 -0.015227657 0.17776704 -0.0468945 0.0041035726
0.121297985 0.15241502 0.040554523 0.1145489 0.07240108 -0.042175025 -0.0079682255 0.06170189
-0.05064929 -0.09824835 0.03364422 0.0042687436 -0.026471514 0.051464368 0.0052692723 -0.037093494
0.0075678984 0.006556109 -0.0009170051 -0.034136713 0.101092845 -0.08413083 -0.008172606 0.1254719
-0.043076746 0.012714811 -0.036868975 0.049663447 0.026528949 0.06117227 -0.023192283 0.042953752

b3 f4 [128]
00000000: 87f6 78bd 0f52 78bd d885 153d c356 223d
00000010: c8fa d3bd d5df 6e3b 4142 aabd dc99 b63d
00000020: b581 9dbb a43a 033e 92b4 ab3b 92ae 14bd
00000030: c442 34bd fd9d fabd b739 fd3d df7b cc3d
00000040: b7e0 353c 94f5 c63d ab59 babb a0aa 683d
00000050: 6cbd 15be 771a 543b 9a38 83bd 2354 7cbd
00000060: a8fd a3bd f6f9 513d 99be 493d 8fb5 3dbb
00000070: 6c21 c73d 52e0 253e e7f2 0e3c ad80 98bc
00000080: c568 183e c786 27bd 2d0b 7cbc 8efc 263c
00000090: 7b13 84bd 14a1 40bc 59dc de3b 52af 02be
000000a0: bb31 73bd 0525 3bbd 449e f13d 0257 fabc
000000b0: 9120 d5bc 8873 39bd 2b4f 08bd 6358 44be
000000c0: 455e 103e 1fab e53b d47b 51bc 4de9 d63c
000000d0: 7cf2 053c 8b8b f53c 3de3 423c 38b8 22bd
000000e0: 323d 993b a740 b5bd 4479 68bc 64ae 41bc
000000f0: 47b9 2e3e 6f83 b8bb 20a0 a1bd eab4 4abe
00000100: 217f b03d 5a0b 063e 2f67 8e3c 46fb febc
00000110: 822f 53be bed5 4e3c 87ab 493b b691 88bc
00000120: cab7 08bc 9f69 35bd 5ef8 78bd e117 d5bd
00000130: 62ad c7bd 8fbd d53d 37ce 303d 368a 74bc
00000140: 83ad a1bb 6565 ec3c 8ec1 cfbd 7d3c c2bd
00000150: 083c cdbd 808e 4bbd 2474 183d 6d6f dabb
00000160: f0fb 8338 936e 34bd 1ca6 553c 088a 243d
00000170: 650b 9f3c 079e b5bd f80c 67bd 2bb0 31bd
00000180: 7f19 3b3d f0c3 9dba adaa 83bd 87eb c2bd
00000190: 24c9 c1bc 25e5 e4bd 93b4 1dbd 8136 573d
000001a0: 2e07 493c 1c1f df3d e584 d33b f359 6b3e
000001b0: 3bac 183c fc5f 31be 55c3 97bd 6967 99bc
000001c0: 822c 09bc 452e 06bd 39ae b9bd a2ed 8a3d
000001d0: 9d09 5a3c 4bea 4abd 6646 42bd 3dad 79bd
000001e0: 5561 7f3d 5796 c23c 2019 babc 3e3b 453d
000001f0: caed 85bd 2a08 5b3d 27f1 443c d974 71bd
-0.06078198 -0.060625132 0.036504596 0.039633524 -0.10350567 0.0036449332 -0.08313418 0.08916065
-0.004806722 0.12815338 0.0052400315 -0.036299296 -0.044008985 -0.12237165 0.12364524 0.09984564
0.0111009395 0.09714809 -0.005686959 0.056803346 -0.1462304 0.0032364407 -0.0640728 -0.061603677
-0.080073655 0.051263772 0.049254034 -0.0028947329 0.097231716 0.16198853 0.008724905 -0.018616045
0.14883716 -0.040900018 -0.015383524 0.01019205 -0.06449028 -0.011757154 0.00680117 -0.12762192
-0.0593736 -0.0456896 0.11797765 -0.030559067 -0.026016505 -0.045276195 -0.033278625 -0.19174342
0.14098461 0.0070089246 -0.012785871 0.026234293 0.008175489 0.029973766 0.011894998 -0.039726466
0.0046764845 -0.08850222 -0.014189068 -0.011821363 0.17062865 -0.0056309025 -0.078918695 -0.19795576
0.08617998 0.13090268 0.017383186 -0.031125676 -0.20623592 0.012624202 0.0030772404 -0.016671043
-0.0083446 -0.04429018 -0.060783736 -0.10404945 -0.09749867 0.10436546 0.04316541 -0.01492553
-0.0049340143 0.028856942 -0.101443395 -0.094841935 -0.10021216 -0.049696445 0.037220135 -0.006666115
6.293494e-05 -0.044050764 0.013040092 0.0401707 0.019414613 -0.08868032 -0.056408852 -0.043380897
0.04567861 -0.0012036543 -0.06429038 -0.095175795 -0.023655482 -0.11176518 -0.038502287 0.052542213
0.012269778 0.108946055 0.0064550512 0.22983532 0.009318407 -0.17321771 -0.074103035 -0.018726068
-0.008372428 -0.03275897 -0.090664335 0.06783606 0.013307956 -0.049539845 -0.04743042 -0.06095623
0.062348682 0.023753328 -0.022717059 0.0481522 -0.06539495 0.053474583 0.012020386 -0.058949325
