A3/overfit_deepconvnet.pth (torch, 111703 bytes, 10 tensors)

W1 f4 [8, 3, 3, 3]
00000000: 5ee3 40be 77a6 b7bd db80 09bf 222b cb3c
00000010: cc4a dcbc e419 e3bd edc4 fdbd ca7f 78bd
00000020: c5f8 57be cd8c 89bd cbb3 a9be 2af3 e43e
00000030: 1a99 873d 6572 0abd 61e0 863e 49cd 763e
00000040: 7719 9fbc 4e1e 7b3e 2baa 9c3e 28ee 643e
00000050: 83b5 c5bd 7711 8abe 31eb 05be bf2d 7abe
00000060: f0b3 d13c 5f6e 453c 1820 c53e 62ad 0a3e
00000070: 52e3 56bc 8e26 20be ce61 883e b655 67bd
00000080: f25c dfbd 9ede 4dbd a617 28be 5979 18be
00000090: 8d24 1fbe a891 71bb d73d 023e 9f6d 983e
000000a0: aa25 e33b 574f d43d 262e af3e c763 233e
000000b0: 3155 c3bc ec5a 4e3e 2037 91be a01f 0dbe
000000c0: 1cdc 16bd 86b3 aa3d c45c ae3d f89f ab39
000000d0: 369f 493e 9124 5dbe b75e c13c d79a d23d
000000e0: c484 e2bd 69e1 8ebd 28f3 c6bd b405 433e
000000f0: 9c69 413d 3ee9 e53c c4da e93d 8e96 64be
00000100: f58e 4abc 1598 53be 37a1 3a3e 73a8 71be
00000110: a1b3 56be 7089 de3b cc0a f63d d779 b2bd
00000120: d024 07be b00f dabd f950 023e df5f 9cbe
00000130: 8193 b23d 676a 35bc d29d 8d3d f764 d1bd
00000140: f863 69bd 16ad 2a3e 5419 1bbf c13b 963d
00000150: 46ad a2ba 4b9e 9a3e e10c 443b de34 d03c
00000160: 6ccb 0b3d 31f9 84bd 4e4d 533e 74c5 b43e
00000170: f119 d43c e379 e23d 4a6e 7d3e 24c6 3dbe
00000180: 8c89 e5bc c7cc 9dbe 85da 4bbe 6f40 b1bd
00000190: 73ce ba3c 40bc 45bc 0cfc f03d 6d06 3e3e
000001a0: fad7 a3be 15de 993d 39a0 0b3e 530c 3abe
000001b0: 3109 0e3e d282 81bd 4a10 bfbe 6897 dfbc
000001c0: 5972 c73e cbd1 ef3d 0e74 583e fd86 90be
000001d0: 401f 6dbd 7c0c 91be c98e a03e 23fa 1b3c
000001e0: 1890 de3e f75a 37be b113 b33e 4e52 81bd
000001f0: b2da 45be c22c 55bd fe06 5cbd 968c cbbc
00000200: c8b3 5abe 89ed cebd 1172 eebd 3115 dd3e
00000210: 0c1a 8fbe 31d7 823e 2e1b d9be 30f4 3abe
00000220: 05fa 453d 601f 23be e2bb 0abd aa63 80bd
00000230: 8d8e 8c3d 10d7 e1bc 742e ac3d 1405 3bbe
00000240: bf1a b4bd 7a8e d43d 1f16 7a3b 9185 a33e
00000250: e808 9abd 04ea 44bd fccf 09bd eb2d 343d
00000260: 298a bb3c 197e 99be a791 d4bc d645 85bd
00000270: 81b1 4c3e 442f 803e c521 0b3e c42f 35be
00000280: 10ce a13d 77b6 d7bd 0728 43be 3e31 473e
00000290: bfcc 963d 7328 acbd 6d6e 9dbe 7265 543e
000002a0: 4409 ecbd 7ae9 533d f816 73bd b38a 2f3d
000002b0: 9493 e0be 72a6 ef3d 455e 6ebe 2398 a43e
000002c0: 6378 ec3c 3f8a afbd 125b c83d d0d4 053d
000002d0: dbb1 8cbe 8118 c13e 1790 64be 76b8 6e3d
000002e0: c837 0bbe 13bc 033e 92bc 2cbe 1f79 d3bc
000002f0: dcde 083d 4fd5 553d 1884 09be 5c5e 9bbd
00000300: fbcb 84bc 2eab 82be d6ea 2abe 14ec 98bd
00000310: f30a a93d 5d13 5f3d 8f2b 89be 23f7 bebd
00000320: a8ad 93bd 9cde 96be 4fd4 61be 6377 39bd
00000330: 802f 0cbe 04e1 debe 9700 abbd d9cc ac3b
00000340: 003f 683d dba4 813e 0928 88bb a5f2 a23d
00000350: c17f 7cbe 9cb3 9f3e 0ae8 d53d b3d1 84be
-0.18836734 -0.089672975 -0.5371224 0.02480084 -0.026891135 -0.110889226 -0.12391076 -0.060668744
-0.21090992 -0.06716309 -0.33144984 0.4471677 0.06620999 -0.0338005 0.26343063 0.24101748
-0.019421322 0.24523279 0.30598578 0.22356474 -0.09653761 -0.2696645 -0.13078 -0.24431513
0.025598496 0.01205024 0.38501048 0.13542703 -0.013115721 -0.15639707 0.2663712 -0.056478225
-0.109064 -0.050261132 -0.16415271 -0.1489004 -0.15541287 -0.00368605 0.12718903 0.29771134
0.00693198 0.103666954 0.34214896 0.15956031 -0.023844333 0.20151871 -0.2836237 -0.13781595
-0.036831006 0.08335023 0.085137874 0.00032734848 0.1968964 -0.2159598 0.023604734 0.102834396
-0.11060479 -0.06976587 -0.09714347 0.19045144 0.047219858 0.02806532 0.11418679 -0.22323057
-0.012363185 -0.20663483 0.18225561 -0.23599415 -0.2096696 0.006791286 0.12013778 -0.08714645
-0.13197637 -0.106475234 0.12726201 -0.30541894 0.087195404 -0.011072732 0.069148675 -0.10224336
-0.056980103 0.1666759 -0.6058552 0.07335616 -0.0012411259 0.30198893 0.0029914903 0.025415834
0.034129545 -0.06492842 0.20634958 0.35306895 0.025891276 0.11058404 0.24749103 -0.18532616
-0.028019689 -0.30820295 -0.19907577 -0.08654868 0.02280352 -0.012068808 0.11766824 0.18557139
-0.32000715 0.07513062 0.13635339 -0.18168764 0.13870694 -0.0632378 -0.37317115 -0.027293876
0.38954428 0.11709937 0.21138021 -0.28227988 -0.05789113 -0.28329837 0.31358936 0.009520086
0.4346931 -0.17905794 0.3497596 -0.063145265 -0.19321707 -0.052044638 -0.053717606 -0.02484731
-0.21357644 -0.101039 -0.1164285 0.4318023 -0.2794956 0.25554803 -0.4240355 -0.18257213
0.04833414 -0.15929937 -0.033870585 -0.062690094 0.06863127 -0.02756837 0.08407298 -0.18263656
-0.08794164 0.10378738 0.0038160158 0.3193784 -0.0752123 -0.048074737 -0.033645615 0.043989103
0.022893028 -0.29979017 -0.025948359 -0.06507461 0.19989587 0.2503606 0.13587101 -0.17694002
0.079006314 -0.10532849 -0.19058238 0.19452378 0.07363271 -0.084061526 -0.3074831 0.20741823
-0.11525205 0.051736332 -0.059348077 0.042856883 -0.43862593 0.11701669 -0.23278148 0.3214732
0.028865999 -0.0857129 0.09782995 0.032673657 -0.27479443 0.37714007 -0.22320591 0.058281384
-0.13595498 0.12864713 -0.16868809 -0.025814591 0.03341566 0.05220538 -0.13429296 -0.07586357
-0.016210547 -0.25521225 -0.16691145 -0.07466903 0.082540415 0.054461826 -0.26791045 -0.09324481
-0.07210857 -0.29466712 -0.22053646 -0.04527987 -0.13689995 -0.43531048 -0.08349722 0.005273443
0.056700706 0.25321087 -0.004155163 0.07956437 -0.24658109 0.3119172 0.104446486 -0.25941238

b1 f4 [8]
00000000: 46b7 46ba 3ad5 713c c654 13bc 522d 543c
00000010: eae8 17bb 3b2c 1cbc 322e 1cbb 74ab 65bb
-0.00075804105 0.01476031 -0.0089923795 0.012950258 -0.00231796 -0.00953203 -0.0023831245 -0.003504482

W2 f4 [16, 8, 3, 3]
00000000: ac4c 243d f570 cfbd acc7 3f3e 2a75 19be
00000010: dda5 8e3e a6d0 3a3e 234c 813c 5f12 39be
00000020: 3d6e 313e 9c22 323e 02fe 49be 8586 7dbd
00000030: 8d31 d93d 1494 ad3d 84db 01be 278e a5bc
00000040: 1295 92bd 9117 b43e 7141 29be 0666 ac3e
00000050: ffcf bb3d d962 e2bd 8da6 273d 3b88 6cbc
00000060: 6c6a 92bd b3ac 1fbe 42d2 543e ab6b d7bd
00000070: d4b7 183e f87a 053e 21c9 c23e 9b2e 8b3d
00000080: fd74 fabc 5cbb bdbd 9c95 183f c72c b2bc
00000090: 5d34 aabd 9151 43bc b0ea d43e 1087 c33e
000000a0: 6224 cbbd 5fd1 03bd 1723 2d3c 7012 87bd
000000b0: 9377 e73e efd7 bd3c b440 373c 344e bb3d
000000c0: 3718 97be 9906 2fbe bee2 d43e 4596 2b3d
000000d0: 3c5c c0be 60cd 023f 7744 543e 813d bfbe
000000e0: e374 33be 892e 72bd 4ec4 693e 62fd 23bd
000000f0: d070 35be c87d 063e 777f d33d 90da aa3d
00000100: d5a5 dc3e 0236 77be 105b 59bd 75b9 22bd
00000110: e45f 563d 6a01 e8bd e24a 8ebe 02de 013e
00000120: bbe9 f5bc 34da 163e 65f7 95be f1ba 04be
00000130: 1701 703e 5492 b7be c15d 9f3c 238e 94bd
00000140: e127 41be 96eb 393d 6541 5e3c 6b05 003e
00000150: 6a87 603e 57d4 c93d 76ba e0bd c7ea bc3d
00000160: e3a3 843d 18b0 483e 78a0 44bd ed62 f4bd
00000170: 8043 c73d 3dc6 2ebc 5e02 cb3e 8f88 07be
00000180: d867 69be 498d 963d 84af e2bd edde 6dbd
00000190: 4c94 c23d a071 87bd 2550 bc3d dc39 16be
000001a0: d380 b3bd 280c f63c c2e6 483e 49ec 96bd
000001b0: 2f18 31be 8fc0 27be ea26 92be 98bd cebd
000001c0: 2963 38be a275 63bd 55c6 843e d253 96be
000001d0: a419 103e abea 99be fccf ab3c a684 b43d
000001e0: 4dca 083e 6e22 15be fbc3 8c3d 5863 ae3e
000001f0: 2053 283d f3b9 d03c 95a9 853e 77e7 c8bd
00000200: 9beb d43d b828 6c3e 7412 63be ee0f 973e
00000210: 1157 9abe a09f 063e f7fa 973c f4b8 b9bd
00000220: a928 833e 2003 393e 9aae 32be 9a5e 993e
00000230: 059a 3dbe defb 873e 985a ed3e f624 5b3e
00000240: b6cb 763e 0b5a 82be 0b23 37be f9b0 6cbd
00000250: 9b65 20be 0990 463e 56ed d6bc 6f50 cfbe
00000260: e654 0cbe 4762 b9bd 1290 24be 6fd6 863d
00000270: 8695 a03d 12cd 343d 29bc 0a3c 1498 fdbd
00000280: a49f eebd 5c73 8f3d cb17 bebe adba da3e
00000290: 568b b3bd 3166 a13c 31a1 2a3e bba7 4d3d
000002a0: 903f 193e dd74 78bd e98e 93be c85a 803e
000002b0: 03dc 8bbc 227c 603e 6547 213e fce7 72be
000002c0: 62f7 113f b36d 05be a788 c33b 99dd 473e
000002d0: d548 8e3c 2413 ad3d cbc3 8f3e b55b 80be
000002e0: 9e23 cbbd deb3 c0bb 70ca f7bd 6fe6 343d
000002f0: fbed 45bb a1a7 95bc 1ae4 b0bd 1a12 173e
00000300: 9f69 393e c240 63be 78b5 2d3e 9667 42be
00000310: f6b8 dbbd 34c9 b23d 6866 5d3e a5f3 183e
00000320: c727 b53d f953 ad3e 48ca e1bd 27b8 483e
00000330: d551 be3d 670f 853c 34f0 8abe 0a1c 1ebe
00000340: 2c50 0f3d 99fe 5d3e b4a8 1fbe 941e b83d
00000350: 0294 13be 0400 a5be 07a5 d3be fc40 e2bd
00000360: c073 843e 9973 093e fd43 a53d 060b 16bd
00000370: c442 46bc 45dd ccbd dd9e 2cbe 88bf 39bb
00000380: 18c6 553e b40e 4fbd 3114 273e c992 87bc
00000390: 6d3a fabc 7af7 343e e8da a5be 5bbb 76be
000003a0: 41a3 54be 9e8b 10be eef0 f0bd 22b5 69be
000003b0: 3b18 b7be 89b1 933e a16d 473e 72f4 d33b
000003c0: ae3f d13d 59c9 903e fa2f babd eeb3 7d3e
000003d0: ff61 19be 05b7 cf3d c487 433e 9d9e 573e
000003e0: 474a 4bbe 51df c7bc c872 863c be5c 75be
000003f0: 3213 48be 30fa b53c 8fff b5be c4e4 313d
0.040112182 -0.10128967 0.18728513 -0.14986101 0.2786092 0.18243656 0.015783375 -0.18073414
0.17327209 0.17396015 -0.19725803 -0.061895866 0.10605154 0.08475509 -0.12681395 -0.020209385
-0.07157339 0.3517423 -0.1652887 0.33671588 0.091705315 -0.1105401 0.04093032 -0.014436777
-0.071492046 -0.15593223 0.20783332 -0.10518583 0.14913875 0.1303519 0.38044074 0.06795999
-0.030573362 -0.092642516 0.59603286 -0.021749867 -0.08310769 -0.011921302 0.41585302 0.38188982
-0.09919049 -0.032182094 0.010567448 -0.065953135 0.45208415 0.023174254 0.01118486 0.091457754
-0.29510662 -0.1709236 0.4157924 0.041891355 -0.3757037 0.5109463 0.20729242 -0.3735161
-0.17525057 -0.05912641 0.2282879 -0.040036567 -0.17718816 0.13133919 0.10327046 0.08342469
0.4309527 -0.24141696 -0.05306536 -0.039727647 0.052337542 -0.11328395 -0.27791506 0.12682346
-0.030018678 0.14731675 -0.2929031 -0.12961937 0.23437916 -0.35853827 0.019453885 -0.07253673
-0.18862869 0.045390688 0.013565396 0.12502067 0.21926656 0.09854954 -0.109730646 0.09224468
0.064765714 0.19598424 -0.048004597 -0.11932931 0.097296715 -0.010667381 0.39650244 -0.13235687
-0.2279352 0.07351167 -0.11068633 -0.058073927 0.09500942 -0.06613469 0.09194974 -0.14670509
-0.08764806 0.030035093 0.19619277 -0.073692866 -0.17294382 -0.16382049 -0.28545314 -0.10094756
-0.18006577 -0.055532105 0.25932565 -0.29360825 0.14072281 -0.3006185 0.020973198 0.08814363
0.13358422 -0.14563915 0.06873318 0.34060168 0.0410949 0.025479292 0.26105943 -0.098097734
0.10396501 0.23062408 -0.22175008 0.2950434 -0.3014455 0.1314683 0.018552287 -0.0906848
0.2561696 0.18067598 -0.17449418 0.29954988 -0.18515785 0.26559347 0.4635818 0.21400818
0.24101147 -0.25459322 -0.17884462 -0.05778596 -0.1566376 0.19390883 -0.026236217 -0.40491053
-0.13704261 -0.09051948 -0.16070583 0.06583869 0.07841019 0.044140883 0.008467712 -0.12382522
-0.11651543 0.07004425 -0.37127528 0.42720547 -0.087668106 0.019702049 0.16663052 0.05020879
0.14965653 -0.060658325 -0.2881997 0.2506926 -0.017072683 0.21922353 0.15749891 -0.23721308
0.570181 -0.13030128 0.005967218 0.19518127 0.017368713 0.084509164 0.28079066 -0.25069967
-0.09918903 -0.005880817 -0.12099159 0.04416507 -0.0030201662 -0.018268408 -0.08637257 0.14752999
0.18106697 -0.22192672 0.16963756 -0.18984827 -0.10728638 0.08729783 0.21621096 0.14936693
0.088454776 0.3385313 -0.1102491 0.19601499 0.09292952 0.016242696 -0.27136385 -0.15440384
0.034988567 0.21679153 -0.15591699 0.08990207 -0.14411929 -0.32226574 -0.41336843 -0.11047551
0.2586956 0.13423003 0.08069608 -0.036631607 -0.012100879 -0.10003141 -0.16857477 -0.0028342921
0.20876348 -0.05055113 0.16316296 -0.016549485 -0.030545438 0.1767253 -0.32393575 -0.24094908
-0.20765401 -0.1411576 -0.11764704 -0.22823003 -0.35760674 0.28846386 0.19475414 0.006468349
0.10217224 0.28278616 -0.09091182 0.24775669 -0.14978789 0.1014233 0.19094759 0.210566
-0.19852553 -0.024398478 0.016412154 -0.2396116 -0.19538572 0.022214025 -0.35546538 0.04343106

b2 f4 [16]
00000000: 690e 96ba 4e28 663a f32b a93a 5645 9fba
00000010: 584a 18bc 8996 713a f5c9 913b e908 e03b
00000020: ffa0 c7b9 c315 fd3b 833b 0bbc ea5a 87bc
00000030: 8747 41bc fcfb 563c feae c33b a0f2 0ebc
-0.0011448386 0.00087798096 0.0012906775 -0.0012151401 -0.009295069 0.0009215852 0.004449124 0.0068369997
-0.0003807619 0.0077235415 -0.008498075 -0.016522843 -0.011796839 0.013121601 0.0059717884 -0.0087248385

W5 f4 [256, 10]
00000000: 3a92 29be e948 9d3e 310a 0cbe 823b a53e
00000010: 47db a03d ea87 6dbd 3abf 8abe db8a de3c
00000020: 4d0c d1bd 604c 503e 56b7 0cbe 11ec c5be
00000030: 29ce be3e 7961 97bb fd89 15be fd81 833e
00000040: 77af 48be 9831 b63e 0027 0ebe 0726 c4be
00000050: de14 71bd 585e a53c 3c32 9bbe 1d1e d1bd
00000060: d7d8 d6be e3e5 753e 86bf a63e f1f5 21be
00000070: 69d0 103d 463b 14bc 180d 5d3e d341 98bd
00000080: fdcc b33e b3e8 2c3e 60f7 413d 3905 3ebb
00000090: af14 92bc 3f9a 4dbe ddac a5bd c64c edbd
000000a0: f567 8ebd 5877 edbd ced4 483e 7203 3ebd
000000b0: 4057 ad3e 6650 8fbb 208e 5bbd dc61 d3bd
000000c0: b5c6 60bd 575a d4be c4ad acbd c464 f7bc
000000d0: 00bb 1fbe af73 1f3e 2e38 b6bd d447 4abe
000000e0: d61d 74be 0f94 4d3d abcc 343d 732e 1cbd
000000f0: 1bc6 4bbe ba65 903d 88cd 0d3d 087d 463c
00000100: 16ad c0bd eaf7 633d c2d1 903d 4265 d8bd
00000110: a27b 0fbe ff90 153d bd87 bbbd 765a 573d
00000120: ad1d 973e 4a7e 033c 42ae 6ebd 6505 e23e
00000130: dbd0 c5bd 05d6 00be 6abb c43e 9731 33bd
00000140: 236a 713d 09dd f8bb 2c1c c33c 1651 253e
00000150: 80ff b03e e65b 37be 6b16 a7bd dfb4 b03d
00000160: a5f2 0a3d 4149 42bd 14d1 4a3d 6205 a23e
00000170: e9a0 8e3e 880d b13c 5939 a33c 4741 3dbd
00000180: efea 123c 79df febd 2651 063d 7590 733d
00000190: c076 07be 1438 20bd cff8 a5bb 1d64 09be
000001a0: a587 41be f346 05bf aa0b 2ebe e50f e1bd
000001b0: a44e c0be ff88 0abe edf0 c1bc 7055 ecbd
000001c0: c2ba 673e 23a2 3d3d 7580 653e 218f 14bc
000001d0: 1313 563e d072 873e 632c 1ebd 4044 acbd
000001e0: 2faa f1bb a9de 8c3e be00 253e 9bed 3e3c
000001f0: 366b 933d 12ba 0e3e b44e ee3d 32a4 9b3b
00000200: 556e 81bd e2f2 22be e019 e33b a391 903e
00000210: b025 203c 1f85 223e efb6 d4bd 3164 233e
00000220: 7ca4 0e3d c384 12be a17e 04be 4a6d a5bd
00000230: 0356 973c 99dd 29ba 5e9e e1bc 9937 353e
00000240: 55b4 09be 1e65 a6bc f060 953e d076 59be
00000250: 3d75 843e 6fc2 63bd 5ce5 613d 36a3 453e
00000260: a96c 39be 533c 9c3d b993 51be 59c3 dcbd
00000270: d308 963e b0cc 06be 7497 ff3d 86d5 523e
00000280: 8e9e abbd c63f 333d b24e d33d da37 283e
00000290: 221a b1be 0363 76be 09a5 833e 2b6c 94be
000002a0: b032 023e c659 4e3d 4281 e63c 952e 47bb
000002b0: d6ef bbbd 7a7d f3be 2b9e 88be 7703 c53d
000002c0: ef82 93bc a64e 763e a2bb ffbd 9ee4 17be
000002d0: 5b89 563e ce37 d43d b09c 753e 2326 5a3e
000002e0: 1c43 b73e c663 6fbe c2a9 bd3e 5da4 07be
000002f0: ee18 46be 2221 053e 21ab fcbd 41f2 28be
00000300: ec7d 853d f4c6 edbd 3e6f 86be 1887 09bf
00000310: 8e02 db3d fee8 8e3e b11c d0bd 56c0 3e3e
00000320: 3214 a83c 1216 5f3e 1099 f4be 394b f63d
00000330: 3baa 973e e0f6 88be 840b 9e3d c885 a8bd
00000340: c2c7 bb3d aa23 f53d 4b10 c93c a478 eebd
00000350: 33f9 103d e4d9 b33d 2cc0 b0be 2328 67be
00000360: aca7 cfbc 3bf2 9dbd 5c42 30bc a3ce 2dbc
00000370: 6318 c4bb 1fad ee3e 83c4 cd3d 4494 dc3e
00000380: 29dd e2be 5169 95bd aacb 40be 183f 323e
00000390: af15 903e 786e 88be da41 30bd 7ad2 03bf
000003a0: db60 92be bad3 6ebe c486 a33d 6fa3 a83c
000003b0: 0f2f 80be cd84 3ebd bfac 43be 17c3 46bd
000003c0: 5a48 30bd 7682 313e 46a1 7e3d f003 9ebc
000003d0: 5090 4f3d c273 0bbe 151d c4bd b219 983d
000003e0: 8dab a9be 4d0f 373c 0f9b 053e 1510 1fbc
000003f0: ec2e 3b3b 0e03 393c b2d6 88be de25 843e
-0.16559687 0.3071969 -0.13675763 0.32271963 0.07854324 -0.057990946 -0.2709902 0.02716582
-0.10207424 0.20341635 -0.13741812 -0.38656667 0.37266663 -0.004619774 -0.1460342 0.2568511
-0.19598185 0.35584712 -0.13882065 -0.38310263 -0.05885779 0.020186588 -0.30311763 -0.10210822
-0.4196231 0.24013476 0.32567996 -0.15816475 0.035355005 -0.009047335 0.21587026 -0.0743443
0.3511733 0.16885643 0.047355056 -0.0028994812 -0.017832128 -0.20078371 -0.08089612 -0.11586909
-0.06953422 -0.11595029 0.19612429 -0.046390004 0.3385563 -0.004373598 -0.053602338 -0.103213996
-0.054877 -0.41475174 -0.08431581 -0.030199416 -0.15598679 0.15571474 -0.08897434 -0.19753963
-0.23839507 0.050190028 0.0441405 -0.038130235 -0.1989979 0.07050653 0.034619838 0.012114771
-0.094080135 0.05565635 0.07071258 -0.105661884 -0.14012006 0.036515232 -0.091567494 0.052576505
0.29514828 0.008025715 -0.058271654 0.4414474 -0.09658977 -0.12581642 0.38424236 -0.043748464
0.05893911 -0.007594709 0.023817144 0.16144213 0.3456993 -0.1790615 -0.08158573 0.086282484
0.03392281 -0.04743314 0.0495158 0.31644732 0.2785714 0.021612898 0.019924806 -0.04620483
0.008967145 -0.12444968 0.032792233 0.059463937 -0.13228893 -0.03911598 -0.0050650607 -0.13417096
-0.188994 -0.52061385 -0.16996637 -0.1098936 -0.37559998 -0.13528822 -0.023674453 -0.115397334
0.22629836 0.046297204 0.22412284 -0.009067328 0.20905714 0.26454782 -0.03861655 -0.08411455
-0.007375024 0.27513626 0.16113564 0.011653329 0.07198183 0.13938168 0.11636105 0.004749798
-0.06319872 -0.15912965 0.006930575 0.28236112 0.00977461 0.15871094 -0.10386454 0.15956189
0.034824833 -0.14308457 -0.1293893 -0.08077486 0.01847363 -0.0006479859 -0.027541336 0.1769699
-0.13447697 -0.020311888 0.2917552 -0.2123673 0.25870696 -0.05560535 0.055150375 0.19300541
-0.18107857 0.076286934 -0.20466508 -0.10779447 0.29303607 -0.1316402 0.12480059 0.20589265
-0.08379851 0.04376199 0.10317744 0.16427556 -0.3459025 -0.24061207 0.2571185 -0.28988776
0.12714648 0.050378583 0.028137807 -0.0030392755 -0.091766044 -0.4755667 -0.26683173 0.096198015
-0.01800677 0.2405344 -0.1248696 -0.14833304 0.20950834 0.103622064 0.23985553 0.2130361
0.35793388 -0.23377904 0.37043577 -0.13246293 -0.19345447 0.1300092 -0.12337328 -0.16498663
0.06518158 -0.11610213 -0.26256746 -0.5372176 0.10693847 0.27912134 -0.101617225 0.18628058
0.020517442 0.21785763 -0.47773027 0.12026066 0.29622063 -0.2675085 0.0771704 -0.08228642
0.0916896 0.11969693 0.024543902 -0.11644104 0.035393905 0.08781794 -0.34521616 -0.22573905
-0.025348507 -0.077122174 -0.010758009 -0.010608348 -0.0059843524 0.46616456 0.10047247 0.43081868
-0.44309357 -0.07295478 -0.18827692 0.17406881 0.28141543 -0.2664678 -0.04303155 -0.51493037
-0.2858952 -0.23322955 0.07984689 0.020585744 -0.25035903 -0.046513367 -0.19108866 -0.048525896
-0.04303775 0.17334923 0.06216552 -0.019288987 0.050674736 -0.13618377 -0.095758595 0.07426776
-0.33138695 0.011173082 0.13047431 -0.009708424 0.0028561903 0.011292232 -0.267263 0.2581014

b5 f4 [10]
00000000: 0b99 22bb c391 62bc 24e4 5f3c 7c9d fb3b
00000010: 90b3 0c3c 8e65 3bbc b1a7 2238 f3dd 46bc
00000020: d82d 743c 65be c83b
-0.002481046 -0.013828698 0.013665233 0.0076786857 0.008587733 -0.011437787 3.8779985e-05 -0.012137878
0.014903508 0.0061262124

W3 f4 [32, 16, 3, 3]
00000000: 7b80 8a3d 4f9f 95be 47e1 31be 8629 673d
00000010: 866b 30be a60f 013e 99ad c3bd 51cc 9f3d
00000020: abec ecbc 2c4f 88bd 46fd 81be b3fe dc3d
00000030: 4291 b4bd 8f3c 183e 2d74 30be 53e8 b83d
00000040: 2a51 2c3e e40f 7d3e e785 dbbd 1690 71be
00000050: 8b9e 5c3e 1c27 9f3d 20bb 3b3e e18b 3fbd
00000060: 3a61 04bf 154e fb3d d32c f0be 54de 573e
00000070: 6f27 5d3e 1531 b33d 3973 a7bd b618 a93e
00000080: a11c a43d b27e 913d d43c d53e 800a 67be
00000090: b9d6 af3c 6093 edbe 8d22 f3bd d567 5dbd
000000a0: dfc9 08bb 5571 253e 5ba6 31be e183 8cbe
000000b0: 9411 89be 54d5 a73c 02bc 97be 0f65 84be
000000c0: 691f 563e c044 793e eaa9 1b3e 8f8d 253e
000000d0: ccbb c33e 438b 44bf 5e8c 8e3d a08e d03c
000000e0: 1dba f0bd f7d7 9cbe 48c7 acbd e9eb 233f
000000f0: a70d 1c3c fed6 1f3e 82d8 4cbe c7a6 663e
00000100: e1d2 bc3e 2de0 1a3e 9663 a5bd 64c7 93be
00000110: da86 a43c 054d b63b de2b 81be 823c 93bd
00000120: 0657 cb3c 5b41 3bbe c2d3 a8bd 4114 0f3d
00000130: 58f9 393e 6211 803e 78f6 a43d 3571 ea3e
00000140: 2d48 3f3e b19b 9c3e 227a 6e3e 3b5a ce3d
00000150: 540f ef3d 4ea9 433e 97d6 603d 98bd 123e
00000160: 2d2b 0e3d 9955 223e a76c 13be d2c5 9f3d
00000170: e061 51bd c6cd fe3d e3d8 553e 62e1 643e
00000180: 5e31 93be c7a1 6a3e b9c1 83bd 052b 1abe
00000190: 2aaa 323d 24d7 9dbe 8617 963e 8692 723e
000001a0: f8c7 1dbe 7e39 933e 6900 523d f178 cd3d
000001b0: 91bd 723d 203f a53e a492 c33d aa31 713e
000001c0: 3bf5 9b3e 9a07 603d c3e7 dabc cab8 ca3d
000001d0: 5aa9 c33e 9b8f d63e 320f 3b3e 88d3 8e3e
000001e0: 417b ffbd e01f 47be bc25 413d ac6d e73d
000001f0: 69ad 9ebc 2cd6 753e c6a2 153e a167 cfbd
00000200: 0993 1ebe 224d 3a3e 39fa 3e3e 584b 633d
00000210: 55b6 253d 4bf8 633d 4abd 71be c029 903e
00000220: e929 013e 70c7 3c3e d1db a23e deb4 45bd
00000230: 9798 a1be 6021 993e f81b b6bc 565b 913e
00000240: b371 fd3e 8c06 c2be 478f e5bd 853c babe
00000250: f63d a63e 5eac 38bd dcd7 27be f09b 303e
00000260: 8f0a 03bf a208 dd3e 0d81 903e e0d4 42be
00000270: 2d2b ba3e 2a40 d8bd 6ea9 363e 0acf edbd
00000280: a60a 1cbe a747 a03e dec4 35be 8a1f a23d
00000290: 5227 56be af40 ccbd 5b57 07bd 4b0d 043e
000002a0: 4b9a 24be 01bf 313d 4da1 933c 9553 febd
000002b0: ac63 ab3d bfb0 85bc ff62 343e a7b9 02be
000002c0: 8c94 bf39 22d0 8cbe 1c5a 433d 85c2 0e3c
000002d0: b295 0dbd addc 523d 77d0 78bd 1766 383e
000002e0: 2a35 08be d664 e3be fdff 923d 7c44 583d
000002f0: 5d2b ae3e a1ee 7dbe 3ea5 70be 5269 a7be
00000300: 5970 16be a884 0fbe d59a 09be 8e4f d13d
00000310: 0e19 323d 91ab 22bd 3f92 853e cf29 bebc
00000320: f184 4c3c 5775 96be 4190 c4bd 8890 c0be
00000330: 6c41 853e 5cc8 8ebc e5c7 1b3d 0f70 063e
00000340: 8934 b33e 330a d13b 9ca6 e9be 3272 43bd
00000350: b1e7 05be fada ce3d cbbf 103e 0fb4 953d
00000360: 485e a3be 6a7d 7dbe c75a 3fbe a19a d5bd
00000370: 7b29 ac3e a774 46bd e00d 9b3d 1499 083d
00000380: 8a5a 9fbd 024b a0bd 5752 0cbe 5e9c ffbc
00000390: 663b 433e e02d a8be b4c7 06bd d9e2 073d
000003a0: 7fe5 eabc 6646 dabd d4f5 b73d f06c c3bd
000003b0: 3b01 973e 6e77 a2be 38ec ea3d 9ae6 19bc
000003c0: 0f9b 1b3e 1029 403e 168e 14be 8536 eabc
000003d0: 8c06 b2be 86bb b7bc 3726 9bbc b889 2d3e
000003e0: 82ec 673e fc19 d9be 6c06 24be d126 94be
000003f0: 537d 64be 6bcd 3a3d 47a4 c0be afd4 b2bc
0.06762787 -0.29223105 -0.17371093 0.056436084 -0.17228517 0.12603626 -0.095545955 0.07802642
-0.028921446 -0.06655726 -0.25388545 0.107907675 -0.08816768 0.14866851 -0.17231818 0.09028687
0.16827837 0.24713093 -0.10718899 -0.2359012 0.21544854 0.077711314 0.18333101 -0.04676426
-0.51710856 0.12270752 -0.46909198 0.21080905 0.21597074 0.08749596 -0.08176274 0.33026665
0.08013273 0.07104243 0.4164797 -0.22562599 0.021464692 -0.464015 -0.118718244 -0.0540541
-0.0020872278 0.16156514 -0.17348616 -0.27444366 -0.26771224 0.020487465 -0.29635626 -0.25858352
0.2091042 0.24342632 0.15201536 0.16167282 0.38229215 -0.76774997 0.06960367 0.025458634
-0.11754248 -0.30633518 -0.084364474 0.64031845 0.009524739 0.15609357 -0.20004466 0.22524558
0.36879638 0.15124579 -0.08075635 -0.2886306 0.020083833 0.0055633807 -0.2522878 -0.07189275
0.02482177 -0.1828665 -0.082435146 0.034931425 0.18161523 0.25013262 0.08054823 0.45789495
0.18679877 0.30587533 0.23288777 0.10075804 0.116728455 0.19107553 0.05489215 0.14330137
0.034709144 0.15852965 -0.14396916 0.07801403 -0.05111873 0.12441592 0.20883517 0.22351602
-0.28748602 0.22913276 -0.06433434 -0.15055473 0.043619312 -0.30828202 0.29314822 0.23688707
-0.15408313 0.287548 0.051269922 0.10032833 0.059262816 0.32274723 0.09549454 0.23554102
0.30460533 0.05469475 -0.02672184 0.09898527 0.38215142 0.41906437 0.18267515 0.2789576
-0.12474681 -0.19445753 0.047155127 0.11300215 -0.019369798 0.24007481 0.14612874 -0.101271875
-0.15485777 0.18193486 0.1865014 0.055491775 0.04045709 0.055656713 -0.23607364 0.28156853
0.12613644 0.18435454 0.31808332 -0.04826819 -0.3156173 0.29908276 -0.022230133 0.28389996
0.49500808 -0.3789562 -0.112089686 -0.36374298 0.32469147 -0.045086257 -0.16390938 0.17246985
-0.51187986 0.4317065 0.28223458 -0.19026518 0.36361066 -0.10559113 0.1783807 -0.11611755
-0.15238437 0.31304666 -0.1775088 0.07916172 -0.20913437 -0.09973275 -0.033042293 0.12895696
-0.16074483 0.043395046 0.01802125 -0.12418286 0.0836862 -0.01631963 0.17615889 -0.12766133
0.00036541035 -0.27502543 0.047693357 0.008713369 -0.03456659 0.051479984 -0.060745683 0.18007694
-0.1330153 -0.4441287 0.07177732 0.052799687 0.3401746 -0.24798061 -0.23500535 -0.3269754
-0.14691295 -0.14015448 -0.1343797 0.10220252 0.043480925 -0.0397144 0.2608814 -0.023213295
0.012482868 -0.29386398 -0.09597827 -0.3761027 0.26026475 -0.017429523 0.03803243 0.13128684
0.3500102 0.0063793897 -0.45634925 -0.047716327 -0.13076665 0.1010036 0.14135663 0.07309734
-0.31907868 -0.24754873 -0.18686973 -0.10429884 0.33625397 -0.048451092 0.07571006 0.03334911
-0.07780941 -0.078268066 -0.13703285 -0.031202491 0.19065627 -0.328475 -0.032905295 0.033175323
-0.028673885 -0.10657959 0.08982435 -0.095422626 0.29493126 -0.31731743 0.114708364 -0.009393359
0.15195869 0.18765664 -0.14507326 -0.02859045 -0.3477062 -0.022428285 -0.01893912 0.16947067
0.22648814 -0.42402637 -0.16018075 -0.28935865 -0.22313432 0.045606058 -0.37625334 -0.021829931

b3 f4 [32]
00000000: 830f 2abc c4de 2f39 0107 c3ba 9127 b839
00000010: 6b4a 913b fcce 57bc c9ac a83c 081d c63b
00000020: 4517 0dbc 7fba 14bc f3f9 57bc fd35 893c
00000030: 0ebb 77ba 0938 b9bb 4ac7 4ebb 905f 363b
00000040: 881d 3a3a 3a04 a63b cce1 3b3c cd41 d23c
00000050: c576 63bc fbde d3bb 5f0a 44bb 0b3b ae3b
00000060: 49a6 0abc f670 403c a20f fa3b 227d 23bc
00000070: 8f32 13bc e6b3 873b b972 663c d55d 463b
-0.010379675 0.00016772287 -0.0014879407 0.00035124694 0.00443392 -0.0131719075 0.020590203 0.0060459413
-0.008611505 -0.009077667 -0.013182151 0.016749376 -0.00094501756 -0.005652432 -0.003155189 0.0027827956
0.00070997374 0.005066422 0.011467408 0.025666142 -0.013883297 -0.0064657903 -0.0029913408 0.005317097
-0.008462497 0.011745682 0.007631258 -0.009978564 -0.008984222 0.0041413186 0.014065438 0.003026833

W4 f4 [64, 32, 3, 3]
00000000: 1cef 123d 9002 b53d 36e0 7f3d 70c2 913e
00000010: 4b8e 2fbe 77eb 253e f1b1 53bd c5da 67be
00000020: 0254 a4be 3de0 8b3d e252 89be c75c 2ebe
00000030: f60a cf3d 7350 893e 945f 623d 5163 143e
00000040: c269 093e 28f5 d2be b703 a83d 5fba 00bf
00000050: 1350 263c 80cb fdbd 0813 923d 6a59 5f3e
00000060: cf4a 023f 4a26 85be 977b da3c 5ec6 cebe
00000070: 4d00 b03d 535f 013e d2c9 6d3d d615 b4be
00000080: ce62 823e a97a 20bd cd6c 033f dea8 033e
00000090: faf0 0bbd 6fa0 31be 9016 223e 13a8 873e
000000a0: 8aef 0bbd a78e 3ebe 2ffb 86be bb96 cabe
000000b0: f080 87be 9f4c 303d 1b65 723d 7949 623e
000000c0: 07c8 a6bb d49c 5d3e 3abf 3a3e 5304 17bd
000000d0: 3eca 433e 84e9 8e3e feaf 48bd b8b9 ac3c
000000e0: 56cf 7a3e af04 d83c 9dad a43d 3679 823e
000000f0: f7e4 ccbc 1267 f7bd 9232 953e 5211 cebe
00000100: 505f ce3d bdd4 023e af0a 903e 586f f33e
00000110: 9ab3 8c3e a74a 3e3d 9cbf bbbc 44d8 1bbe
00000120: d39b 96bd 0b04 2a3e 51bd 83be 7785 e33e
00000130: 9ffe 2f3e 03fa 8fbe 0f39 c93d f69b a03d
00000140: 72fd 243d 2eb7 453e 1ed9 20be 1946 82bd
00000150: 3687 1bbe 170e 8dbd 5cb5 833d 6a29 d6bd
00000160: 536b 22be b417 8cbd 8edd 5dbe ebfe eabd
00000170: eed9 4b3e b3d6 4b3e 19b6 12bd d767 39be
00000180: 3448 e9be b915 ab3e bfd0 a5bd 78ea 68be
00000190: 6e80 61be 383e 063e 1038 eebd 0da2 0bbd
000001a0: 1811 7a3d 4d8a d4bd f64c 1fbe 2003 01bd
000001b0: 8574 9e3d 19dc 06be 8bff 8d3e b9f7 6d3e
000001c0: 4fc5 5cbe a237 2c3b 6458 8d3d 2dc1 143d
000001d0: 8af8 103e e3bc 0dbd 52b6 213e fa76 c13d
000001e0: a120 503d 3a5f fc3e c1d8 6dbd 2a05 cabd
000001f0: 4ba3 9ebe 274c 52bc 56f5 81be ea6c 09bd
00000200: c1ea 9bbe 5ed3 56bc 9e9a c73d 512e fcbe
00000210: 85e2 e4bd ab88 973d aeb8 3bbe dc7a 0dbd
00000220: 136f 7a3e a65d babd d8e0 2d3d d7ab 8abd
00000230: 3c62 87be 74fc e7bd 9e0a 10bd cf40 833e
00000240: 62a6 19bd 7723 82bd f7fb 983e d8c3 43bd
00000250: 95f6 483e 669a 06bd d4e5 23bd f14d 443c
00000260: 476d b33e 561e 2abe 8e6d 82be 6991 b8bd
00000270: c0da c6bc 5749 103e e3f4 473e 843a b1be
00000280: 9695 693d 5b0e 133e 7754 df3e 0b04 c8bc
00000290: 32e2 39bc 07f6 08bd a638 0b3d 9e94 bbbd
000002a0: 74f1 7ebd cb24 05be 8e0e 05be 517d cdbe
000002b0: 06c7 313e 1276 febc b3a9 023e 2d3c d83e
000002c0: 3885 dc3d 337c 7c3b bd67 713e 9b8f 553e
000002d0: 574e babd 5398 cabb 494e 9e3e c04b 033e
000002e0: 8a00 cfbc 623b c9bd 006a a1bd d31a d2be
000002f0: 80f0 7b3b 4db0 a23d 0a8f 6cbd 9c0a 87bd
00000300: 489a f7bc eaad 73be 2a4f c8be 76c4 33be
00000310: 7462 4f3c 3c85 20be 22c9 9dbe 29ec f73d
00000320: fcdf a3be 66e6 943e cba5 29be 5a8e dd3c
00000330: 18c3 e1bd 9536 693d 6acf b43d 0c47 97bd
00000340: 5b79 12be 4bcb 3fbd 519a 4dbe dcf6 003d
00000350: b459 233d 8957 b83c ff7b e63d d92c 10bc
00000360: 7d22 aebd 81bf 5a3e d08e 433e d498 97be
00000370: 193a 043e 959a 1cbe 2afd 693d 10f6 a83e
00000380: 6a34 c53c 1f36 98be 8ec3 573e dd9c 0e3e
00000390: 42df 483b 2d10 95bd 4720 c6be 8225 0bbd
000003a0: 38eb 0f3f 691d 893d ca81 80be 256e 9d3d
000003b0: dd3f 12be 9596 b8be 3d3c a1bd 1d2f 4f3e
000003c0: 1a91 a33e 96ef bbbe cacf 853d ccf9 0bbe
000003d0: 48da f5bd 2e94 b3be 6729 df3c 9318 48bd
000003e0: 24bb 7f3d 1e24 bb3d d566 613e 5dbf a93c
000003f0: 2f9e 6dbd cd78 333d 5823 083e e43a c53d
0.035872564 0.088383794 0.062469684 0.28468657 -0.17144124 0.16203104 -0.05168337 -0.22642048
-0.32095343 0.068298794 -0.26821047 -0.17027579 0.101095125 0.2681919 0.05526693 0.14491011
0.1341925 -0.41202664 0.082038336 -0.5028438 0.010150927 -0.1239233 0.07132536 0.21811453
0.508954 -0.26005775 0.02667026 -0.40385717 0.08593807 0.1263402 0.0580538 -0.3517291
0.25466007 -0.039179478 0.5133789 0.12857386 -0.03416536 -0.17346357 0.1582892 0.26495418
-0.03416399 -0.18609105 -0.26363513 -0.39568123 -0.2646556 0.04304182 0.059178453 0.2209834
-0.005089763 0.21641856 0.1823701 -0.03686936 0.19120118 0.27912533 -0.048995964 0.021084651
0.24493155 0.02636942 0.080409266 0.25483102 -0.025011523 -0.12080206 0.29140145 -0.4024759
0.10076773 0.12776466 0.2813315 0.47545886 0.27480775 0.046457913 -0.022918515 -0.15219218
-0.0735394 0.16603105 -0.25730374 0.44437763 0.17186974 -0.2812043 0.09825336 0.07842247
0.040280767 0.19308159 -0.15707824 -0.06361026 -0.15188298 -0.06887453 0.06431076 -0.10457118
-0.15861253 -0.068404585 -0.21666548 -0.11474403 0.19907352 0.1990612 -0.035818193 -0.18106018
-0.455629 0.3341501 -0.08096456 -0.22745693 -0.22021648 0.13109672 -0.11631787 -0.03409009
0.061051458 -0.10377941 -0.15556702 -0.03149712 0.07737068 -0.13169898 0.27734026 0.2323903
-0.21559642 0.0026278277 0.06901625 0.03631704 0.1415731 -0.034603965 0.15792206 0.09446521
0.050812367 0.49291402 -0.05806804 -0.09864266 -0.30983958 -0.012835539 -0.2538249 -0.033551134
-0.3045254 -0.013111917 0.09746288 -0.49254087 -0.11176018 0.07399114 -0.18332168 -0.034540996
0.24456434 -0.09099893 0.042450756 -0.06771057 -0.26442134 -0.113274485 -0.035166375 0.25635383
-0.03751219 -0.06354421 0.29879734 -0.047794193 0.19625314 -0.03286209 -0.040014103 0.011981473
0.3504431 -0.16613135 -0.2547421 -0.0901211 -0.02427423 0.14090477 0.1952701 -0.34614956
0.057027422 0.14360945 0.4361913 -0.02441599 -0.011345433 -0.033437755 0.03398957 -0.09159206
-0.062241986 -0.13002317 -0.12993833 -0.4013467 0.17361078 -0.03106216 0.12760048 0.4223341
0.10767597 0.0038526177 0.2357473 0.20855562 -0.090969734 -0.0061827092 0.30919102 0.12821865
-0.025268812 -0.098257795 -0.07881546 -0.4103609 0.003844291 0.07943783 -0.0577536 -0.065938205
-0.030224934 -0.23796812 -0.39122897 -0.17555413 0.01265775 -0.15675825 -0.30817515 0.12105591
-0.32006824 0.2908203 -0.16567151 0.027045418 -0.11023539 0.05693682 0.088286236 -0.07386598
-0.14304106 -0.046824735 -0.20078398 0.031485423 0.03988047 0.022502678 0.11254119 -0.008799755
-0.08502672 0.21362115 0.19097447 -0.29608786 0.12912787 -0.15293343 0.0571262 0.3300023
0.024072845 -0.2972879 0.21070692 0.13927026 0.003065065 -0.07278476 -0.386965 -0.033971317
0.5621829 0.06695063 -0.2509902 0.07687024 -0.14282174 -0.36052385 -0.07872818 0.20232816
0.3194664 -0.36706227 0.06533773 -0.13669509 -0.120045245 -0.3507399 0.027241422 -0.04885156
0.06243433 0.09137748 0.22011884 0.020721132 -0.058012184 0.043816376 0.13294733 0.09630373

b4 f4 [64]
00000000: 4d93 07bb fcde e83b 1de2 1b3c 2180 e2bb
00000010: d06e 4f3b 685c 8a3b e59b 4fbc a00a 363c
00000020: 8b62 273d d555 7bbc 1ef3 413c 9344 dd3c
00000030: 83cc 4f3c 00f1 4d3b a91e 2b3c 07fd 823b
00000040: 3db3 363a 9cc9 82bc ead3 18bc dd5f 83bc
00000050: 9147 9b3a 7e5f c8bb 6868 c23b c089 9f3b
00000060: e566 49bc f893 71bb 5e64 623c 2507 ddbb
00000070: 6dd1 073c 1603 39bb b143 53bc 2caf 01bc
00000080: 0780 983b 1873 673c b46d 6a3c b06e 2ebc
00000090: 8057 b1bc 77e9 27bc 89be 26bc fc0f 21bc
000000a0: 5170 363c e741 99bb f6fe e5ba 2f45 993c
000000b0: 4ed9 3f3b 6e3a 34bc 0018 1fbc 2ba0 8c3c
000000c0: a25d 89bc d86d 93bc 0dc1 343c 6b1c 38bc
000000d0: cdaf 41ba 99b4 5cbc 2519 d4bb 14eb 31bc
000000e0: b975 c0bb 4c1a e53c 9dc7 0139 6ff8 623b
000000f0: ebbd 483b 1536 543c 384c a2bb 740b 2c3c
-0.0020687163 0.00710666 0.009514359 -0.006912247 0.0031651743 0.0042224415 -0.0126714455 0.011110932
0.040865462 -0.015340288 0.011837749 0.027010238 0.012683037 0.0031424165 0.010444322 0.0039974484
0.00069694576 -0.015965275 -0.009327868 -0.016036922 0.001184689 -0.006114899 0.0059328564 0.004868716
-0.012292598 -0.0036861878 0.013817875 -0.0067452365 0.008289677 -0.00282306 -0.012894557 -0.007915299
0.004653934 0.014126562 0.014308382 -0.010646507 -0.021648169 -0.010248533 -0.010177263 -0.009830471
0.011135177 -0.0046770456 -0.0017547298 0.018709747 0.002927381 -0.011000259 -0.009710312 0.017166218
-0.01676828 -0.017996714 0.011032355 -0.011237244 -0.0007388562 -0.013470792 -0.006472724 -0.01085927
-0.0058734086 0.02796664 0.0001237676 0.0034632941 0.0030630778 0.012952347 -0.0049529336 0.0105007775
