A3/overfit_deepconvnet.pth (torch, 112160 bytes, 10 tensors)

W1 f4 [8, 3, 3, 3]
0	0xbe40e505	-0.18837364
1	0xbdb79e90	-0.0896579
2	0xbf097fe2	-0.5371076
3	0x3ccb18dc	0.024792127
4	0xbcdbb9df	-0.026822029
5	0xbde30d6b	-0.11086544
6	0xbdfdb8a6	-0.123887345
7	0xbd7859da	-0.060632564
8	0xbe57d5ca	-0.21077648
9	0xbd897f68	-0.06713754
10	0xbea9ac0e	-0.3313908
11	0x3ee4fac2	0.44722563
12	0x3d87a4b5	0.06623212
13	0xbd0a05da	-0.033696987
14	0x3e86e7c4	0.26348698
15	0x3e76dc7e	0.24107549
16	0xbc9e7f7d	-0.0193479
17	0x3e7b4780	0.24538994
18	0x3e9cafec	0.30602968
19	0x3e65034b	0.22364537
20	0xbdc59795	-0.096480526
21	0xbe8a0f44	-0.26964772
22	0xbe05d212	-0.13068417
23	0xbe7a22e7	-0.24427377
24	0x3cd201fd	0.025635714
25	0x3c46857f	0.012116789
26	0x3ec533b9	0.38516024
27	0x3e0ab6f3	0.13546352
28	0xbc5658b6	-0.013082674
29	0xbe201c13	-0.1563571
30	0x3e885fcb	0.26635584
31	0xbd676576	-0.056493245
32	0xbddf8857	-0.10914677
33	0xbd4dee71	-0.050276224
34	0xbe2817e0	-0.16415358
35	0xbe187d5f	-0.14891575
36	0xbe1f26ef	-0.15542196
37	0xbb6f2de1	-0.0036495852
38	0x3e0252c0	0.12726879
39	0x3e986756	0.2976634
40	0x3be2e50c	0.006924277
41	0x3dd44346	0.10364394
42	0x3eaf32c2	0.34218413
43	0x3e237379	0.15962018
44	0xbcc2ee44	-0.023795255
45	0x3e4e44b0	0.2014339
46	0xbe913ac8	-0.2836516
47	0xbe0d1a17	-0.13779484
48	0xbd171d97	-0.036893453
49	0x3daaa3cf	0.08332025
50	0x3dae3c98	0.08507651
51	0x39abebb8	0.00032791286
52	0x3e49a1da	0.19690648
53	0xbe5d2231	-0.21595074
54	0x3cc140dc	0.023590498
55	0x3dd2ba81	0.10289479
56	0xbde2915e	-0.11062883
57	0xbd8eae99	-0.069668956
58	0xbdc68956	-0.096941635
59	0x3e43310a	0.19061676
60	0x3d41f07a	0.047348477
61	0x3ce75138	0.02823697
62	0x3dea2951	0.11433662
63	0xbe64a149	-0.2232715
64	0xbc4aad39	-0.012370401
65	0xbe539feb	-0.20666473
66	0x3e3aa693	0.18227606
67	0xbe718bec	-0.23588532
68	0xbe568e42	-0.20952705
69	0x3be05292	0.0068457806
70	0x3df63989	0.12022693
71	0xbdb22fcf	-0.08700525
72	0xbe0724e7	-0.13197671
73	0xbdd9ed9d	-0.10641024
74	0x3e025394	0.12727195
75	0xbe9c61c1	-0.3054333
76	0x3db2b452	0.087257996
77	0xbc343262	-0.01099834
78	0x3d8da6f8	0.069166124
79	0xbdd152a6	-0.10220842
80	0xbd691c65	-0.056911845
81	0x3e2aabc8	0.16667092
82	0xbf1b1b4d	-0.6058853
83	0x3d9652f6	0.07340042
84	0xbaaf97e8	-0.0013396712
85	0x3e9a932b	0.30190405
86	0x3b408ed6	0.0029382012
87	0x3ccf5af4	0.025311925
88	0x3d0bb2c7	0.034106042
89	0xbd8500a8	-0.06494266
90	0x3e534f7c	0.2063579
91	0x3eb4c397	0.35305473
92	0x3cd499de	0.025952276
93	0x3de25295	0.110509075
94	0x3e7d6009	0.24743666
95	0xbe3dcc0d	-0.1853487
96	0xbce682c2	-0.028138522
97	0xbe9dcfa5	-0.30822483
98	0xbe4bd6da	-0.19906178
99	0xbdb12370	-0.08649337
100	0x3cbafe20	0.022826254
101	0xbc445165	-0.011982297
102	0x3df0f618	0.11765689
103	0x3e3e08bc	0.1855802
104	0xbea3d6f9	-0.3199995
105	0x3d99b64a	0.07505472
106	0x3e0ba2d2	0.1363633
107	0xbe3a0e7e	-0.18169591
108	0x3e0e2994	0.13883048
109	0xbd8167a0	-0.06318593
110	0xbebf1597	-0.3732116
111	0xbcdf86ef	-0.027286021
112	0x3ec7721d	0.3895425
113	0x3defb9ad	0.11705337
114	0x3e589ded	0.21153994
115	0xbe907f70	-0.28222227
116	0xbd6d06ce	-0.057867818
117	0xbe9103a8	-0.28323102
118	0x3ea09063	0.31360158
119	0x3c1b8e02	0.0094943065
120	0x3ede8968	0.43464208
121	0xbe3767f6	-0.17910752
122	0x3eb3110d	0.34973946
123	0xbd812d46	-0.06307463
124	0xbe45e143	-0.19324212
125	0xbd550064	-0.052002326
126	0xbd5bc74c	-0.05365686
127	0xbccb3677	-0.024806244
128	0xbe5aaf02	-0.21355823
129	0xbdcf00f6	-0.10107605
130	0xbdee7626	-0.11643629
131	0x3edd17ac	0.43182123
132	0xbe8f0bd6	-0.27938718
133	0x3e82e1ad	0.25562802
134	0xbed90987	-0.4239008
135	0xbe3af078	-0.18255794
136	0x3d458a1b	0.04822741
137	0xbe235d89	-0.1595365
138	0xbd0a9079	-0.033829186
139	0xbd8064b6	-0.06269209
140	0x3d8c7013	0.06857314
141	0xbce1560b	-0.027506849
142	0x3dac68b3	0.08418407
143	0xbe3ae8aa	-0.18252817
144	0xbdb40219	-0.087894626
145	0x3dd46546	0.10370879
146	0x3b6be1d1	0.0035992751
147	0x3ea38b58	0.31942248
148	0xbd9a05a2	-0.075206056
149	0xbd45359c	-0.04814683
150	0xbd097833	-0.033561897
151	0x3d34bf4c	0.044127747
152	0x3cbcac14	0.023031272
153	0xbe997d22	-0.2997828
154	0xbcd50991	-0.026005538
155	0xbd858c39	-0.06520886
156	0x3e4cae4a	0.19988361
157	0x3e802ef8	0.25035834
158	0x3e0b1947	0.13583861
159	0xbe35221d	-0.17688794
160	0x3da20e2f	0.079128616
161	0xbdd77816	-0.105209514
162	0xbe4315f8	-0.19051349
163	0x3e473e2e	0.19457313
164	0x3d969fa9	0.073546715
165	0xbdac22ac	-0.08405051
166	0xbe9d6b33	-0.3074585
167	0x3e5430c7	0.20721732
168	0xbdec3240	-0.11533022
169	0x3d53ac69	0.051678095
170	0xbd73f2e4	-0.05955781
171	0x3d2fde89	0.042936835
172	0xbee08ae3	-0.43855962
173	0x3def8f45	0.11697248
174	0xbe6e51d9	-0.2327341
175	0x3ea4a133	0.32154235
176	0x3ceb8f6e	0.028754916
177	0xbdaf9871	-0.08573998
178	0x3dc85728	0.09782249
179	0x3d0556af	0.03255337
180	0xbe8ca899	-0.2747238
181	0x3ec12600	0.37724304
182	0xbe6481db	-0.22315161
183	0x3d6eec97	0.0583311
184	0xbe0b1965	-0.13583906
185	0x3e03b60b	0.12862413
186	0xbe2cc2fe	-0.16871259
187	0xbcd39d7b	-0.025831928
188	0x3d0884ef	0.0333299
189	0x3d558757	0.052131023
190	0xbe0995cc	-0.13436049
191	0xbd9b922e	-0.07596241
192	0xbc854f0f	-0.01627305
193	0xbe82aed2	-0.25524002
194	0xbe2af21a	-0.16693917
195	0xbd99227c	-0.074772805
196	0x3da8f1d3	0.08249249
197	0x3d5f17db	0.05446611
198	0xbe8932f6	-0.26796693
199	0xbdbf1624	-0.09330395
200	0xbd93d56a	-0.0721844
201	0xbe96e47f	-0.29471204
202	0xbe61d696	-0.22054514
203	0xbd396d6f	-0.04527038
204	0xbe0c45a9	-0.13698448
205	0xbedee52e	-0.43534225
206	0xbdaaf1c6	-0.08346896
207	0x3baace9a	0.005212617
208	0x3d67fc8a	0.056637324
209	0x3e819b41	0.25313762
210	0xbb8a1109	-0.0042134565
211	0x3da2ec1c	0.079551905
212	0xbe7c79f5	-0.24655898
213	0x3e9fa916	0.3118369
214	0x3dd5d6da	0.1044137
215	0xbe84cb71	-0.25936463

b1 f4 [8]
0	0xba456311	-0.00075297157
1	0x3c71a8e8	0.014749743
2	0xbc139eb5	-0.009010007
3	0x3c550e47	0.013003892
4	0xbb14e12c	-0.002271722
5	0xbc1a1dc1	-0.009406508
6	0xbb23f04c	-0.0025015054
7	0xbb66eb94	-0.003523563

W2 f4 [16, 8, 3, 3]
0	0x3d23b161	0.039964084
1	0xbdcf88f3	-0.10133543
2	0x3e3fb1cc	0.18720168
3	0xbe198f24	-0.1499601
4	0x3e8e9590	0.27848482
5	0x3e3aa4ae	0.18226883
6	0x3c8141ee	0.015778508
7	0xbe392995	-0.18082269
8	0x3e31664e	0.17324182
9	0x3e323ac3	0.17405228
10	0xbe49f8c9	-0.1972381
11	0xbd7da44b	-0.06192426
12	0x3dd92832	0.1060337
13	0x3dad9307	0.08475309
14	0xbe01e794	-0.12685996
15	0xbca6070b	-0.02026703
16	0xbd92bc9f	-0.07164883
17	0x3eb3f9f3	0.35151634
18	0xbe295818	-0.16537511
19	0x3eac5bfa	0.33663923
20	0x3dbbac4e	0.09163724
21	0xbde28486	-0.11060433
22	0x3d274db4	0.040845588
23	0xbc6d5271	-0.014484988
24	0xbd92508a	-0.07144268
25	0xbe1fb2d0	-0.15595555
26	0x3e54db8d	0.20786877
27	0xbdd731dc	-0.10507557
28	0x3e18d522	0.14925054
29	0x3e058a9c	0.13041157
30	0x3ec2dafa	0.3805769
31	0x3d8b50f2	0.068025485
32	0xbcfa80db	-0.030579021
33	0xbdbd6221	-0.09247232
34	0x3f189a10	0.5961008
35	0xbcb35f5b	-0.021896055
36	0xbdaa09b3	-0.08302631
37	0xbc4373ad	-0.011929435
38	0x3ed4e9bd	0.41584578
39	0x3ec3895e	0.3819074
40	0xbdcb1b4f	-0.09917318
41	0xbd03a7f1	-0.032142583
42	0x3c2edcc8	0.010672756
43	0xbd86f097	-0.065888576
44	0x3ee77d1c	0.45212638
45	0x3cbdbb7e	0.023160692
46	0x3c36996f	0.01114498
47	0x3dbb28f7	0.09138673
48	0xbe973607	-0.29533407
49	0xbe2f2ccf	-0.17106937
50	0x3ed4d896	0.41571492
51	0x3d2be3d5	0.041965324
52	0xbec0601e	-0.37573332
53	0x3f02c88c	0.5108726
54	0x3e54160d	0.20711537
55	0xbebf3c4e	-0.37350696
56	0xbe337249	-0.17524065
57	0xbd726cf1	-0.059185926
58	0x3e69d1f8	0.22834003
59	0xbd244d10	-0.040112555
60	0xbe356a03	-0.17716222
61	0x3e0683d3	0.13136224
62	0x3dd37181	0.103243835
63	0x3daabb50	0.08336508
64	0x3edca019	0.43090895
65	0xbe7749f8	-0.2414931
66	0xbd594544	-0.053044572
67	0xbd22e400	-0.03976822
68	0x3d563e83	0.05230571
69	0xbde7faae	-0.1132711
70	0xbe8e45fe	-0.27787775
71	0x3e01f155	0.12689717
72	0xbcf67f24	-0.030089922
73	0x3e16c955	0.1472524
74	0xbe95feeb	-0.2929605
75	0xbe04b158	-0.12958276
76	0x3e701a24	0.23447472
77	0xbeb79078	-0.35852408
78	0x3ca0942b	0.019601902
79	0xbd949565	-0.07255057
80	0xbe414d0f	-0.18877052
81	0x3d3ad148	0.045609742
82	0x3c5c12a4	0.013432179
83	0x3e000fe1	0.12506057
84	0x3e6078b4	0.21921045
85	0x3dc9385e	0.09825204
86	0xbde04281	-0.109501846
87	0x3dbcd800	0.09220886
88	0x3d8433de	0.064552054
89	0x3e48eeed	0.19622393
90	0xbd44db41	-0.04806066
91	0xbdf4996d	-0.11943326
92	0x3dc71d8a	0.09722431
93	0xbc2e2273	-0.0106283305
94	0x3ecb046f	0.3965182
95	0xbe079fe3	-0.13244586
96	0xbe694d9d	-0.22783513
97	0x3d96a88b	0.07356366
98	0xbde2bc28	-0.11071044
99	0xbd6cfeb0	-0.057860076
100	0x3dc2835a	0.094977096
101	0xbd875d33	-0.06609573
102	0x3dbc85d0	0.0920521
103	0xbe168b49	-0.1470157
104	0xbdb3637e	-0.08759211
105	0x3cf59c73	0.029981827
106	0x3e48b67d	0.19600864
107	0xbd962ed7	-0.07333153
108	0xbe30d4de	-0.17268702
109	0xbe27d600	-0.16390228
110	0xbe921671	-0.28532746
111	0xbdcebee5	-0.10095004
112	0xbe38971a	-0.1802639
113	0xbd636f19	-0.055525873
114	0x3e84bbc2	0.25924498
115	0xbe967292	-0.29384285
116	0x3e10388e	0.14084074
117	0xbe99ea57	-0.300616
118	0x3cac8b42	0.021062497
119	0x3db46252	0.088078156
120	0x3e08af5d	0.13348146
121	0xbe15318f	-0.14569686
122	0x3d8ce8a6	0.06880312
123	0x3eae6b9d	0.34066477
124	0x3d289b72	0.04116387
125	0x3cd03eff	0.025420664
126	0x3e85a6a2	0.26103693
127	0xbdc8c75b	-0.09803649
128	0x3dd4e4e7	0.10395222
129	0x3e6c1cc7	0.23057853
130	0xbe62c3c7	-0.22144996
131	0x3e970c9c	0.29501808
132	0xbe9a583d	-0.30145445
133	0x3e06dd98	0.13170469
134	0x3c972c99	0.018453883
135	0xbdb9a51e	-0.09064697
136	0x3e832350	0.2561288
137	0x3e38fa5f	0.18064259
138	0xbe3281f0	-0.1743238
139	0x3e9960bc	0.29956615
140	0xbe3da400	-0.18519592
141	0x3e880dbe	0.26572984
142	0x3eed59ad	0.4635748
143	0x3e5b26be	0.21401498
144	0x3e7703b4	0.24122506
145	0xbe825889	-0.25458172
146	0xbe37335b	-0.17890684
147	0xbd6bfed1	-0.05761606
148	0xbe2046f5	-0.15652068
149	0x3e46a187	0.19397555
150	0xbcd5f043	-0.026115542
151	0xbecf2c96	-0.40463704
152	0xbe0c28f1	-0.13687493
153	0xbdb98262	-0.09058072
154	0xbe24bd4e	-0.16087839
155	0x3d8722d1	0.065984376
156	0x3da0a433	0.078438185
157	0x3d342694	0.043982103
158	0x3c09fd06	0.008422142
159	0xbdfd9ae4	-0.12383059
160	0xbdeedccf	-0.1166321
161	0x3d8f624f	0.07001173
162	0xbebe1f7a	-0.3713339
163	0x3edaac7d	0.42709723
164	0xbdb3d8db	-0.08781596
165	0x3ca0f2b0	0.019646972
166	0x3e2a920c	0.16657275
167	0x3d4d275e	0.05008637
168	0x3e191ec2	0.1495314
169	0xbd782932	-0.060586162
170	0xbe939416	-0.28823918
171	0x3e80568c	0.2506603
172	0xbc8b6f9e	-0.017020997
173	0x3e60ab72	0.21940401
174	0x3e2134b4	0.15742761
175	0xbe730775	-0.23733313
176	0x3f11f65f	0.5701656
177	0xbe0541d0	-0.13013387
178	0x3bc38b79	0.005967554
179	0x3e47eed1	0.19524695
180	0x3c8d4b67	0.017247869
181	0x3dacbb82	0.08434202
182	0x3e8fbb83	0.28072748
183	0xbe8072c7	-0.25087568
184	0xbdcb9b38	-0.09941715
185	0xbbc81243	-0.0061056926
186	0xbdf74e0b	-0.120754324
187	0x3d358a4f	0.044321354
188	0xbb45ef58	-0.0030202474
189	0xbc962240	-0.018326879
190	0xbdb0c4bd	-0.08631275
191	0x3e16ef18	0.14739645
192	0x3e3969ed	0.18106814
193	0xbe633028	-0.22186339
194	0x3e2da156	0.16956076
195	0xbe4257d3	-0.18978815
196	0xbddb6a2b	-0.10713609
197	0x3db36a3d	0.08760498
198	0x3e5d6306	0.21619806
199	0x3e19105c	0.14947647
200	0x3db50bd1	0.088401444
201	0x3ead47bf	0.338438
202	0xbde1d8bf	-0.11027669
203	0x3e48de65	0.19616087
204	0x3dbe4727	0.09290915
205	0x3c846fed	0.016166652
206	0xbe8ad405	-0.27114883
207	0xbe1e167a	-0.15438262
208	0x3d0f2a43	0.034952413
209	0x3e5df05f	0.21673726
210	0xbe1faa4d	-0.15592308
211	0x3db85fd0	0.0900265
212	0xbe13809e	-0.14404532
213	0xbea4f846	-0.32220668
214	0xbed384d0	-0.41312265
215	0xbde23e8d	-0.11047087
216	0x3e8483dd	0.25881854
217	0x3e098af2	0.1343191
218	0x3da5cb2a	0.08095391
219	0xbd153be6	-0.036434077
220	0xbc442e8b	-0.011973987
221	0xbdcc6a5e	-0.099812254
222	0xbe2c89af	-0.16849397
223	0xbb35f48f	-0.0027764176
224	0x3e55f45c	0.20893997
225	0xbd502f33	-0.050826263
226	0x3e26f102	0.16302875
227	0xbc89109f	-0.016731558
228	0xbcfce3d6	-0.03087036
229	0x3e34d908	0.17660916
230	0xbea5cc36	-0.32382363
231	0xbe76eac3	-0.24112992
232	0xbe54b8d1	-0.20773627
233	0xbe1069b7	-0.14102827
234	0xbdf0de74	-0.117611796
235	0xbe69a813	-0.22818021
236	0xbeb72c97	-0.35776207
237	0x3e93b6f3	0.28850517
238	0x3e4766df	0.19472836
239	0x3bce2eae	0.0062921857
240	0x3dd0fb51	0.10204185
241	0x3e90b740	0.2826481
242	0xbdba6195	-0.091006435
243	0x3e7d9b89	0.24766363
244	0xbe198c8d	-0.14995022
245	0x3dcf7396	0.10129468
246	0x3e432085	0.19055374
247	0x3e5761cc	0.210334
248	0xbe4b58ae	-0.19858047
249	0xbcc9a9d0	-0.024617106
250	0x3c852c1f	0.01625639
251	0xbe754b0d	-0.23954411
252	0xbe48135f	-0.1953864
253	0x3cb679fd	0.022274965
254	0xbeb60882	-0.35553366
255	0x3d314bf7	0.043285336

b2 f4 [16]
0	0xba939d04	-0.0011262004
1	0x3a531550	0.0008052187
2	0x3aa4be0b	0.0012568844
3	0xbab10b23	-0.0013507347
4	0xbc18d4f0	-0.009328112
5	0x3a7f41bd	0.0009737274
6	0x3b8aba27	0.004233617
7	0x3be3d1eb	0.0069525144
8	0xb9a755ac	-0.00031916553
9	0x3c00c055	0.0078583555
10	0xbc0c0912	-0.008547084
11	0xbc881d73	-0.016615605
12	0xbc4219e5	-0.011846994
13	0x3c55baa1	0.013044984
14	0x3bc223b6	0.005924667
15	0xbc0c899a	-0.008577729

W5 f4 [256, 10]
0	0xbe299596	-0.16560969
1	0x3e9d47ec	0.30718935
2	0xbe0c0798	-0.13674772
3	0x3ea53c50	0.32272577
4	0x3da0d8b1	0.078538306
5	0xbd6d9135	-0.05799981
6	0xbe8abe95	-0.27098528
7	0x3cde9e4b	0.02717509
8	0xbdd12613	-0.1021234
9	0x3e5045f8	0.20339191
10	0xbe0cb831	-0.13742138
11	0xbec5ecec	-0.3865732
12	0x3ebecbb5	0.3726479
13	0xbb971734	-0.0046109203
14	0xbe158d49	-0.14604677
15	0x3e83826f	0.2568545
16	0xbe48abf3	-0.19596843
17	0x3eb63312	0.3558584
18	0xbe0e2966	-0.1388298
19	0xbec426ba	-0.38310796
20	0xbd7118f8	-0.058861703
21	0x3ca56ec0	0.020194411
22	0xbe9b32df	-0.3031225
23	0xbdd11a33	-0.10210075
24	0xbed6d86d	-0.41961995
25	0x3e75e63d	0.2401361
26	0x3ea6bf1d	0.32567683
27	0xbe21f397	-0.15815578
28	0x3d10c738	0.03534624
29	0xbc146650	-0.009057596
30	0x3e5d0b7f	0.21586417
31	0xbd983f2a	-0.074339226
32	0x3eb3cc7b	0.35116944
33	0x3e2cea26	0.16886196
34	0x3d41f712	0.047354765
35	0xbb3e4c2f	-0.0029037108
36	0xbc921480	-0.01783204
37	0xbe4d9b32	-0.20078734
38	0xbda5ab85	-0.080893554
39	0xbded4c14	-0.115867764
40	0xbd8e6895	-0.06953541
41	0xbded74d7	-0.11594551
42	0x3e48d084	0.19610792
43	0xbd3df4f1	-0.046376172
44	0x3ead5742	0.33855635
45	0xbb8f1859	-0.004366916
46	0xbd5b9265	-0.05360641
47	0xbdd35861	-0.10319591
48	0xbd60c671	-0.05487675
49	0xbed45cd8	-0.41477084
50	0xbdacaec4	-0.084317714
51	0xbcf758d4	-0.030193724
52	0xbe1fbf1d	-0.15600248
53	0x3e1f764b	0.15572469
54	0xbdb63ce7	-0.08898335
55	0xbe4a46e8	-0.19753611
56	0xbe741e1f	-0.23839615
57	0x3d4da761	0.050208453
58	0x3d34cf1c	0.044142827
59	0xbd1c3cf0	-0.038144052
60	0xbe4bc6ec	-0.19900101
61	0x3d906657	0.0705077
62	0x3d0dbda2	0.034604676
63	0x3c46ac11	0.012125985
64	0xbdc0b29e	-0.094090685
65	0x3d63f6e8	0.05565539
66	0x3d90d46f	0.070717685
67	0xbdd85e6b	-0.10564884
68	0xbe0f7aa7	-0.14011632
69	0x3d158b34	0.036509708
70	0xbdbb88aa	-0.09156926
71	0x3d575e1c	0.052579984
72	0x3e971c10	0.29513597
73	0x3c03a4c6	0.0080348905
74	0xbd6ebd00	-0.058285713
75	0x3ee20606	0.4414522
76	0xbdc5cefe	-0.09658621
77	0xbe00d236	-0.12580189
78	0x3ec4bc3a	0.38424855
79	0xbd333fcb	-0.04376201
80	0x3d716899	0.058937643
81	0xbbf8d319	-0.007593524
82	0x3cc30878	0.02380775
83	0x3e2553c8	0.16145241
84	0x3eb0fd8d	0.34568444
85	0xbe375b86	-0.17906007
86	0xbda712b7	-0.081578664
87	0x3db0bcf9	0.08629794
88	0x3d0af83a	0.033928134
89	0xbd42552d	-0.04744451
90	0x3d4acc37	0.04951116
91	0x3ea205e9	0.31645134
92	0x3e8e9edf	0.27855584
93	0x3cb1239c	0.021623425
94	0x3ca33770	0.019923896
95	0xbd3d3b70	-0.046199262
96	0x3c12e1e6	0.008964991
97	0xbdfed5c7	-0.124431185
98	0x3d0651ca	0.032792844
99	0x3d738739	0.05945513
100	0xbe0775dc	-0.13228554
101	0xbd2031b0	-0.039109886
102	0xbba65e4e	-0.00507716
103	0xbe0961bc	-0.13416189
104	0xbe41861d	-0.18898816
105	0xbf0546e7	-0.52061313
106	0xbe2e0c63	-0.16996913
107	0xbde107c7	-0.109878115
108	0xbec04dc6	-0.37559336
109	0xbe0a8d66	-0.13530502
110	0xbcc1fd05	-0.02368022
111	0xbdec5083	-0.11538794
112	0x3e67b721	0.22628452
113	0x3d3db550	0.04631549
114	0x3e657ed9	0.2241167
115	0xbc1478ec	-0.009062033
116	0x3e561279	0.20905484
117	0x3e8773f5	0.26455656
118	0xbd1e2530	-0.038609684
119	0xbdac4c1c	-0.08412954
120	0xbbf1e0aa	-0.0073815184
121	0x3e8cdfee	0.27514595
122	0x3e24fb96	0.16111597
123	0x3c3f0315	0.01165845
124	0x3d9370e2	0.07199265
125	0x3e0ebbd2	0.13938835
126	0x3dee4fa3	0.11636283
127	0x3b9c3864	0.0047674645
128	0xbd816aa8	-0.06319171
129	0xbe22f971	-0.15915467
130	0x3be2de85	0.006923499
131	0x3e908efa	0.28234082
132	0x3c1fe7e9	0.0097598815
133	0x3e2284c3	0.15870957
134	0xbdd4b8db	-0.10386821
135	0x3e236616	0.15956911
136	0x3d0eb8bb	0.03484414
137	0xbe127e7b	-0.14306061
138	0xbe047bb9	-0.12937821
139	0xbda5721a	-0.08078404
140	0x3c97491a	0.018467475
141	0xba26550b	-0.000634507
142	0xbce1b583	-0.027552372
143	0x3e3539d3	0.1769784
144	0xbe09b522	-0.13448003
145	0xbca66933	-0.020313835
146	0x3e9560fc	0.29175556
147	0xbe59724c	-0.21235007
148	0x3e847669	0.2587159
149	0xbd63e1a5	-0.055635113
150	0x3d61d3ef	0.055133756
151	0x3e45a4b9	0.19301118
152	0xbe39688f	-0.18106292
153	0x3d9c34cb	0.07627257
154	0xbe519348	-0.2046634
155	0xbddcc90b	-0.107805334
156	0x3e9608ce	0.29303592
157	0xbe06c465	-0.13160856
158	0x3dffa254	0.124821335
159	0x3e52ca2a	0.20584932
160	0xbdaba070	-0.083802104
161	0x3d334e20	0.043775678
162	0x3dd34952	0.10316719
163	0x3e283b61	0.16428901
164	0xbeb118fe	-0.3458938
165	0xbe766215	-0.24060853
166	0x3e83a347	0.25710508
167	0xbe946a2a	-0.28987247
168	0x3e023784	0.1271649
169	0x3d4e2f3f	0.050338026
170	0x3ce6954a	0.028147358
171	0xbb477261	-0.0030433165
172	0xbdbbf85d	-0.09178231
173	0xbef37d1b	-0.47556385
174	0xbe889e62	-0.26683336
175	0x3dc50620	0.09620309
176	0xbc9378fb	-0.018002024
177	0x3e76526b	0.24054877
178	0xbdffb5cc	-0.12485847
179	0xbe17e7b5	-0.14834483
180	0x3e5687d9	0.2095026
181	0x3dd43a75	0.10362712
182	0x3e759978	0.23984325
183	0x3e5a2990	0.21304917
184	0x3eb74269	0.35792854
185	0xbe6f6146	-0.2337695
186	0x3ebdaa07	0.37043783
187	0xbe07a054	-0.13244754
188	0xbe461791	-0.19344927
189	0x3e051c57	0.12999092
190	0xbdfcada1	-0.123378046
191	0xbe28f14c	-0.16498297
192	0x3d85789d	0.06517146
193	0xbdedbe79	-0.116085954
194	0xbe86707e	-0.262577
195	0xbf098743	-0.5372202
196	0x3ddb03de	0.10694097
197	0x3e8eebc4	0.2791425
198	0xbdd01b3c	-0.101614445
199	0x3e3ebc0d	0.18626423
200	0x3ca7adcc	0.020468615
201	0x3e5f146d	0.21785136
202	0xbef49fe6	-0.47778243
203	0x3df666a4	0.12031296
204	0x3e97a7a2	0.2962008
205	0xbe88f904	-0.26752484
206	0x3d9e1767	0.077193074
207	0xbda86e1d	-0.082241274
208	0x3dbbd6cf	0.09171831
209	0x3df52aa5	0.119710244
210	0x3cc8fb19	0.024533795
211	0xbdee748a	-0.11643322
212	0x3d10ea71	0.03537983
213	0x3db3e2c7	0.08783489
214	0xbeb0c1dd	-0.34522906
215	0xbe6726ad	-0.22573347
216	0xbccfbce1	-0.02535862
217	0xbd9ddd7b	-0.0770826
218	0xbc3086ef	-0.010774358
219	0xbc2e4914	-0.01063754
220	0xbbc3b552	-0.005972543
221	0x3eeeae87	0.4661753
222	0x3dcdb947	0.100451045
223	0x3edc9529	0.4308255
224	0xbee2e112	-0.4431234
225	0xbd956536	-0.07294695
226	0xbe40c9da	-0.18827
227	0x3e323e33	0.1740654
228	0x3e9017d9	0.28143194
229	0xbe886fd2	-0.26647812
230	0xbd3040e1	-0.043030623
231	0xbf03d2f8	-0.5149379
232	0xbe926148	-0.28589845
233	0xbe6ed1c5	-0.23322208
234	0x3da37e0b	0.07983025
235	0x3ca89441	0.020578505
236	0xbe802e42	-0.25035292
237	0xbd3e72e0	-0.046496272
238	0xbe43a07a	-0.19104186
239	0xbd46d93e	-0.048547022
240	0xbd305026	-0.043045186
241	0x3e31837b	0.17335312
242	0x3d7e96b7	0.06215545
243	0xbc9dea03	-0.019276625
244	0x3d4f9293	0.050676893
245	0xbe0b732c	-0.13618153
246	0xbdc41fe5	-0.09576396
247	0x3d982024	0.07428005
248	0xbea9aace	-0.33138126
249	0x3c36ddc7	0.011161274
250	0x3e059ae4	0.13047367
251	0xbc1ef20d	-0.009701264
252	0x3b3aa775	0.002848116
253	0x3c393b99	0.011305713
254	0xbe88d7a0	-0.2672701
255	0x3e8425c9	0.25810078

b5 f4 [10]
0	0xbb23073c	-0.0024876138
1	0xbc6288bd	-0.013826546
2	0x3c5fa4d9	0.013650143
3	0x3bfbfa7b	0.0076897717
4	0x3c0c991c	0.008581426
5	0xbc3b587e	-0.011434672
6	0x38299bd4	4.0437866e-05
7	0xbc468235	-0.012116005
8	0x3c74423f	0.014908372
9	0x3bc864ad	0.006115517

W3 f4 [32, 16, 3, 3]
0	0x3d8aa452	0.06769623
1	0xbe959c65	-0.29220882
2	0xbe31ea3e	-0.17374513
3	0x3d676938	0.05649683
4	0xbe305d96	-0.172232
5	0x3e010abd	0.12601753
6	0xbdc3cd75	-0.09560672
7	0x3d9fb047	0.07797294
8	0xbced6b26	-0.028981756
9	0xbd884cc1	-0.06655265
10	0xbe81fb9c	-0.25387275
11	0x3ddd0237	0.10791438
12	0xbdb492a7	-0.08817034
13	0x3e183593	0.14864187
14	0xbe307356	-0.17231497
15	0x3db8f7bc	0.090316266
16	0x3e2c4db7	0.16826521
17	0x3e7d0fcc	0.24713057
18	0xbddbba44	-0.10728887
19	0xbe71c7ac	-0.23611325
20	0x3e5c6cc6	0.21525869
21	0x3d9f108b	0.07766827
22	0x3e3bc165	0.18335493
23	0xbd406ae8	-0.046976954
24	0xbf046d5e	-0.5172938
25	0x3dfb296e	0.122637615
26	0xbef04233	-0.46925506
27	0x3e57c47a	0.21071044
28	0x3e5d3783	0.21603207
29	0x3db34170	0.087527156
30	0xbda76472	-0.08173455
31	0x3ea91327	0.33022425
32	0x3da40b32	0.08009948
33	0x3d9188f3	0.07106199
34	0x3ed55a68	0.41670537
35	0xbe66ecc3	-0.22551255
36	0x3caf6ee7	0.021415187
37	0xbeed7d1d	-0.46384516
38	0xbdf29873	-0.11845484
39	0xbd5cbecf	-0.053892907
40	0xbb0492ee	-0.0020229178
41	0x3e25ba47	0.1618434
42	0xbe316f3d	-0.1732759
43	0xbe8c6e42	-0.2742787
44	0xbe88f30f	-0.2674794
45	0x3ca87f5a	0.020568538
46	0xbe97c36b	-0.2964128
47	0xbe846f37	-0.258661
48	0x3e562914	0.20914108
49	0x3e7949b5	0.24344523
50	0x3e1b7a63	0.15183406
51	0x3e257399	0.16157378
52	0x3ec39cf1	0.38205674
53	0xbf448ea6	-0.76780164
54	0x3d8e7666	0.069561765
55	0x3ccf7ba4	0.025327511
56	0xbdf1074b	-0.11768969
57	0xbe9cdd23	-0.30637464
58	0xbdacc3e4	-0.08435801
59	0x3f23ea87	0.64029735
60	0x3c1b4a48	0.009478159
61	0x3e1fe502	0.15614703
62	0xbe4cebce	-0.20011827
63	0x3e66a3f1	0.22523476
64	0x3ebcdcb3	0.3688713
65	0x3e1af171	0.15131165
66	0xbda57055	-0.08078066
67	0xbe93c34f	-0.28859946
68	0x3ca46353	0.020066893
69	0x3bb51f46	0.0055274097
70	0xbe81273b	-0.25225243
71	0xbd93520c	-0.071933836
72	0x3ccb589b	0.024822524
73	0xbe3b2e78	-0.18279445
74	0xbda8cd3e	-0.08242272
75	0x3d0ef5d3	0.034902405
76	0x3e39f6b8	0.18160522
77	0x3e8012fe	0.2501449
78	0x3da4ec9f	0.080529444
79	0x3eea6e81	0.45787433
80	0x3e3f41cb	0.18677442
81	0x3e9c79a3	0.3056155
82	0x3e6ded8a	0.23235145
83	0x3dccda9d	0.10002635
84	0x3def6e21	0.11690927
85	0x3e43bd9d	0.191153
86	0x3d60423f	0.054750677
87	0x3e12c415	0.14332612
88	0x3d0dc09d	0.03460752
89	0x3e21f8e5	0.15817602
90	0xbe136627	-0.14394437
91	0x3d9fdf4b	0.07806262
92	0xbd516483	-0.051121246
93	0x3dfec9a2	0.12440802
94	0x3e55d74e	0.20882913
95	0x3e64dff9	0.22351064
96	0xbe933234	-0.2874924
97	0x3e6a9c35	0.22911151
98	0xbd83c392	-0.064337865
99	0xbe1a4d7c	-0.1506862
100	0x3d325364	0.04353656
101	0xbe9dc60a	-0.30815154
102	0x3e96214c	0.29322278
103	0x3e729644	0.23690134
104	0xbe1df054	-0.15423709
105	0x3e933bbc	0.2875651
106	0x3d518905	0.051156063
107	0x3dcd5544	0.10026029
108	0x3d72cbfa	0.05927656
109	0x3ea5429b	0.32277378
110	0x3dc3a695	0.095532574
111	0x3e712bc4	0.23551852
112	0x3e9bf4ca	0.30460197
113	0x3d5fecae	0.054669075
114	0xbcda8bd9	-0.026678013
115	0x3dcaca9f	0.09901928
116	0x3ec3a964	0.38215172
117	0x3ed67cea	0.41892177
118	0x3e3b27cd	0.18276902
119	0x3e8ee09e	0.27905744
120	0xbdff2baa	-0.124595
121	0xbe46fe9f	-0.19433068
122	0x3d4111d7	0.047136154
123	0x3de76856	0.112991974
124	0xbc9f108d	-0.019417072
125	0x3e75c7ee	0.24002048
126	0x3e159797	0.14608608
127	0xbdcf726d	-0.10129247
128	0xbe1e92d8	-0.15485704
129	0x3e3a484a	0.18191639
130	0x3e3ee9ed	0.18643923
131	0x3d630b20	0.05543053
132	0x3d25a56d	0.040440965
133	0x3d63ca87	0.055613067
134	0xbe71c13a	-0.23608866
135	0x3e902c28	0.2815869
136	0x3e012db6	0.12615094
137	0x3e3cce62	0.18438104
138	0x3ea2d1c7	0.31800672
139	0xbd45a411	-0.04825217
140	0xbea1965e	-0.31560034
141	0x3e992691	0.29912236
142	0xbcb5c523	-0.022188729
143	0x3e9158ea	0.2838815
144	0x3efd69cc	0.4949478
145	0xbec20f0f	-0.37902114
146	0xbde5b8be	-0.112168774
147	0xbeba49d8	-0.36384463
148	0x3ea63771	0.32464173
149	0xbd38c94d	-0.04511385
150	0xbe27e221	-0.16394855
151	0x3e30a254	0.17249423
152	0xbf0311d1	-0.5119906
153	0x3edd0f15	0.4317557
154	0x3e908670	0.28227568
155	0xbe42d6b0	-0.1902721
156	0x3eba341d	0.36367884
157	0xbdd83fbe	-0.10559033
158	0x3e36ab33	0.17838745
159	0xbdedbce3	-0.11608293
160	0xbe1c13fb	-0.15241997
161	0x3ea036e6	0.31291884
162	0xbe35d5b2	-0.177573
163	0x3da2cbb1	0.07949007
164	0xbe5622c2	-0.20911697
165	0xbdcc41e6	-0.09973507
166	0xbd054d96	-0.032544695
167	0x3e040df9	0.12895955
168	0xbe248661	-0.16066886
169	0x3d3316c3	0.04372288
170	0x3c92cb20	0.017919123
171	0xbdfe4a3d	-0.124165036
172	0x3dab7cbb	0.083734
173	0xbc83f7a2	-0.016109291
174	0x3e34611a	0.17615166
175	0xbe02d1e7	-0.12775384
176	0x3a169fd2	0.0005745861
177	0xbe8c9ffc	-0.27465808
178	0x3d43cba3	0.047801625
179	0x3c1094d1	0.008824543
180	0xbd0d7954	-0.034539536
181	0x3d51f979	0.051263306
182	0xbd7980c8	-0.06091383
183	0x3e3875d2	0.18013695
184	0xbe088774	-0.13332921
185	0xbee35913	-0.44403896
186	0x3d93248d	0.07184706
187	0x3d57df83	0.05270339
188	0x3eae2113	0.3400961
189	0xbe7df9e6	-0.2480236
190	0xbe70b4bf	-0.23506449
191	0xbea77c7a	-0.32712156
192	0xbe167e8f	-0.14696716
193	0xbe0f73a4	-0.14008957
194	0xbe097da9	-0.13426842
195	0x3dd11e8c	0.102109045
196	0x3d3254b1	0.0435378
197	0xbd22948a	-0.03969244
198	0x3e858868	0.26080632
199	0xbcbcde39	-0.023055183
200	0x3c4f6eeb	0.012660722
201	0xbe967c6b	-0.29391798
202	0xbdc3e296	-0.09564702
203	0xbec096af	-0.37614962
204	0x3e854599	0.2602966
205	0xbc8c6828	-0.01713951
206	0x3d1b368d	0.03789382
207	0x3e066e7a	0.13128081
208	0x3eb3321a	0.34999162
209	0x3bd19b84	0.0063967127
210	0xbee9a415	-0.45632997
211	0xbd43691f	-0.047707673
212	0xbe05d081	-0.13067819
213	0x3dcecb9a	0.10097428
214	0x3e10c4f3	0.1413763
215	0x3d9589e5	0.07301692
216	0xbea35c6c	-0.3190645
217	0xbe7d7707	-0.24752437
218	0xbe3f5b8d	-0.18687268
219	0xbdd58830	-0.10426366
220	0x3eac2f0f	0.33629653
221	0xbd46288d	-0.048378516
222	0x3d9b3711	0.075788625
223	0x3d08ce7d	0.033400048
224	0xbd9fa42f	-0.077949874
225	0xbda04a9b	-0.0782673
226	0xbe0c2fc5	-0.13690098
227	0xbcfe55e6	-0.031046819
228	0x3e42def2	0.1903036
229	0xbea81ace	-0.3283295
230	0xbd062111	-0.03274638
231	0x3d09648e	0.033543162
232	0xbce809cd	-0.028324986
233	0xbdda8c8c	-0.106713384
234	0x3db80e7b	0.08987137
235	0xbdc36432	-0.09540595
236	0x3e9703be	0.29495043
237	0xbea26f0e	-0.31725353
238	0x3deae9f8	0.11470407
239	0xbc18b012	-0.009319322
240	0x3e1ba868	0.1520096
241	0x3e401aab	0.18760173
242	0xbe14a168	-0.14514697
243	0xbceac295	-0.028657237
244	0xbeb2059b	-0.34769902
245	0xbcb78726	-0.022403311
246	0xbc9a2d1e	-0.018820342
247	0x3e2d800a	0.16943374
248	0x3e6809d2	0.22659996
249	0xbed9159c	-0.423993
250	0xbe23dea5	-0.16002901
251	0xbe9428a2	-0.2893725
252	0xbe646c6d	-0.22306986
253	0x3d3ae639	0.045629714
254	0xbec0a46d	-0.37625447
255	0xbcb28fd9	-0.021797108

b3 f4 [32]
0	0xbc29cbdc	-0.010363545
1	0x39345345	0.00017197158
2	0xbaca1489	-0.0015417497
3	0x39a78924	0.000319549
4	0x3b93ef86	0.0045146374
5	0xbc579ade	-0.013159482
6	0x3ca8d5d3	0.020609772
7	0x3bc376ca	0.0059650885
8	0xbc0f1c6a	-0.008734802
9	0xbc1622da	-0.009163583
10	0xbc5663f5	-0.013085355
11	0x3c89f2df	0.016839443
12	0xba79cc15	-0.0009529007
13	0xbbba5e39	-0.0056875017
14	0xbb4c0262	-0.003112935
15	0x3b37221d	0.0027943917
16	0x3a4ece38	0.00078890054
17	0x3ba5915b	0.005052728
18	0x3c3d4b87	0.011553652
19	0x3cd27059	0.025688337
20	0xbc64b31e	-0.0139587205
21	0xbbd1c917	-0.0064021456
22	0xbb462875	-0.0030236517
23	0x3bb1058b	0.005402272
24	0xbc0bba82	-0.008528354
25	0x3c3ff283	0.011715534
26	0x3bfc58ea	0.007701029
27	0xbc2393ce	-0.00998397
28	0xbc10d6e1	-0.008840294
29	0x3b83754a	0.0040117847
30	0x3c66b4aa	0.01408116
31	0x3b461217	0.0030223185

W4 f4 [64, 32, 3, 3]
0	0x3d12a10c	0.035798118
1	0x3db4e103	0.0883198
2	0x3d7fa55f	0.06241357
3	0x3e91b70d	0.2845997
4	0xbe2f9f5c	-0.17150635
5	0x3e25d3ae	0.1619403
6	0xbd53d09b	-0.051712614
7	0xbe67e2e5	-0.22645147
8	0xbea45b98	-0.3210113
9	0x3d8bc558	0.0682475
10	0xbe8952ff	-0.26821133
11	0xbe2e661b	-0.17031138
12	0x3dcf2499	0.10114402
13	0x3e894fad	0.268186
14	0x3d625f37	0.055266585
15	0x3e1461c5	0.14490421
16	0x3e096ef1	0.13421227
17	0xbed2f74f	-0.41204306
18	0x3da7dc9e	0.08196376
19	0xbf00bf2f	-0.50291723
20	0x3c251b34	0.0100772865
21	0xbdfdeff9	-0.12399287
22	0x3d91e8ef	0.07124507
23	0x3e5f3c89	0.21800436
24	0x3f024891	0.5089198
25	0xbe852dca	-0.26011497
26	0x3cd9c7cf	0.026584534
27	0xbececf45	-0.4039251
28	0x3dafe395	0.0858833
29	0x3e01504e	0.1262829
30	0x3d6d5281	0.05794001
31	0xbeb41fa3	-0.35180387
32	0x3e825889	0.25458172
33	0xbd20b074	-0.03923078
34	0x3f036a01	0.51333624
35	0x3e0392fd	0.1284904
36	0xbd0bf443	-0.034168493
37	0xbe31bfca	-0.17358318
38	0x3e22098b	0.15823953
39	0x3e87a0d3	0.26489887
40	0xbd0bff92	-0.034179278
41	0xbe3eae06	-0.18621072
42	0xbe870e03	-0.26377878
43	0xbecaaeaa	-0.39586383
44	0xbe87b023	-0.2650157
45	0x3d300475	0.042973
46	0x3d720941	0.059090856
47	0x3e623c64	0.2209335
48	0xbbaa66c6	-0.00520024
49	0x3e5d8ce8	0.21635783
50	0x3e3aa32b	0.18226306
51	0xbd16f22a	-0.03685204
52	0x3e43cc10	0.19120812
53	0x3e8ee835	0.27911535
54	0xbd48f974	-0.049066022
55	0x3cac211e	0.021011885
56	0x3e7abe37	0.24486624
57	0x3cd74f0a	0.026282806
58	0x3da49073	0.08035364
59	0x3e826f43	0.2547551
60	0xbccd07ad	-0.025028074
61	0xbdf76ff0	-0.12081897
62	0x3e952a77	0.2913396
63	0xbece24c5	-0.40262428
64	0x3dce2af7	0.10066789
65	0x3e02b361	0.1276374
66	0x3e900aa0	0.28133106
67	0x3ef36680	0.4753914
68	0x3e8ca4e7	0.2746956
69	0x3d3e0d18	0.046399206
70	0xbcbbbfe9	-0.022918658
71	0xbe1be1b5	-0.15222819
72	0xbd96a15b	-0.07354995
73	0x3e2a04f6	0.16603455
74	0xbe83cd0a	-0.2574237
75	0x3ee37ec6	0.44432658
76	0x3e2ffe48	0.17186844
77	0xbe900c13	-0.28134212
78	0x3dc9451b	0.09827634
79	0x3da09cea	0.07842429
80	0x3d250478	0.040287465
81	0x3e45a193	0.19299917
82	0xbe20d82d	-0.15707465
83	0xbd828c20	-0.06374383
84	0xbe1b8864	-0.15188748
85	0xbd8d106b	-0.06887897
86	0x3d83b00b	0.06430062
87	0xbdd62827	-0.10456877
88	0xbe226a61	-0.15860893
89	0xbd8c12a9	-0.06839497
90	0xbe5dff65	-0.21679457
91	0xbdeb2473	-0.114815615
92	0x3e4bbe25	0.19896753
93	0x3e4bb2a0	0.19892359
94	0xbd12b66c	-0.035818502
95	0xbe396cb1	-0.18107869
96	0xbee94cb6	-0.45566338
97	0x3eab0cde	0.33408254
98	0xbda61d4d	-0.081110574
99	0xbe68ff98	-0.22753751
100	0xbe61867a	-0.22023955
101	0x3e0635b2	0.1310642
102	0xbdee8a6c	-0.116474956
103	0xbd0c1a03	-0.034204494
104	0x3d79f41b	0.061023813
105	0xbdd4f77e	-0.10398768
106	0xbe1f758b	-0.15572183
107	0xbd0219a0	-0.03176272
108	0x3d9e5702	0.07731439
109	0xbe06e070	-0.13171554
110	0x3e8dfb04	0.27730572
111	0x3e6ddd1a	0.23228875
112	0xbe5cd08e	-0.21563932
113	0x3b261e57	0.0025347674
114	0x3d8d461c	0.06898138
115	0x3d149264	0.03627242
116	0x3e10de5d	0.14147325
117	0xbd0e0170	-0.03466934
118	0x3e21a96e	0.15787289
119	0x3dc16552	0.094431534
120	0x3d4fd8f8	0.050744027
121	0x3efc573e	0.4928531
122	0xbd6e3860	-0.058159232
123	0xbdca0bbb	-0.09865519
124	0xbe9ea4b2	-0.30985028
125	0xbc526a52	-0.012842732
126	0xbe81fdd5	-0.2538897
127	0xbd09b313	-0.033618044
128	0xbe9bf4d5	-0.3046023
129	0xbc582c58	-0.013194166
130	0x3dc781d7	0.09741562
131	0xbefc406a	-0.49267894
132	0xbde4f9c7	-0.11180454
133	0x3d97779e	0.07395862
134	0xbe3bce2d	-0.18340369
135	0xbd0df2c0	-0.034655333
136	0x3e7a5a67	0.24448548
137	0xbdba6bcd	-0.091025926
138	0x3d2d3d13	0.042294573
139	0xbd8aa096	-0.067689106
140	0xbe8762af	-0.26442477
141	0xbde7ff2f	-0.11327969
142	0xbd0feb0a	-0.03513626
143	0x3e83423e	0.25636476
144	0xbd1a219a	-0.0376297
145	0xbd822d16	-0.06356256
146	0x3e98ee1e	0.2986917
147	0xbd4427c8	-0.0478895
148	0x3e48f64a	0.19625202
149	0xbd076033	-0.033050727
150	0xbd23db5f	-0.04000413
151	0x3c4425a8	0.011971869
152	0x3eb36e68	0.3504517
153	0xbe2a1dc6	-0.1661292
154	0xbe826cfb	-0.2547377
155	0xbdb88df9	-0.09011454
156	0xbcc80ef9	-0.024421202
157	0x3e10452c	0.14088887
158	0x3e47f141	0.19525625
159	0xbeb140c5	-0.34619728
160	0x3d6984ab	0.057011288
161	0x3e130750	0.14358258
162	0x3edf464c	0.4360832
163	0xbcc8dd9d	-0.024519736
164	0xbc3bd13f	-0.011463462
165	0xbd092e62	-0.0334915
166	0x3d0ad97c	0.033898816
167	0xbdbbef3e	-0.09176491
168	0xbd7f1266	-0.062273405
169	0xbe052c3c	-0.13005155
170	0xbe05257f	-0.13002585
171	0xbecd8827	-0.40142938
172	0x3e31d885	0.17367752
173	0xbcfeee83	-0.03111959
174	0x3e02943b	0.12751858
175	0x3ed8338d	0.4222683
176	0x3ddca9e1	0.10774589
177	0x3b80560c	0.0039165076
178	0x3e717483	0.23579602
179	0x3e5557ee	0.20834324
180	0xbdba58ac	-0.09098944
181	0xbbca8f87	-0.0061816606
182	0x3e9e4b8d	0.30917016
183	0x3e03349c	0.12813038
184	0xbccf0489	-0.025270717
185	0xbdc94558	-0.098276794
186	0xbda19dbd	-0.07891414
187	0xbed21f89	-0.41039684
188	0x3b767c16	0.0037610582
189	0x3da2a171	0.07940949
190	0xbd6cb724	-0.057791844
191	0xbd87282e	-0.065994605
192	0xbcf83a74	-0.03030131
193	0xbe73c39e	-0.23805091
194	0xbec852b4	-0.39125597
195	0xbe33def0	-0.17565513
196	0x3c4dc2da	0.012558663
197	0xbe20a3eb	-0.1568753
198	0xbe9dc777	-0.30816242
199	0x3df7f0f2	0.121065035
200	0xbea3e5c4	-0.32011235
201	0x3e94dd52	0.29075104
202	0xbe29b4a4	-0.16572815
203	0x3cdd7bf8	0.027036652
204	0xbde23eff	-0.11047172
205	0x3d68a58f	0.056798514
206	0x3db47a7a	0.08812423
207	0xbd9735ab	-0.07383283
208	0xbe128a85	-0.14310654
209	0xbd3ff35a	-0.046862938
210	0xbe4d8c2d	-0.20073004
211	0x3d0104af	0.031498607
212	0x3d230177	0.03979632
213	0x3cb82297	0.022477431
214	0x3de67859	0.11253423
215	0xbc103649	-0.008802005
216	0xbdae2d0e	-0.08504687
217	0x3e5aabf3	0.21354656
218	0x3e439051	0.19098021
219	0xbe9797c3	-0.29607973
220	0x3e043fa9	0.1291491
221	0xbe1c96e6	-0.15291938
222	0x3d69fa2e	0.057123356
223	0x3ea8f8f1	0.33002427
224	0x3cc54ba4	0.02408392
225	0xbe984246	-0.29738063
226	0x3e57a757	0.21059929
227	0x3e0e9a61	0.13926078
228	0x3b48a700	0.0030617118
229	0xbd94d481	-0.072670944
230	0xbec630ba	-0.3870905
231	0xbd0b26ad	-0.03397243
232	0x3f0feb61	0.56218535
233	0x3d892808	0.066970885
234	0xbe807fce	-0.25097507
235	0x3d9d6137	0.07684558
236	0xbe124335	-0.1428345
237	0xbeb899f5	-0.3605496
238	0xbda16a6d	-0.07881627
239	0x3e4f2224	0.20227867
240	0x3ea38160	0.31934643
241	0xbebbfc1a	-0.36715776
242	0x3d852edd	0.06503079
243	0xbe0c15bf	-0.1368017
244	0xbdf5e4ea	-0.120065525
245	0xbeb3a226	-0.35084647
246	0x3cde55fe	0.027140614
247	0xbd484263	-0.048891436
248	0x3d7efb28	0.06225124
249	0x3dbb1c91	0.09136308
250	0x3e616c12	0.22013882
251	0x3ca9c483	0.020723587
252	0xbd6da3bc	-0.058017477
253	0x3d3341bd	0.043763865
254	0x3e081132	0.1328781
255	0x3dc53eee	0.096311435

b4 f4 [64]
0	0xbb0b0e9b	-0.0021218422
1	0x3be8c456	0.007103483
2	0x3c1bbc8a	0.0095054
3	0xbbe26cd5	-0.0069099464
4	0x3b4efee0	0.0031585023
5	0x3b8bb21e	0.0042631766
6	0xbc4fdf0f	-0.012687459
7	0x3c363177	0.011120192
8	0x3d27de47	0.040983465
9	0xbc7b5a8d	-0.015341413
10	0x3c4205ac	0.011842173
11	0x3cdd3c56	0.02700631
12	0x3c4fa221	0.012672932
13	0x3b4a99df	0.0030914468
14	0x3c28c97f	0.010301947
15	0x3b84fbd9	0.004058343
16	0x3a5505c8	0.00081261666
17	0xbc82ab08	-0.015950695
18	0xbc191bda	-0.009345019
19	0xbc8365d5	-0.016039768
20	0x3a9aa316	0.0011797871
21	0xbbc647af	-0.006051026
22	0x3bc2fad0	0.0059503093
23	0x3b9fbbcd	0.0048746825
24	0xbc498f8f	-0.012302293
25	0xbb7193f8	-0.0036861878
26	0x3c623964	0.013807628
27	0xbbdd4910	-0.0067530945
28	0x3c0793e2	0.008275004
29	0xbb3959d4	-0.0028282302
30	0xbc5348de	-0.012895791
31	0xbc01a140	-0.00791198
32	0x3b98b01a	0.004659665
33	0x3c67adf7	0.014140598
34	0x3c6a68f7	0.014307252
35	0xbc2e5085	-0.010639315
36	0xbcb11d00	-0.021620274
37	0xbc28eaf9	-0.010309928
38	0xbc26b5d5	-0.010175188
39	0xbc216615	-0.009850998
40	0x3c3685e2	0.011140319
41	0xbb9a1f1a	-0.0047034146
42	0xbae36798	-0.0017349599
43	0x3c992c6c	0.01869794
44	0x3b3f0916	0.0029149703
45	0xbc339dc7	-0.01096291
46	0xbc1dfd7b	-0.009642954
47	0x3c8c7302	0.017144684
48	0xbc896c2d	-0.016775215
49	0xbc93a89e	-0.018024739
50	0x3c3509bb	0.011049683
51	0xbc37a006	-0.011207586
52	0xba3cc532	-0.0007201015
53	0xbc5c8681	-0.013459803
54	0xbbd48909	-0.0064860624
55	0xbc32f1e4	-0.010921929
56	0xbbbf74cd	-0.005842781
57	0x3ce54fef	0.027992217
58	0x38fc2773	0.000120236444
59	0x3b634e54	0.0034684138
60	0x3b49a038	0.0030765664
61	0x3c5462a8	0.012962975
62	0xbba1dea4	-0.004939871
63	0x3c2be6b9	0.01049202
